node {
  name: "global_step/Initializer/Const"
  op: "Const"
  attr {
    key: "_class"
    value {
      list {
        s: "loc:@global_step"
      }
    }
  }
  attr {
    key: "_output_shapes"
    value {
      list {
        shape {
        }
      }
    }
  }
  attr {
    key: "dtype"
    value {
      type: DT_INT64
    }
  }
  attr {
    key: "value"
    value {
      tensor {
        dtype: DT_INT64
        tensor_shape {
        }
        int64_val: 0
      }
    }
  }
}
node {
  name: "global_step"
  op: "VariableV2"
  attr {
    key: "_class"
    value {
      list {
        s: "loc:@global_step"
      }
    }
  }
  attr {
    key: "_output_shapes"
    value {
      list {
        shape {
        }
      }
    }
  }
  attr {
    key: "container"
    value {
      s: ""
    }
  }
  attr {
    key: "dtype"
    value {
      type: DT_INT64
    }
  }
  attr {
    key: "shape"
    value {
      shape {
      }
    }
  }
  attr {
    key: "shared_name"
    value {
      s: ""
    }
  }
}
node {
  name: "global_step/Assign"
  op: "Assign"
  input: "global_step"
  input: "global_step/Initializer/Const"
  attr {
    key: "T"
    value {
      type: DT_INT64
    }
  }
  attr {
    key: "_class"
    value {
      list {
        s: "loc:@global_step"
      }
    }
  }
  attr {
    key: "_output_shapes"
    value {
      list {
        shape {
        }
      }
    }
  }
  attr {
    key: "use_locking"
    value {
      b: true
    }
  }
  attr {
    key: "validate_shape"
    value {
      b: true
    }
  }
}
node {
  name: "global_step/read"
  op: "Identity"
  input: "global_step"
  attr {
    key: "T"
    value {
      type: DT_INT64
    }
  }
  attr {
    key: "_class"
    value {
      list {
        s: "loc:@global_step"
      }
    }
  }
  attr {
    key: "_output_shapes"
    value {
      list {
        shape {
        }
      }
    }
  }
}
node {
  name: "Const"
  op: "Const"
  attr {
    key: "_output_shapes"
    value {
      list {
        shape {
          dim {
            size: 4716
          }
        }
      }
    }
  }
  attr {
    key: "dtype"
    value {
      type: DT_FLOAT
    }
  }
  attr {
    key: "value"
    value {
      tensor {
        dtype: DT_FLOAT
        tensor_shape {
          dim {
            size: 4716
          }
        }
        tensor_content: "…"
      }
    }
  }
}
node {
  name: "Const_1"
  op: "Const"
  attr {
    key: "_output_shapes"
    value {
      list {
        shape {
          dim {
            size: 4716
          }
        }
      }
    }
  }
  attr {
    key: "dtype"
    value {
      type: DT_FLOAT
    }
  }
  attr {
    key: "value"
    value {
      tensor {
        dtype: DT_FLOAT
        tensor_shape {
          dim {
            size: 4716
          }
        }
        tensor_content: "…"
      }
    }
  }
}
node {
  name: "Const_2"
  op: "Const"
  attr {
    key: "_output_shapes"
    value {
      list {
        shape {
          dim {
            size: 4716
          }
        }
      }
    }
  }
  attr {
    key: "dtype"
    value {
      type: DT_FLOAT
    }
  }
  attr {
    key: "value"
    value {
      tensor {
        dtype: DT_FLOAT
        tensor_shape {
          dim {
            size: 4716
          }
        }
        tensor_content: "…"
      }
    }
  }
}
node {
  name: "Const_3"
  op: "Const"
  attr {
    key: "_output_shapes"
    value {
      list {
        shape {
          dim {
            size: 4716
          }
        }
      }
    }
  }
  attr {
    key: "dtype"
    value {
      type: DT_FLOAT
    }
  }
  attr {
    key: "value"
    value {
      tensor {
        dtype: DT_FLOAT
        tensor_shape {
          dim {
            size: 4716
          }
        }
        tensor_content: "…"
      }
    }
  }
}
node {
  name: "Const_4"
  op: "Const"
  attr {
    key: "_output_shapes"
    value {
      list {
        shape {
          dim {
            size: 4716
          }
        }
      }
    }
  }
  attr {
    key: "dtype"
    value {
      type: DT_FLOAT
    }
  }
  attr {
    key: "value"
    value {
      tensor {
        dtype: DT_FLOAT
        tensor_shape {
          dim {
            size: 4716
          }
        }
        tensor_content: "…"
      }
    }
  }
}
node {
  name: "Const_5"
  op: "Const"
  attr {
    key: "_output_shapes"
    value {
      list {
        shape {
          dim {
            size: 4716
          }
        }
      }
    }
  }
  attr {
    key: "dtype"
    value {
      type: DT_FLOAT
    }
  }
  attr {
    key: "value"
    value {
      tensor {
        dtype: DT_FLOAT
        tensor_shape {
          dim {
            size: 4716
          }
        }
        tensor_content: "…"
      }
    }
  }
}
node {
  name: "Const_6"
  op: "Const"
  attr {
    key: "_output_shapes"
    value {
      list {
        shape {
          dim {
            size: 4716
          }
        }
      }
    }
  }
  attr {
    key: "dtype"
    value {
      type: DT_FLOAT
    }
  }
  attr {
    key: "value"
    value {
      tensor {
        dtype: DT_FLOAT
        tensor_shape {
          dim {
            size: 4716
          }
        }
        tensor_content: "…"
      }
    }
  }
}
node {
  name: "Const_7"
  op: "Const"
  attr {
    key: "_output_shapes"
    value {
      list {
        shape {
          dim {
            size: 4716
          }
        }
      }
    }
  }
  attr {
    key: "dtype"
    value {
      type: DT_FLOAT
    }
  }
  attr {
    key: "value"
    value {
      tensor {
        dtype: DT_FLOAT
        tensor_shape {
          dim {
            size: 4716
          }
        }
        tensor_content: "…"
      }
    }
  }
}
node {
  name: "SparseTensor/indices"
  op: "Const"
  attr {
    key: "_output_shapes"
    value {
      list {
        shape {
          dim {
            size: 4716
          }
          dim {
            size: 2
          }
        }
      }
    }
  }
  attr {
    key: "dtype"
    value {
      type: DT_INT64
    }
  }
  attr {
    key: "value"
    value {
      tensor {
        dtype: DT_INT64
        tensor_shape {
          dim {
            size: 4716
          }
          dim {
            size: 2
          }
        }
        tensor_content: "…"
      }
    }
  }
}
node {
  name: "SparseTensor/values"
  op: "Const"
  attr {
    key: "_output_shapes"
    value {
      list {
        shape {
          dim {
            size: 4716
          }
        }
      }
    }
  }
  attr {
    key: "dtype"
    value {
      type: DT_STRING
    }
  }
  attr {
    key: "value"
    value {
      tensor {
        dtype: DT_STRING
        tensor_shape {
          dim {
            size: 4716
          }
        }
        string_val: "9qbc9n"
        string_val: "9q9xyx"
        string_val: "dp4d75"
        string_val: "9qcety"
        string_val: "9qc9xz"
        string_val: "9q9kk9"
        string_val: "9q3vgx"
        string_val: "9qbs4f"
        string_val: "9q9pqn"
        string_val: "9q9j8t"
        string_val: "9q963h"
        string_val: "9q9vyp"
        string_val: "9q6msu"
        string_val: "9q9xzp"
        string_val: "9qc3nc"
        string_val: "9qbesj"
        string_val: "9q9zb3"
        string_val: "9q9q78"
        string_val: "9qcezv"
        string_val: "9q8zjb"
        string_val: "9q9pfn"
        string_val: "9qcv20"
        string_val: "9q9k4v"
        string_val: "9q8yyu"
        string_val: "9q9qbv"
        string_val: "9q9qkx"
        string_val: "9q9j4y"
        string_val: "9q8yt8"
        string_val: "9q9j4f"
        string_val: "9q8zsq"
        string_val: "9q9ppc"
        string_val: "9qdncg"
        string_val: "9q9xyz"
        string_val: "9q8zz8"
        string_val: "9q9qbp"
        string_val: "9q8ytv"
        string_val: "9q9qmu"
        string_val: "9q97cj"
        string_val: "9q9xpu"
        string_val: "9q9kd8"
        string_val: "9q8yxn"
        string_val: "9q9j33"
        string_val: "9qc7md"
        string_val: "9qbhsm"
        string_val: "9q8yu2"
        string_val: "9q8yu2"
        string_val: "9qc8nk"
        string_val: "9q97uk"
        string_val: "9q9yck"
        string_val: "9q9q66"
        string_val: "9q7ns9"
        string_val: "9q9m8j"
        string_val: "9q8yt6"
        string_val: "9q9624"
        string_val: "9qc62k"
        string_val: "9q8yyy"
        string_val: "9q9ptf"
        string_val: "9qc1by"
        string_val: "9qbf6t"
        string_val: "9q9m18"
        string_val: "9q9yem"
        string_val: "9qbdch"
        string_val: "9q9jxp"
        string_val: "9qc9pd"
        string_val: "9q9khk"
        string_val: "9qc01z"
        string_val: "9q9jwq"
        string_val: "9qc38j"
        string_val: "9qc3bh"
        string_val: "9q8vz8"
        string_val: "9q9ht3"
        string_val: "9qcb2s"
        string_val: "9q9p1v"
        string_val: "9q9628"
        string_val: "9q8vxs"
        string_val: "9q9j9q"
        string_val: "9qc1w4"
        string_val: "9q9p5m"
        string_val: "9q9nmc"
        string_val: "9q8ytp"
        string_val: "9qc25d"
        string_val: "9qbdpz"
        string_val: "9q8yym"
        string_val: "9q9p56"
        string_val: "9q94q9"
        string_val: "9q9q9h"
        string_val: "9qc608"
        string_val: "9q9wu8"
        string_val: "9qcu08"
        string_val: "9q9x9j"
        string_val: "9qc8p8"
        string_val: "9qc9xs"
        string_val: "9q9j89"
        string_val: "9q9wmr"
        string_val: "9qbesn"
        string_val: "9q9z44"
        string_val: "9q9yeq"
        string_val: "9q9kfc"
        string_val: "9q9k43"
        string_val: "9q8ywk"
        string_val: "9qcbbe"
        string_val: "9rcfb4"
        string_val: "9q8yvw"
        string_val: "9qcubr"
        string_val: "dp4d46"
        string_val: "9q8yyq"
        string_val: "9q9kem"
        string_val: "9qc147"
        string_val: "9qdn85"
        string_val: "9q9nqm"
        string_val: "9q8ysm"
        string_val: "9q8yjn"
        string_val: "9q94wp"
        string_val: "9q9rup"
        string_val: "9q9nm5"
        string_val: "9q9p60"
        string_val: "9q9zb5"
        string_val: "9q9p3x"
        string_val: "9q9p4j"
        string_val: "9q97c8"
        string_val: "9rcf89"
        string_val: "9q9p8c"
        string_val: "9q9hwm"
        string_val: "9q9ngf"
        string_val: "9rcf8t"
        string_val: "9q9jye"
        string_val: "9q8yy9"
        string_val: "9q8vyt"
        string_val: "9qc6eu"
        string_val: "9qb6r7"
        string_val: "9q9p4k"
        string_val: "9q9j9t"
        string_val: "9qc8pb"
        string_val: "9q97rb"
        string_val: "9q8ysr"
        string_val: "9q9j9k"
        string_val: "9qc22s"
        string_val: "9qcbbh"
        string_val: "9q9rch"
        string_val: "9q8zzf"
        string_val: "dp4d4z"
        string_val: "9q9pyj"
        string_val: "9qc8zx"
        string_val: "9q8vuw"
        string_val: "9q9p6b"
        string_val: "9q9x8e"
        string_val: "9qc7qh"
        string_val: "9q8zyb"
        string_val: "9q9pmz"
        string_val: "9q9ry1"
        string_val: "9q9ns8"
        string_val: "9q8ym2"
        string_val: "9q9z48"
        string_val: "9q9k2j"
        string_val: "9q9p9f"
        string_val: "9q9khk"
        string_val: "9q8yww"
        string_val: "9q9nck"
        string_val: "9q9hsj"
        string_val: "9q9jhd"
        string_val: "9q9ney"
        string_val: "9qc62h"
        string_val: "9qdngw"
        string_val: "9q9p33"
        string_val: "9q9ryq"
        string_val: "9q8yy1"
        string_val: "9qc017"
        string_val: "9q9hxd"
        string_val: "9q9qkx"
        string_val: "dqctdz"
        string_val: "9q9qcm"
        string_val: "9qc9x7"
        string_val: "9r4c4b"
        string_val: "9q8yvh"
        string_val: "9qbf89"
        string_val: "9q9jxb"
        string_val: "9qc1ev"
        string_val: "9qd80z"
        string_val: "9q9k9c"
        string_val: "9qc8n5"
        string_val: "9qc24p"
        string_val: "9q9kj4"
        string_val: "9qbf85"
        string_val: "9qc9wu"
        string_val: "9q9pq7"
        string_val: "9q9qmk"
        string_val: "9qc8nh"
        string_val: "9q5bc9"
        string_val: "9qbfe4"
        string_val: "9q9jqw"
        string_val: "9qbbkp"
        string_val: "9q9ncq"
        string_val: "9q9qc1"
        string_val: "9q9nk9"
        string_val: "dp4d76"
        string_val: "9q5bc6"
        string_val: "9qbesp"
        string_val: "9qc0f8"
        string_val: "9qcezr"
        string_val: "9qbegc"
        string_val: "9q9prw"
        string_val: "9q9p1e"
        string_val: "9q9p1x"
        string_val: "9qc1bw"
        string_val: "9q9pkb"
        string_val: "9qbb45"
        string_val: "9qbb5k"
        string_val: "9q9x8g"
        string_val: "9q9p4c"
        string_val: "9q6mt5"
        string_val: "9q7nw4"
        string_val: "9q9yxf"
        string_val: "9q9k52"
        string_val: "9q9hfs"
        string_val: "9qcb26"
        string_val: "9qc8qe"
        string_val: "9q6mt4"
        string_val: "9qcbb0"
        string_val: "9qc0p2"
        string_val: "9q9jhd"
        string_val: "9q9kkk"
        string_val: "9q8yvc"
        string_val: "9qc70h"
        string_val: "9q9qbw"
        string_val: "9q9e34"
        string_val: "9q9k54"
        string_val: "9q9k47"
        string_val: "9qcv15"
        string_val: "9qc0st"
        string_val: "9q9r0r"
        string_val: "9q9k4r"
        string_val: "9qc8pb"
        string_val: "9q7nr0"
        string_val: "9q9rbd"
        string_val: "9q8yjj"
        string_val: "9q9j9y"
        string_val: "9q8yvc"
        string_val: "9q9psf"
        string_val: "9qc0pd"
        string_val: "9qc00m"
        string_val: "9q9rv8"
        string_val: "dp4d6k"
        string_val: "9q9nqd"
        string_val: "9q9npn"
        string_val: "9q97fe"
        string_val: "9qc8ph"
        string_val: "9q9k6j"
        string_val: "dp4d1z"
        string_val: "9qc6g8"
        string_val: "9qc1ch"
        string_val: "9qc60t"
        string_val: "9q97g7"
        string_val: "9q9pqx"
        string_val: "9q94zf"
        string_val: "9q9jh2"
        string_val: "9qctr8"
        string_val: "9q8vxg"
        string_val: "9q9ysp"
        string_val: "9q95zw"
        string_val: "9q9px0"
        string_val: "9q9kf4"
        string_val: "9qc8n7"
        string_val: "9q9yx9"
        string_val: "9qc9zf"
        string_val: "9q7ntx"
        string_val: "9q9nqq"
        string_val: "9q9zpw"
        string_val: "9q8ytm"
        string_val: "9q8yvn"
        string_val: "9qbdzx"
        string_val: "9q9rby"
        string_val: "9q8yuy"
        string_val: "9qc3q2"
        string_val: "9qc00w"
        string_val: "9qc0fe"
        string_val: "9qbfbg"
        string_val: "9qc267"
        string_val: "9q9nmn"
        string_val: "9q9pqq"
        string_val: "9q9wjq"
        string_val: "9q9ryc"
        string_val: "9qctpd"
        string_val: "9qbghb"
        string_val: "9q8zn2"
        string_val: "9q8yhe"
        string_val: "9q9qcu"
        string_val: "9q9xps"
        string_val: "9qc0dr"
        string_val: "9q9nkd"
        string_val: "9qbf8k"
        string_val: "9q9p6b"
        string_val: "9qc7qf"
        string_val: "9q9k1e"
        string_val: "9qbhtj"
        string_val: "9qc0fb"
        string_val: "9q9q5x"
        string_val: "9qc8qu"
        string_val: "9q9zbt"
        string_val: "9q9qbj"
        string_val: "9q8yyy"
        string_val: "9qben6"
        string_val: "9rcdzf"
        string_val: "9qbfbf"
        string_val: "9q9pk4"
        string_val: "9qdnc2"
        string_val: "9q9pzu"
        string_val: "9q93jm"
        string_val: "9qc8qk"
        string_val: "9qc8nh"
        string_val: "9q9neu"
        string_val: "9q9pw1"
        string_val: "9qc1vc"
        string_val: "9q8vyg"
        string_val: "9q9z0p"
        string_val: "9q9pvd"
        string_val: "9q8zg5"
        string_val: "9q8yt5"
        string_val: "9r4bgr"
        string_val: "9qc0fe"
        string_val: "9q9zb9"
        string_val: "9q99tv"
        string_val: "9q9jwu"
        string_val: "9q9qb4"
        string_val: "9q9j8k"
        string_val: "9q9kfn"
        string_val: "9q94r3"
        string_val: "9rcdzf"
        string_val: "9q9nqp"
        string_val: "9q8ywx"
        string_val: "9q9hut"
        string_val: "9q8zn3"
        string_val: "9qc8pn"
        string_val: "9q5bcd"
        string_val: "9q97e5"
        string_val: "9q9q3g"
        string_val: "9q9kjk"
        string_val: "9q9jqw"
        string_val: "9q9j9s"
        string_val: "9q97fp"
        string_val: "9q9ybt"
        string_val: "9qc8ns"
        string_val: "9q9p15"
        string_val: "9q9pfp"
        string_val: "9qcgcn"
        string_val: "9q9r04"
        string_val: "9q9ry0"
        string_val: "9q9ps0"
        string_val: "9q9j99"
        string_val: "9qc0j9"
        string_val: "9qc62n"
        string_val: "9qbfc7"
        string_val: "9rcfb4"
        string_val: "9qc8tb"
        string_val: "9qc620"
        string_val: "9q9hfz"
        string_val: "9q9pb2"
        string_val: "9q97cp"
        string_val: "9q9zbx"
        string_val: "9qc11b"
        string_val: "9q8zgm"
        string_val: "9qbgjr"
        string_val: "9q8zew"
        string_val: "9q9qcv"
        string_val: "9qc0fc"
        string_val: "9q9nmx"
        string_val: "9qc1uv"
        string_val: "9q9ycv"
        string_val: "9qbv95"
        string_val: "9qcggj"
        string_val: "9q9d88"
        string_val: "9qc613"
        string_val: "9q97u0"
        string_val: "9q9k21"
        string_val: "9q9pqr"
        string_val: "9q9k2z"
        string_val: "9qc203"
        string_val: "9q8yyv"
        string_val: "dqctdt"
        string_val: "9q8yxk"
        string_val: "9qc8zy"
        string_val: "9q8zgy"
        string_val: "9q9pwx"
        string_val: "9q9pse"
        string_val: "9r4bgn"
        string_val: "9q97gy"
        string_val: "9rcfb8"
        string_val: "9q9hxx"
        string_val: "9q9jhd"
        string_val: "9q9rtg"
        string_val: "9qc0jp"
        string_val: "9qben7"
        string_val: "9q9hfw"
        string_val: "9qcc6e"
        string_val: "9q9hpg"
        string_val: "9q94zd"
        string_val: "9qcgbt"
        string_val: "drdv4m"
        string_val: "9q8zn2"
        string_val: "9q9k4d"
        string_val: "9qc8r8"
        string_val: "9q9q5r"
        string_val: "9q95zp"
        string_val: "9q8zsf"
        string_val: "9q7nvc"
        string_val: "9q9hw5"
        string_val: "9q8vx7"
        string_val: "9qc25z"
        string_val: "9q9jyg"
        string_val: "9qc8re"
        string_val: "9qbdwy"
        string_val: "9rcf8z"
        string_val: "9qc0hz"
        string_val: "9q8znd"
        string_val: "9qc23d"
        string_val: "9qc00f"
        string_val: "9q97m6"
        string_val: "9qcet7"
        string_val: "9q8yyw"
        string_val: "9q9rc5"
        string_val: "9q9hgp"
        string_val: "drdv4t"
        string_val: "9q9q9h"
        string_val: "9qc9p6"
        string_val: "9qbcc8"
        string_val: "9q9zbz"
        string_val: "9qc0p8"
        string_val: "9q962e"
        string_val: "9q9pb7"
        string_val: "9qc0kb"
        string_val: "9qc7q6"
        string_val: "9q9pbr"
        string_val: "9q8zz7"
        string_val: "9q9npw"
        string_val: "9q9wsu"
        string_val: "9qc0st"
        string_val: "9q9m3j"
        string_val: "9q8yxk"
        string_val: "9q8zgx"
        string_val: "9q9kk9"
        string_val: "9qdnfm"
        string_val: "9q9nuk"
        string_val: "9q9q9m"
        string_val: "9q97f3"
        string_val: "9q9625"
        string_val: "9q9j9q"
        string_val: "9q972z"
        string_val: "dqctf5"
        string_val: "9q9zc7"
        string_val: "9q9nfp"
        string_val: "9qbs6v"
        string_val: "9qc229"
        string_val: "9q9m2p"
        string_val: "9q97dt"
        string_val: "9q8zgy"
        string_val: "9qc3bh"
        string_val: "9q9wuc"
        string_val: "9qctpm"
        string_val: "9q9rut"
        string_val: "9q9r0k"
        string_val: "9q9hsb"
        string_val: "9q9nem"
        string_val: "9q8yvt"
        string_val: "dp4d61"
        string_val: "9q8yjz"
        string_val: "9q99tj"
        string_val: "9q9p3c"
        string_val: "9qbf8p"
        string_val: "9q9j9t"
        string_val: "9q9jye"
        string_val: "9q9q69"
        string_val: "9q8yvd"
        string_val: "9q9pm0"
        string_val: "9qbb5q"
        string_val: "9q9jx1"
        string_val: "9q9ryf"
        string_val: "9q9p4e"
        string_val: "9q8yuu"
        string_val: "9rcf8x"
        string_val: "9qcet1"
        string_val: "9q9wsy"
        string_val: "9q9p31"
        string_val: "9qbfc4"
        string_val: "9qbcv3"
        string_val: "9qbf20"
        string_val: "9q9p94"
        string_val: "9qc24j"
        string_val: "9qbf8k"
        string_val: "9q9p6s"
        string_val: "9rcf87"
        string_val: "9qc11v"
        string_val: "9q9qcw"
        string_val: "9qc04n"
        string_val: "9q8yjh"
        string_val: "9q9hpq"
        string_val: "9q9j8y"
        string_val: "9q9nmb"
        string_val: "9qcbbs"
        string_val: "9q9k33"
        string_val: "9qc22g"
        string_val: "9qbdys"
        string_val: "9qc0ns"
        string_val: "9q8ytc"
        string_val: "9q9njc"
        string_val: "9q9x8x"
        string_val: "9qbe50"
        string_val: "9q9hpr"
        string_val: "9q9nfx"
        string_val: "9q8zxp"
        string_val: "9q8yy3"
        string_val: "9q9hpg"
        string_val: "9q9k04"
        string_val: "9q9rz0"
        string_val: "9q9nmb"
        string_val: "9qc1xh"
        string_val: "9q9jwq"
        string_val: "9q9ygb"
        string_val: "9q97br"
        string_val: "9q99t7"
        string_val: "9qc11g"
        string_val: "9qc61p"
        string_val: "9q9rc5"
        string_val: "9qbsnb"
        string_val: "9q9huk"
        string_val: "9q8yyy"
        string_val: "9q97pb"
        string_val: "9q9nt1"
        string_val: "9q9rbv"
        string_val: "9q8zze"
        string_val: "9q7ntc"
        string_val: "9q9k12"
        string_val: "9q9k7r"
        string_val: "9qc8n6"
        string_val: "9q9xp9"
        string_val: "9qbdy8"
        string_val: "9qc0nj"
        string_val: "9q9j9j"
        string_val: "9qc15d"
        string_val: "9qc0jd"
        string_val: "9qc005"
        string_val: "9q96hc"
        string_val: "9q8ymr"
        string_val: "9q9jwq"
        string_val: "9q9p4v"
        string_val: "9q9wsm"
        string_val: "9r4c4b"
        string_val: "9q9ng7"
        string_val: "9q9zh4"
        string_val: "9q9q43"
        string_val: "9q9hs5"
        string_val: "9qc1w1"
        string_val: "9q8yw3"
        string_val: "9q9wsq"
        string_val: "9qcb09"
        string_val: "9q9qcw"
        string_val: "9qc01e"
        string_val: "9q9qb5"
        string_val: "9qbsb6"
        string_val: "9q9x94"
        string_val: "9q9k4r"
        string_val: "9q9kt1"
        string_val: "9qc70k"
        string_val: "9q8ytt"
        string_val: "9q9qqr"
        string_val: "9q97gy"
        string_val: "9q9yg9"
        string_val: "dp4d6d"
        string_val: "9q8zen"
        string_val: "9qc60b"
        string_val: "9q9nsr"
        string_val: "9q9njy"
        string_val: "9qcet1"
        string_val: "9qc0fu"
        string_val: "9qc9z9"
        string_val: "9qcudx"
        string_val: "9q9p5j"
        string_val: "9q9rv9"
        string_val: "9q9p4d"
        string_val: "9q9qkf"
        string_val: "9q8zjb"
        string_val: "9qbesn"
        string_val: "9q97r2"
        string_val: "9q9ks0"
        string_val: "9q9629"
        string_val: "9q8ywp"
        string_val: "9qbeez"
        string_val: "9qcemh"
        string_val: "9qbdpj"
        string_val: "9q9kf8"
        string_val: "dp4d4r"
        string_val: "9q8yy3"
        string_val: "9qc40k"
        string_val: "9q9p4s"
        string_val: "9q8yyk"
        string_val: "9q9pb3"
        string_val: "9qctpp"
        string_val: "9q9pjm"
        string_val: "9qbdxx"
        string_val: "9q9d88"
        string_val: "9qc63n"
        string_val: "drdv5f"
        string_val: "9q9jyb"
        string_val: "9q8zz6"
        string_val: "9qbd04"
        string_val: "9q8yvx"
        string_val: "9qbgj5"
        string_val: "9qc1y4"
        string_val: "9qdpjt"
        string_val: "9qcgbh"
        string_val: "9rcf8d"
        string_val: "9qc032"
        string_val: "9q9r0s"
        string_val: "9q9k18"
        string_val: "9q8vxn"
        string_val: "9qbe50"
        string_val: "9q93gb"
        string_val: "9qc01r"
        string_val: "9qbb5n"
        string_val: "9q96b1"
        string_val: "9q9d95"
        string_val: "9q9xzp"
        string_val: "9q9k61"
        string_val: "9rcfb8"
        string_val: "9qc9xe"
        string_val: "9qc1xj"
        string_val: "9q9j4w"
        string_val: "9q9kjh"
        string_val: "9qbb4z"
        string_val: "9q9hue"
        string_val: "drdv4m"
        string_val: "9q9k0c"
        string_val: "9q9r18"
        string_val: "9q9k18"
        string_val: "9q9ynh"
        string_val: "9qc68u"
        string_val: "9qc25g"
        string_val: "9q9d3q"
        string_val: "9q9jxh"
        string_val: "9q9k4p"
        string_val: "9q963m"
        string_val: "9q5bce"
        string_val: "9q9rux"
        string_val: "9qcgbu"
        string_val: "9q9ke3"
        string_val: "9q99t2"
        string_val: "9q8vy6"
        string_val: "9q9ht7"
        string_val: "9q9wt1"
        string_val: "9qbv9t"
        string_val: "dp4d4r"
        string_val: "9qbeu0"
        string_val: "9q8zfz"
        string_val: "9q962z"
        string_val: "9q9z0g"
        string_val: "9q9p96"
        string_val: "9q97ce"
        string_val: "9qcb2t"
        string_val: "9qc03d"
        string_val: "9qc01r"
        string_val: "9qbbhb"
        string_val: "9qc8nb"
        string_val: "9q8yyh"
        string_val: "9q972h"
        string_val: "9q9qb7"
        string_val: "9q9kcx"
        string_val: "9qbeu4"
        string_val: "9q9j5d"
        string_val: "9q9hx7"
        string_val: "9qbdzc"
        string_val: "9qc0dg"
        string_val: "9qbesh"
        string_val: "9q9kje"
        string_val: "9q9z1p"
        string_val: "9q9x8s"
        string_val: "9q8ytm"
        string_val: "9qc1bc"
        string_val: "9q9kdv"
        string_val: "9q9kjm"
        string_val: "9qc61k"
        string_val: "9qc3q2"
        string_val: "9q9r47"
        string_val: "9q964w"
        string_val: "9q9qm1"
        string_val: "9q8zuq"
        string_val: "9q9pqn"
        string_val: "9qc8nz"
        string_val: "9qbghz"
        string_val: "9q8yyq"
        string_val: "9q9rbq"
        string_val: "9qcbbr"
        string_val: "9q9r46"
        string_val: "9qc8ru"
        string_val: "9q8zjc"
        string_val: "9q8vku"
        string_val: "9qc1s8"
        string_val: "9qcb0j"
        string_val: "9qc4pz"
        string_val: "9qcv14"
        string_val: "9qc8q8"
        string_val: "9q9k51"
        string_val: "9qc0er"
        string_val: "9qctpz"
        string_val: "9qbe08"
        string_val: "9qc8nk"
        string_val: "9q99tv"
        string_val: "9q9q5z"
        string_val: "9q8znd"
        string_val: "9q9qqj"
        string_val: "9q9pvy"
        string_val: "9qc60g"
        string_val: "9qcgbe"
        string_val: "9q8zed"
        string_val: "9q9nwb"
        string_val: "9q7nt9"
        string_val: "9qdn8m"
        string_val: "9qc8nm"
        string_val: "9qc1y6"
        string_val: "9q9pqq"
        string_val: "9qc8p9"
        string_val: "9q97uk"
        string_val: "9q9pb8"
        string_val: "9q9k49"
        string_val: "9q97gs"
        string_val: "9q8ytj"
        string_val: "9q9j9n"
        string_val: "9q9qqq"
        string_val: "9q9p1q"
        string_val: "9q9pwz"
        string_val: "9q9rtm"
        string_val: "9q97b4"
        string_val: "9q9q46"
        string_val: "9q9ngu"
        string_val: "9q8yy9"
        string_val: "9q9kdf"
        string_val: "9q9pzw"
        string_val: "9q9e0n"
        string_val: "9q9nww"
        string_val: "9qdnfz"
        string_val: "9qc25u"
        string_val: "9q9q1f"
        string_val: "9q9hmt"
        string_val: "9q9kf1"
        string_val: "9qc0sj"
        string_val: "9q8yhd"
        string_val: "9q9ng7"
        string_val: "9q99ts"
        string_val: "9q99dk"
        string_val: "9q9zbn"
        string_val: "9q9ws6"
        string_val: "9q9p9m"
        string_val: "9q9pyb"
        string_val: "9q8zxn"
        string_val: "9qbb9z"
        string_val: "9q9ynb"
        string_val: "9qc62k"
        string_val: "9qc0dr"
        string_val: "9q9ws7"
        string_val: "9q9zbt"
        string_val: "9q5bcc"
        string_val: "9q9k55"
        string_val: "9q8yy4"
        string_val: "9qbs8s"
        string_val: "9q9p6u"
        string_val: "9q9wuc"
        string_val: "9q9p1d"
        string_val: "9q8zgf"
        string_val: "9q9jz3"
        string_val: "9q9p3u"
        string_val: "9q9qby"
        string_val: "9q94y1"
        string_val: "9qc615"
        string_val: "9qcgcn"
        string_val: "9q9j1q"
        string_val: "9q9rbq"
        string_val: "9q8zn1"
        string_val: "9qc1c6"
        string_val: "9qc0hy"
        string_val: "9q9r42"
        string_val: "9q9rux"
        string_val: "9q9pve"
        string_val: "9qc0j2"
        string_val: "9q97r7"
        string_val: "9q5bf4"
        string_val: "9q9p3w"
        string_val: "9qcb24"
        string_val: "9q9pb5"
        string_val: "9q9nmx"
        string_val: "9qc0gn"
        string_val: "9qc0dy"
        string_val: "9q9kef"
        string_val: "9q8yyz"
        string_val: "9q8znd"
        string_val: "9q7ns9"
        string_val: "9qc1cu"
        string_val: "9q97gh"
        string_val: "9q9z16"
        string_val: "9q9p6b"
        string_val: "9q9wzv"
        string_val: "9q9wkr"
        string_val: "9q9rbe"
        string_val: "9q95j6"
        string_val: "9q9z0r"
        string_val: "9qbccz"
        string_val: "9q9khp"
        string_val: "9qc8pj"
        string_val: "9q9z1f"
        string_val: "9q9ruy"
        string_val: "9q9621"
        string_val: "9q9p1z"
        string_val: "9qcbbp"
        string_val: "9q8ym1"
        string_val: "9q97uc"
        string_val: "9q94zf"
        string_val: "9qbdwx"
        string_val: "9q6mtk"
        string_val: "9qc8r8"
        string_val: "9q9h9v"
        string_val: "9q9pqn"
        string_val: "9q962r"
        string_val: "9qc60g"
        string_val: "9qdncu"
        string_val: "9qc1cr"
        string_val: "9q9p52"
        string_val: "9qcgcy"
        string_val: "9q9kdf"
        string_val: "9q9z17"
        string_val: "9qc1z9"
        string_val: "9q9xzw"
        string_val: "9qdncc"
        string_val: "9q9zcj"
        string_val: "9q9p64"
        string_val: "9q9p9q"
        string_val: "9qbc3r"
        string_val: "9q9yce"
        string_val: "9qc8nr"
        string_val: "9q9jqw"
        string_val: "dp4d65"
        string_val: "9qc2hu"
        string_val: "9q7nww"
        string_val: "9qc0ef"
        string_val: "9qbf13"
        string_val: "9q9mb2"
        string_val: "9q9ngm"
        string_val: "9q964w"
        string_val: "9q8zmm"
        string_val: "9q9z1m"
        string_val: "9q8yy2"
        string_val: "9q99t5"
        string_val: "9q97c5"
        string_val: "9q8yux"
        string_val: "9q9xzr"
        string_val: "9qbes0"
        string_val: "9q8ynp"
        string_val: "9q9pr1"
        string_val: "9q9km4"
        string_val: "9q9k2q"
        string_val: "9q9rwz"
        string_val: "9q9ppk"
        string_val: "9qbb4m"
        string_val: "9q8ytm"
        string_val: "9q9kjk"
        string_val: "9q9kf1"
        string_val: "9q8ytu"
        string_val: "9q9jh3"
        string_val: "9qc00y"
        string_val: "9q97cb"
        string_val: "9qbs8s"
        string_val: "9q9zbn"
        string_val: "9q9ng8"
        string_val: "9qc1cp"
        string_val: "9q9z9m"
        string_val: "9qbdyk"
        string_val: "9qc80q"
        string_val: "9q9kdf"
        string_val: "9q9p9e"
        string_val: "9qc0j6"
        string_val: "9qc15f"
        string_val: "9q9z1p"
        string_val: "9q9pss"
        string_val: "9qc0ce"
        string_val: "9q9hz8"
        string_val: "9q95yg"
        string_val: "9qc222"
        string_val: "9q9jxk"
        string_val: "9q9xb8"
        string_val: "9q9pq7"
        string_val: "9qbhsu"
        string_val: "9qcbbs"
        string_val: "9q9hxm"
        string_val: "9q9r21"
        string_val: "9q9ryf"
        string_val: "9qc60e"
        string_val: "9q97cm"
        string_val: "9q9qkx"
        string_val: "9q97uk"
        string_val: "9qbdzf"
        string_val: "9q8yvd"
        string_val: "9qcemm"
        string_val: "9q9k8z"
        string_val: "9q9nez"
        string_val: "9q9yem"
        string_val: "9q9d88"
        string_val: "9q97bu"
        string_val: "9q9k47"
        string_val: "9q9kkq"
        string_val: "9q9k89"
        string_val: "9q8ynr"
        string_val: "9qbdzw"
        string_val: "9qc8qt"
        string_val: "9q9p69"
        string_val: "9q9pqw"
        string_val: "9q8yyz"
        string_val: "9q8vxv"
        string_val: "9q94x8"
        string_val: "dp4d0g"
        string_val: "9q9k6d"
        string_val: "9qc0kp"
        string_val: "9q9npt"
        string_val: "9q8yhx"
        string_val: "9q9wzu"
        string_val: "9q9p9m"
        string_val: "9q99ts"
        string_val: "9qc60p"
        string_val: "9q8yyz"
        string_val: "9q9jxf"
        string_val: "9qcgb7"
        string_val: "9qbc91"
        string_val: "9q7ntd"
        string_val: "9qc24u"
        string_val: "9q9r47"
        string_val: "9q8zkq"
        string_val: "9q9ycj"
        string_val: "9q8zj8"
        string_val: "9qcbb0"
        string_val: "9q9qf3"
        string_val: "9qc1xd"
        string_val: "9q97bs"
        string_val: "9q9q9n"
        string_val: "9q9r1d"
        string_val: "9qc0jv"
        string_val: "9q9njf"
        string_val: "9qbbh1"
        string_val: "9q8zn0"
        string_val: "9qctr6"
        string_val: "9qc9zc"
        string_val: "9qbdxt"
        string_val: "9q9kj4"
        string_val: "9q8ytv"
        string_val: "9q9hr3"
        string_val: "9q9jy6"
        string_val: "dqcter"
        string_val: "9q9wsh"
        string_val: "9q96d3"
        string_val: "9qc8p8"
        string_val: "9q9k3m"
        string_val: "9q9p3u"
        string_val: "9qc1xe"
        string_val: "9q97et"
        string_val: "9q9j93"
        string_val: "9q9723"
        string_val: "9q9kjm"
        string_val: "9q93uz"
        string_val: "9qctp7"
        string_val: "9q97bx"
        string_val: "9q8yyu"
        string_val: "9q8yjg"
        string_val: "9q9k7g"
        string_val: "9qbb74"
        string_val: "9qc40k"
        string_val: "9qc01k"
        string_val: "9q9q6b"
        string_val: "9qctpd"
        string_val: "9q9jyh"
        string_val: "9q9rbh"
        string_val: "9q9vyp"
        string_val: "9q9k73"
        string_val: "9q93x6"
        string_val: "9q9wt1"
        string_val: "dp4d6k"
        string_val: "9qbbcb"
        string_val: "9q99bb"
        string_val: "9qc25s"
        string_val: "9q9jwg"
        string_val: "9qc1ck"
        string_val: "9qc2hj"
        string_val: "9qc8ph"
        string_val: "9q8yyx"
        string_val: "9qbu0e"
        string_val: "9q9rbn"
        string_val: "9q9xxt"
        string_val: "9q9ycn"
        string_val: "9q8zsy"
        string_val: "9qc409"
        string_val: "9qc9z9"
        string_val: "9r4c46"
        string_val: "9q5bce"
        string_val: "9q9p4n"
        string_val: "9qc7np"
        string_val: "9qc0jn"
        string_val: "9q9r26"
        string_val: "9qc38j"
        string_val: "9q8ymr"
        string_val: "9qb7pe"
        string_val: "9q97us"
        string_val: "9q9wu2"
        string_val: "9q94rr"
        string_val: "9q96j9"
        string_val: "9q9k11"
        string_val: "9qc60p"
        string_val: "9q8yuc"
        string_val: "9qc8p0"
        string_val: "9q9we6"
        string_val: "9q9qf1"
        string_val: "9qc8qt"
        string_val: "9qc7q8"
        string_val: "9q9rv8"
        string_val: "9q9kfh"
        string_val: "9q8ywn"
        string_val: "9q9q9n"
        string_val: "9q9xzw"
        string_val: "9qc4pz"
        string_val: "9q9rc7"
        string_val: "9q9pc0"
        string_val: "dp4d75"
        string_val: "9q8vyd"
        string_val: "dqctc0"
        string_val: "9qbesn"
        string_val: "9q9xx7"
        string_val: "9q9ptz"
        string_val: "9rcf8t"
        string_val: "9qc8w2"
        string_val: "9q9yxg"
        string_val: "9q9p8v"
        string_val: "9q8yyz"
        string_val: "9q8yt7"
        string_val: "9q9khn"
        string_val: "9q9xb3"
        string_val: "9q9kff"
        string_val: "9q9j5x"
        string_val: "9qbcsw"
        string_val: "9q9hud"
        string_val: "9q9xp2"
        string_val: "9q9x8f"
        string_val: "9q9q78"
        string_val: "9q9wkr"
        string_val: "9q94xq"
        string_val: "9qc24x"
        string_val: "9qcgcp"
        string_val: "9qc1yd"
        string_val: "9r4bfv"
        string_val: "9qc1c4"
        string_val: "9qcv0m"
        string_val: "9q9pc0"
        string_val: "9q97gs"
        string_val: "9qcb2u"
        string_val: "9q9nn2"
        string_val: "9q9nmw"
        string_val: "9qcets"
        string_val: "9q9ryg"
        string_val: "9q9m8j"
        string_val: "9q9p5p"
        string_val: "drdv4w"
        string_val: "9qcbb1"
        string_val: "9q9p4e"
        string_val: "9qbb5q"
        string_val: "9q9hxy"
        string_val: "9q9p3b"
        string_val: "9q9j54"
        string_val: "9qc00e"
        string_val: "9qbcst"
        string_val: "9qbfds"
        string_val: "9qcgbg"
        string_val: "9q8yyy"
        string_val: "9q9pbr"
        string_val: "9q9nsn"
        string_val: "9qc7md"
        string_val: "9q9ke9"
        string_val: "9q9pmr"
        string_val: "9q9m2v"
        string_val: "9q9kdf"
        string_val: "9q8yyr"
        string_val: "9q8yvz"
        string_val: "9qc01k"
        string_val: "9q3vg4"
        string_val: "9qbf71"
        string_val: "9qc1z8"
        string_val: "9q9j5x"
        string_val: "9q9wsm"
        string_val: "dp4d6j"
        string_val: "9qc1wx"
        string_val: "9q9qct"
        string_val: "9q9d88"
        string_val: "9q9k53"
        string_val: "9qcug1"
        string_val: "9q9yey"
        string_val: "9qbdwx"
        string_val: "9q9k2t"
        string_val: "9qbdps"
        string_val: "9q97b5"
        string_val: "9qc59e"
        string_val: "9q8zgt"
        string_val: "9qc0gn"
        string_val: "9qctp7"
        string_val: "9qc0pc"
        string_val: "9q9pmy"
        string_val: "9q5bc6"
        string_val: "9qc1by"
        string_val: "9qcezw"
        string_val: "9q9yfh"
        string_val: "9qbhgb"
        string_val: "9q9rwz"
        string_val: "9q9yxu"
        string_val: "dqctep"
        string_val: "9q9k0w"
        string_val: "9q9p0f"
        string_val: "9qbdz4"
        string_val: "9qc4pw"
        string_val: "9q8yyc"
        string_val: "9q9k15"
        string_val: "9qc25s"
        string_val: "9q9k3g"
        string_val: "9q9nf3"
        string_val: "9q9rvn"
        string_val: "dp4d62"
        string_val: "9q9kkb"
        string_val: "9qc9xz"
        string_val: "9q94ru"
        string_val: "9q9ngs"
        string_val: "9q9jxk"
        string_val: "9r4bgj"
        string_val: "9qc7m6"
        string_val: "9qc3np"
        string_val: "9qc380"
        string_val: "9q9pr3"
        string_val: "9q8yvx"
        string_val: "9q9q3f"
        string_val: "9qc8pq"
        string_val: "9q9r2b"
        string_val: "dqctfw"
        string_val: "9qc3nc"
        string_val: "9rcfbj"
        string_val: "9q962z"
        string_val: "9q8yyy"
        string_val: "9q9wt1"
        string_val: "9q97c0"
        string_val: "9q9z1h"
        string_val: "9qbb6b"
        string_val: "9q9k31"
        string_val: "9q9k0n"
        string_val: "9q9hqy"
        string_val: "9q9pvf"
        string_val: "9q9q8z"
        string_val: "9q9xxv"
        string_val: "9qc00f"
        string_val: "9q9r0f"
        string_val: "9q9jh3"
        string_val: "9qb7p2"
        string_val: "9q8ytz"
        string_val: "9q97c4"
        string_val: "9qc1bn"
        string_val: "9qc2h8"
        string_val: "9q9j8m"
        string_val: "9qc40k"
        string_val: "9q8ymx"
        string_val: "9q9qdr"
        string_val: "9qbdv9"
        string_val: "9q9rbx"
        string_val: "9qc2hu"
        string_val: "9q9ncx"
        string_val: "9q9wsp"
        string_val: "9qcett"
        string_val: "9q8zs4"
        string_val: "9q9e11"
        string_val: "9q8yy5"
        string_val: "9qbdxf"
        string_val: "9q8zn3"
        string_val: "9q5bc8"
        string_val: "9q9wt3"
        string_val: "9q9hgp"
        string_val: "9qcgcy"
        string_val: "9qc0p4"
        string_val: "9qc9xz"
        string_val: "9q9rc3"
        string_val: "9q9py1"
        string_val: "9q9nmm"
        string_val: "9q9pqp"
        string_val: "dp4d6d"
        string_val: "9q9pv9"
        string_val: "9q9k90"
        string_val: "9qcb2w"
        string_val: "9qcbbe"
        string_val: "9q9hv5"
        string_val: "9q9qkx"
        string_val: "9q9pqh"
        string_val: "9q9k0w"
        string_val: "9q9qkx"
        string_val: "9qc2hp"
        string_val: "9qc8pd"
        string_val: "9q9huz"
        string_val: "9qc1x5"
        string_val: "9qc00t"
        string_val: "9qcemk"
        string_val: "9q9pyp"
        string_val: "9q9q8z"
        string_val: "dp4d6h"
        string_val: "9q8zjb"
        string_val: "9q9qh5"
        string_val: "9q97pp"
        string_val: "9qcb02"
        string_val: "9q9rcs"
        string_val: "9qbgm3"
        string_val: "9q5b9v"
        string_val: "9q9r47"
        string_val: "9qc606"
        string_val: "9qc1kx"
        string_val: "9q9r08"
        string_val: "9q9xp9"
        string_val: "9q9p3w"
        string_val: "9q97v3"
        string_val: "9q9pws"
        string_val: "9q9rxb"
        string_val: "9q8ytz"
        string_val: "9q97gj"
        string_val: "9q9xzn"
        string_val: "9q9hgn"
        string_val: "9q8yyp"
        string_val: "9qc8pw"
        string_val: "9qcgb1"
        string_val: "9q9kkp"
        string_val: "9q9pxp"
        string_val: "9q8yv3"
        string_val: "9q99w6"
        string_val: "9q5bcc"
        string_val: "9qdngm"
        string_val: "9qb7p2"
        string_val: "9qc6gf"
        string_val: "9q8yvy"
        string_val: "9q9d89"
        string_val: "9qc0ph"
        string_val: "9q8ywr"
        string_val: "9qbbpu"
        string_val: "9q8yvb"
        string_val: "9q9pv9"
        string_val: "9q9nsc"
        string_val: "9q9kff"
        string_val: "9q9kh1"
        string_val: "9q8ysb"
        string_val: "9q9yev"
        string_val: "9q8yu3"
        string_val: "9q9xb2"
        string_val: "9qben3"
        string_val: "9q9p32"
        string_val: "9qcet2"
        string_val: "9q99t7"
        string_val: "9q9j5c"
        string_val: "dqctfm"
        string_val: "9q9q4y"
        string_val: "9q9py1"
        string_val: "9qc1wm"
        string_val: "9q9q63"
        string_val: "9q8yyh"
        string_val: "9qbdps"
        string_val: "9qc269"
        string_val: "9q9jvz"
        string_val: "9q9pte"
        string_val: "9q9p9j"
        string_val: "9qbfe1"
        string_val: "9q99t8"
        string_val: "9q8znd"
        string_val: "9q9k72"
        string_val: "9qbbhc"
        string_val: "9r4bgq"
        string_val: "9qc1y9"
        string_val: "9q9htg"
        string_val: "9q9p9e"
        string_val: "9q9pyc"
        string_val: "9q9pkj"
        string_val: "9q9p1q"
        string_val: "9qc8zw"
        string_val: "9qc11v"
        string_val: "9qbc3z"
        string_val: "9q9r0e"
        string_val: "9qc8rb"
        string_val: "9qbdmd"
        string_val: "9qbgq4"
        string_val: "9q95zt"
        string_val: "9q97r2"
        string_val: "9q9k2b"
        string_val: "9q9hqz"
        string_val: "9qcgbx"
        string_val: "9qbfee"
        string_val: "9qcufx"
        string_val: "9q7nqw"
        string_val: "9q8yvd"
        string_val: "9q9nne"
        string_val: "9r18nb"
        string_val: "9q9qfp"
        string_val: "9q9ryn"
        string_val: "9qcc0m"
        string_val: "9q9npq"
        string_val: "9q9ngr"
        string_val: "9qcb2d"
        string_val: "9qbdxu"
        string_val: "9qdncc"
        string_val: "9qc41c"
        string_val: "9q8yt7"
        string_val: "9q9d8s"
        string_val: "9q9wmp"
        string_val: "9q9zb1"
        string_val: "9q97bk"
        string_val: "9q9rbn"
        string_val: "9q9hem"
        string_val: "9qc0jd"
        string_val: "9q9r0z"
        string_val: "9qbbf0"
        string_val: "9q9pcn"
        string_val: "9q9qbj"
        string_val: "9qc0jg"
        string_val: "9qc8ns"
        string_val: "9q9kcw"
        string_val: "9qbb7d"
        string_val: "9q9r0k"
        string_val: "9q9ngp"
        string_val: "9qbdz8"
        string_val: "9q9yx9"
        string_val: "9q8yyy"
        string_val: "9qbfc6"
        string_val: "9q9pk4"
        string_val: "9q9k4s"
        string_val: "9qc8zs"
        string_val: "9q9pk7"
        string_val: "9q97fz"
        string_val: "9q9jyj"
        string_val: "9q9666"
        string_val: "9q9pyy"
        string_val: "9q9njk"
        string_val: "9q9rz1"
        string_val: "9q8yyq"
        string_val: "9qc60p"
        string_val: "9q9kkv"
        string_val: "9q9pkg"
        string_val: "9q9k0e"
        string_val: "9q9rv8"
        string_val: "9q9ngs"
        string_val: "9q9k4n"
        string_val: "9q97uk"
        string_val: "9qcgct"
        string_val: "9qbsb8"
        string_val: "9q9pqz"
        string_val: "9q97bh"
        string_val: "9qcucg"
        string_val: "9qcb2m"
        string_val: "9qc0jm"
        string_val: "9q9pvm"
        string_val: "9qctpm"
        string_val: "9q94x4"
        string_val: "9q9khf"
        string_val: "9q99t5"
        string_val: "9q8zn0"
        string_val: "9q9k8z"
        string_val: "9q8yxj"
        string_val: "9qcetd"
        string_val: "9q9p68"
        string_val: "9q9j3g"
        string_val: "9q8vvk"
        string_val: "9q8zn9"
        string_val: "9q8zgc"
        string_val: "9q9wef"
        string_val: "9qc0fx"
        string_val: "9qdn8t"
        string_val: "9q9xb8"
        string_val: "9q8zzb"
        string_val: "9q8zsu"
        string_val: "9rcdzg"
        string_val: "9qc7m5"
        string_val: "9q9pb8"
        string_val: "9q97r2"
        string_val: "9q8yyv"
        string_val: "9qbdwk"
        string_val: "9q9m2n"
        string_val: "9qc8pn"
        string_val: "9q9py4"
        string_val: "9q9qkx"
        string_val: "9q9rrv"
        string_val: "9q9ncq"
        string_val: "9q9z1p"
        string_val: "9q9nu7"
        string_val: "dp4d6e"
        string_val: "9q9nkh"
        string_val: "9qc01r"
        string_val: "9q9pqh"
        string_val: "9qc0ew"
        string_val: "9q9qce"
        string_val: "9qdnc8"
        string_val: "9qcsp2"
        string_val: "9q9x8g"
        string_val: "9rcfb8"
        string_val: "9qc8q9"
        string_val: "9q9jyj"
        string_val: "9q9rbw"
        string_val: "9q9yxm"
        string_val: "9qbshb"
        string_val: "9q9q60"
        string_val: "9q9pzr"
        string_val: "9q9pqj"
        string_val: "9q9pwq"
        string_val: "9qc8n7"
        string_val: "9qcgce"
        string_val: "9q9r0r"
        string_val: "9q9m2p"
        string_val: "9qc3q0"
        string_val: "9q9pkv"
        string_val: "9q9pys"
        string_val: "9r4bgj"
        string_val: "9q9k1y"
        string_val: "9q970n"
        string_val: "9q97bu"
        string_val: "9q9wsj"
        string_val: "9q9k6k"
        string_val: "9q9k6e"
        string_val: "9q8yyw"
        string_val: "9qc63q"
        string_val: "9qbb7k"
        string_val: "9qc0nj"
        string_val: "9qc8rf"
        string_val: "9qc1c5"
        string_val: "9q9zb0"
        string_val: "9q9hck"
        string_val: "9q9hx7"
        string_val: "9qc142"
        string_val: "9q8yyr"
        string_val: "9q9pqj"
        string_val: "9q97bh"
        string_val: "9q97fq"
        string_val: "9q9rvu"
        string_val: "9qc0p1"
        string_val: "9qc0eq"
        string_val: "9qdnc2"
        string_val: "9q9ppu"
        string_val: "9q97f3"
        string_val: "9q9nsg"
        string_val: "9q9qt9"
        string_val: "9q963h"
        string_val: "9q9qw5"
        string_val: "9q94y7"
        string_val: "9q5bcb"
        string_val: "9q9qhk"
        string_val: "9q9p1s"
        string_val: "9q9ye5"
        string_val: "9rcfb8"
        string_val: "9q9ruv"
        string_val: "9q9hxk"
        string_val: "9q93hm"
        string_val: "9qbbhb"
        string_val: "9q9ws7"
        string_val: "9q9qfh"
        string_val: "9q9k61"
        string_val: "9qc1kw"
        string_val: "9qc269"
        string_val: "9q9j8g"
        string_val: "9q9hdr"
        string_val: "9q963h"
        string_val: "9q9pqp"
        string_val: "9q9wkx"
        string_val: "9qbj49"
        string_val: "9qc1z1"
        string_val: "9q8zxy"
        string_val: "9q9pbd"
        string_val: "9q8zxy"
        string_val: "9q9rtu"
        string_val: "9q9yer"
        string_val: "9q97f8"
        string_val: "9q96hf"
        string_val: "9q8znb"
        string_val: "9q5b9y"
        string_val: "9qbf22"
        string_val: "9qc7r4"
        string_val: "dqctep"
        string_val: "9q95yg"
        string_val: "dp4d4x"
        string_val: "9qbeez"
        string_val: "9qbc9f"
        string_val: "9qctr6"
        string_val: "9qc9x6"
        string_val: "9q9pzy"
        string_val: "9q8vmh"
        string_val: "9q96kn"
        string_val: "9q6msu"
        string_val: "9q9hy0"
        string_val: "9q9k4k"
        string_val: "9q8zee"
        string_val: "9q5b9x"
        string_val: "9q9wkw"
        string_val: "9q9nx1"
        string_val: "9qc23c"
        string_val: "9qb7p3"
        string_val: "9q9kj4"
        string_val: "9q9xxt"
        string_val: "9qctr4"
        string_val: "9q9ndj"
        string_val: "9q96ht"
        string_val: "9qc613"
        string_val: "9r4bgq"
        string_val: "9q97b4"
        string_val: "9qbf7d"
        string_val: "9q8vmh"
        string_val: "9q94nw"
        string_val: "9qcubn"
        string_val: "9q5bc3"
        string_val: "9qbdbg"
        string_val: "9q9qcz"
        string_val: "9q97uu"
        string_val: "9q94wn"
        string_val: "9q9z0v"
        string_val: "9q8ymk"
        string_val: "9q9k53"
        string_val: "9q9qc9"
        string_val: "9q9pzz"
        string_val: "9qcbbp"
        string_val: "9qc26k"
        string_val: "9q9k73"
        string_val: "9q964w"
        string_val: "dp4d68"
        string_val: "9q8yyy"
        string_val: "9qbcwk"
        string_val: "9q9kec"
        string_val: "9qc1ev"
        string_val: "9q9ke0"
        string_val: "9q9nu0"
        string_val: "9q8yvb"
        string_val: "9q9kde"
        string_val: "9q9qme"
        string_val: "9q9703"
        string_val: "9q94r7"
        string_val: "9q9wsp"
        string_val: "9qc25t"
        string_val: "9q9e2c"
        string_val: "9q9hfz"
        string_val: "9q9j1c"
        string_val: "9q9p4m"
        string_val: "9q7nts"
        string_val: "9qc01j"
        string_val: "9q97fp"
        string_val: "9qc8qd"
        string_val: "9r4cec"
        string_val: "9q9p7v"
        string_val: "9q9phx"
        string_val: "9q9p19"
        string_val: "9q8ytx"
        string_val: "9q9qqr"
        string_val: "9rcfb8"
        string_val: "9q8ywm"
        string_val: "9q9jwg"
        string_val: "9qc0pf"
        string_val: "9qc0n5"
        string_val: "9q9k0j"
        string_val: "9q9p4v"
        string_val: "9q8zzg"
        string_val: "9q9kdf"
        string_val: "9q9hdp"
        string_val: "9qc1bx"
        string_val: "9qbb4c"
        string_val: "9q9p9t"
        string_val: "9qcezw"
        string_val: "9qc8n8"
        string_val: "9qc4pt"
        string_val: "9q9hut"
        string_val: "9qbbpb"
        string_val: "9q9p54"
        string_val: "9q8zez"
        string_val: "9qctpk"
        string_val: "9qcett"
        string_val: "9q9dbe"
        string_val: "9qc7r1"
        string_val: "dqctfg"
        string_val: "9r4bgp"
        string_val: "9q9666"
        string_val: "9q9ks7"
        string_val: "9q9yf5"
        string_val: "9q9wkz"
        string_val: "9q9pyy"
        string_val: "9qc41g"
        string_val: "9q9yfj"
        string_val: "9qc15c"
        string_val: "9qc0eq"
        string_val: "9q8zgr"
        string_val: "9q9xzj"
        string_val: "9q9k1s"
        string_val: "9qc7mk"
        string_val: "9q9jvx"
        string_val: "9q8zj8"
        string_val: "9qcezx"
        string_val: "9q9z0g"
        string_val: "9qcug0"
        string_val: "9q9e2h"
        string_val: "9q9pvz"
        string_val: "9q8vmh"
        string_val: "9q9qkx"
        string_val: "9qbfdt"
        string_val: "9qc202"
        string_val: "9qc008"
        string_val: "9q8yyf"
        string_val: "9q97b2"
        string_val: "9qbf78"
        string_val: "9q9p67"
        string_val: "9q3v9u"
        string_val: "9q9rw5"
        string_val: "9qbv9j"
        string_val: "9qc70k"
        string_val: "9qcv20"
        string_val: "9q9ryj"
        string_val: "9q9qf6"
        string_val: "9q9xzx"
        string_val: "9q97c6"
        string_val: "9q8yst"
        string_val: "9q9kkt"
        string_val: "9q9qtb"
        string_val: "9q9p47"
        string_val: "9q9nnf"
        string_val: "9q9r48"
        string_val: "9q9k8c"
        string_val: "9qbsb9"
        string_val: "9q9ncr"
        string_val: "9q9xxv"
        string_val: "9q8yyx"
        string_val: "9qc82k"
        string_val: "9qc1c5"
        string_val: "9q9p3s"
        string_val: "9q9nzb"
        string_val: "9q9xxs"
        string_val: "9q9qfh"
        string_val: "9q9ncq"
        string_val: "9qctpw"
        string_val: "9qc0ph"
        string_val: "9q9kct"
        string_val: "9q8yxj"
        string_val: "9qc1k9"
        string_val: "9q9jzk"
        string_val: "9q9p15"
        string_val: "9q9nnc"
        string_val: "9qbfy1"
        string_val: "9q9k29"
        string_val: "9q9662"
        string_val: "9qc0p8"
        string_val: "9q9k1t"
        string_val: "9q9k4t"
        string_val: "9q9pwh"
        string_val: "9qc8qv"
        string_val: "9qbfdk"
        string_val: "9qc8zf"
        string_val: "9q9z1p"
        string_val: "9qbf8h"
        string_val: "9q9p4m"
        string_val: "9qc1xk"
        string_val: "9qbc3m"
        string_val: "9q9ptm"
        string_val: "9qc7ms"
        string_val: "9qc9xx"
        string_val: "9q9qq5"
        string_val: "9qbdpc"
        string_val: "9qcgb3"
        string_val: "9q9hqd"
        string_val: "dqctfg"
        string_val: "9q8ywu"
        string_val: "9q9z17"
        string_val: "9qctp7"
        string_val: "9qctpe"
        string_val: "9qcc00"
        string_val: "9q9nf5"
        string_val: "9q8yyh"
        string_val: "9q9nj9"
        string_val: "9q97cp"
        string_val: "9q9ncu"
        string_val: "9q9nmd"
        string_val: "9qc3nq"
        string_val: "9q94qf"
        string_val: "9q9nsq"
        string_val: "9q97gs"
        string_val: "9qbfyj"
        string_val: "9q9qw7"
        string_val: "9qbbfs"
        string_val: "9q6mt1"
        string_val: "9qc8q9"
        string_val: "9q99t7"
        string_val: "9q9nsj"
        string_val: "9q5bcc"
        string_val: "9qc8n1"
        string_val: "9q8zmw"
        string_val: "9q9m8q"
        string_val: "9qbesn"
        string_val: "9q9nn4"
        string_val: "9q9k62"
        string_val: "9q9pb8"
        string_val: "9qc7qc"
        string_val: "9q9qh7"
        string_val: "9qbesh"
        string_val: "9qbdym"
        string_val: "9q9qcf"
        string_val: "9q9wsu"
        string_val: "9q97fp"
        string_val: "9q9ptq"
        string_val: "9q9k77"
        string_val: "9q9nm8"
        string_val: "9q9zcj"
        string_val: "9q9pq7"
        string_val: "9q9kf4"
        string_val: "9q9pzr"
        string_val: "9q9j9g"
        string_val: "9q9pz8"
        string_val: "9qc386"
        string_val: "9qc8ne"
        string_val: "9q9kdf"
        string_val: "9q9hfr"
        string_val: "9q5bc3"
        string_val: "9q9qh7"
        string_val: "9q9z14"
        string_val: "9qc264"
        string_val: "9q9ptm"
        string_val: "9q8yuv"
        string_val: "9qc2hg"
        string_val: "9q9p7y"
        string_val: "9qcbb5"
        string_val: "9qc0jk"
        string_val: "9qbf01"
        string_val: "9q9pp7"
        string_val: "9qcgcn"
        string_val: "9qbfbs"
        string_val: "9q9p9k"
        string_val: "9q9yxu"
        string_val: "9q9xxx"
        string_val: "9qc8p2"
        string_val: "9qbf18"
        string_val: "9q9m8c"
        string_val: "9q9jwm"
        string_val: "9q9jh8"
        string_val: "9qc59s"
        string_val: "drdv4x"
        string_val: "9qbf21"
        string_val: "9q9z0g"
        string_val: "9q9j8s"
        string_val: "9q9nqv"
        string_val: "9qcggz"
        string_val: "dp4d65"
        string_val: "9q9yex"
        string_val: "9q8yvy"
        string_val: "9q9j8q"
        string_val: "9qc616"
        string_val: "9q9pb4"
        string_val: "9q9rym"
        string_val: "9qcszy"
        string_val: "9q9pbh"
        string_val: "9q8uyp"
        string_val: "9qc0n1"
        string_val: "9q9ngd"
        string_val: "9q9nss"
        string_val: "9q7ntg"
        string_val: "9q8ywu"
        string_val: "9q9hpe"
        string_val: "9qcgbz"
        string_val: "9q9r0z"
        string_val: "9q8yy0"
        string_val: "9q9qky"
        string_val: "9q9vyk"
        string_val: "9qbcuw"
        string_val: "9q9hw6"
        string_val: "9q8ytt"
        string_val: "9q9p3q"
        string_val: "9qc8qd"
        string_val: "9q9xb8"
        string_val: "9qbb6g"
        string_val: "9q9k3q"
        string_val: "9q8vjg"
        string_val: "9qc267"
        string_val: "9qc8pp"
        string_val: "9q9hgq"
        string_val: "9q8yv8"
        string_val: "9q94nw"
        string_val: "9q8zxy"
        string_val: "9qcb3j"
        string_val: "9q97bg"
        string_val: "9q9p9e"
        string_val: "9q8vyq"
        string_val: "9q9rbp"
        string_val: "9q9k27"
        string_val: "9q9pq6"
        string_val: "9q8yyy"
        string_val: "9qbf04"
        string_val: "9qcemr"
        string_val: "9q9j8s"
        string_val: "9q97fu"
        string_val: "9q9jx0"
        string_val: "9q9p3f"
        string_val: "9q9kk9"
        string_val: "9q8yt2"
        string_val: "9qc8qb"
        string_val: "9q8zgr"
        string_val: "9q97pz"
        string_val: "9q9wt1"
        string_val: "9q9pw8"
        string_val: "9qbdzd"
        string_val: "9q99qp"
        string_val: "9q8zn4"
        string_val: "9q9m18"
        string_val: "9qbv96"
        string_val: "9rcdzf"
        string_val: "9q9ycn"
        string_val: "9qcu0s"
        string_val: "9q9k66"
        string_val: "9q9rbe"
        string_val: "9qc8nr"
        string_val: "9qctp7"
        string_val: "9q94r1"
        string_val: "9q9k8b"
        string_val: "9q9kdf"
        string_val: "9q9xpd"
        string_val: "9qctr4"
        string_val: "9q9j8k"
        string_val: "9q9p4h"
        string_val: "9rcfb5"
        string_val: "9q9km1"
        string_val: "9qc1kw"
        string_val: "9q9qkv"
        string_val: "9q9pbk"
        string_val: "9q9hvg"
        string_val: "9q7ntf"
        string_val: "9q9j4u"
        string_val: "9qbcv1"
        string_val: "9qdncf"
        string_val: "9q9qcv"
        string_val: "9qcbbh"
        string_val: "9qc0pj"
        string_val: "9q97r0"
        string_val: "9q9z9q"
        string_val: "9q9qbj"
        string_val: "9q9qk3"
        string_val: "9qbv9h"
        string_val: "9q9r1j"
        string_val: "9q97gj"
        string_val: "9q9kk8"
        string_val: "9q9p6k"
        string_val: "9q8vzc"
        string_val: "9q8zzv"
        string_val: "9q9nw3"
        string_val: "9q9wsw"
        string_val: "9q9z0h"
        string_val: "9qbghc"
        string_val: "9q8yjs"
        string_val: "9q9pc0"
        string_val: "9q9nwu"
        string_val: "9q9p58"
        string_val: "9q9p38"
        string_val: "9q9pxr"
        string_val: "9q8yyu"
        string_val: "9q9kk8"
        string_val: "9q9jhd"
        string_val: "9qcggm"
        string_val: "9q9r23"
        string_val: "9qc20x"
        string_val: "9q9p9c"
        string_val: "9qcgcp"
        string_val: "9q8zez"
        string_val: "9q9680"
        string_val: "9qbb4v"
        string_val: "9q9jy8"
        string_val: "9q9p48"
        string_val: "dqctep"
        string_val: "9q9p15"
        string_val: "9q9r47"
        string_val: "9q9jw8"
        string_val: "9q9qku"
        string_val: "9q8yyc"
        string_val: "9q8zt4"
        string_val: "9q9xyx"
        string_val: "9q9p9t"
        string_val: "9q9pvb"
        string_val: "9q9kj6"
        string_val: "9q9nm9"
        string_val: "9qc1bg"
        string_val: "9q9jx5"
        string_val: "9q9p1k"
        string_val: "9q9pz9"
        string_val: "9q8yyy"
        string_val: "9q9khu"
        string_val: "9qc2hw"
        string_val: "9qbbpu"
        string_val: "9rcfbh"
        string_val: "dqctfb"
        string_val: "9q9px0"
        string_val: "9q9r4h"
        string_val: "9q8yuv"
        string_val: "dqctg3"
        string_val: "9q9qq4"
        string_val: "9qc0r4"
        string_val: "9qcb0d"
        string_val: "9qbbu3"
        string_val: "9q9p8u"
        string_val: "9q97uh"
        string_val: "9q8zsm"
        string_val: "9q9xz2"
        string_val: "9qcgby"
        string_val: "9q9qcq"
        string_val: "9q9wsg"
        string_val: "9qcc02"
        string_val: "9q9k6q"
        string_val: "9q8zn0"
        string_val: "9q9k2f"
        string_val: "9q9ryd"
        string_val: "9q9k5f"
        string_val: "9r4bfw"
        string_val: "9q9wu9"
        string_val: "9q8ywk"
        string_val: "9qctp3"
        string_val: "9q9p35"
        string_val: "9qc0dx"
        string_val: "9qcgbq"
        string_val: "9q9j5u"
        string_val: "9q9m8d"
        string_val: "9qdn85"
        string_val: "9q963j"
        string_val: "9qc2he"
        string_val: "9qc1c1"
        string_val: "9qc3bh"
        string_val: "9q9k3c"
        string_val: "9q9k5s"
        string_val: "9qbs8t"
        string_val: "9q9k75"
        string_val: "9q9nk4"
        string_val: "9q9k0x"
        string_val: "9q9k5q"
        string_val: "9q9j4p"
        string_val: "9qc1hv"
        string_val: "9qc11v"
        string_val: "9qbc3y"
        string_val: "9qc03g"
        string_val: "dp4d3d"
        string_val: "9q9p5h"
        string_val: "9qdnc8"
        string_val: "9q9hpn"
        string_val: "9q96hg"
        string_val: "9qc25x"
        string_val: "9q8yxk"
        string_val: "9qc8nh"
        string_val: "9q8yvz"
        string_val: "9qc9p9"
        string_val: "9qc411"
        string_val: "9q8yvt"
        string_val: "9q9k1t"
        string_val: "dp4d60"
        string_val: "9q9xpd"
        string_val: "9q9yn2"
        string_val: "9q97ge"
        string_val: "9q9hsb"
        string_val: "9q9hpd"
        string_val: "9q9p18"
        string_val: "dp4d6h"
        string_val: "dp4d1h"
        string_val: "9qbdwu"
        string_val: "9qc8pc"
        string_val: "9q9qbp"
        string_val: "9qdncb"
        string_val: "9q97b9"
        string_val: "9q8yv2"
        string_val: "9q9ng8"
        string_val: "9q962u"
        string_val: "9qbdxz"
        string_val: "9q9njj"
        string_val: "9q9m1g"
        string_val: "9q8yyz"
        string_val: "9qc234"
        string_val: "9q9j1u"
        string_val: "9q9yew"
        string_val: "9q9ryq"
        string_val: "9qc7qk"
        string_val: "9q9hwp"
        string_val: "9qbgj4"
        string_val: "9q9hv8"
        string_val: "9q9vzx"
        string_val: "9q9hv1"
        string_val: "9q8yv9"
        string_val: "9q9kdf"
        string_val: "9qbcuy"
        string_val: "9q9hrh"
        string_val: "9q9pmy"
        string_val: "9q9qks"
        string_val: "9qcbb5"
        string_val: "9q8yuu"
        string_val: "9qbfbd"
        string_val: "9q9k6r"
        string_val: "9q8zjb"
        string_val: "9q9kf4"
        string_val: "9qctr6"
        string_val: "9q9hp8"
        string_val: "9qcv0d"
        string_val: "9q9r46"
        string_val: "9q8zxy"
        string_val: "9qbesj"
        string_val: "9qcb0v"
        string_val: "9qcv0g"
        string_val: "9q9kd0"
        string_val: "9q9nm4"
        string_val: "9q9p9k"
        string_val: "9q9d95"
        string_val: "9qc8rd"
        string_val: "9qc1wu"
        string_val: "9q9m8k"
        string_val: "9qbdy9"
        string_val: "9q9ycq"
        string_val: "9qc0ph"
        string_val: "9q9yxc"
        string_val: "9qc1ww"
        string_val: "9q9yn6"
        string_val: "9q8zn0"
        string_val: "9q8vus"
        string_val: "9q9p6g"
        string_val: "dp4d0t"
        string_val: "9q9ke1"
        string_val: "9q5bdp"
        string_val: "9q9k0m"
        string_val: "9q8yyz"
        string_val: "9q8yhx"
        string_val: "9qbcvj"
        string_val: "9q8vs7"
        string_val: "9qc0jh"
        string_val: "9q9p18"
        string_val: "9q9wt6"
        string_val: "9qbghf"
        string_val: "9q8ykd"
        string_val: "9q9wev"
        string_val: "9q94ny"
        string_val: "9q9yew"
        string_val: "9qc8zx"
        string_val: "9q94sr"
        string_val: "9q8zsf"
        string_val: "9qcbbk"
        string_val: "9q9xp1"
        string_val: "9q9pyj"
        string_val: "9q8ymr"
        string_val: "9q5bcd"
        string_val: "9q9p31"
        string_val: "9q962q"
        string_val: "9q9px1"
        string_val: "9q8zzv"
        string_val: "9qc0dm"
        string_val: "9qcgbe"
        string_val: "9q9q9r"
        string_val: "9qbfb0"
        string_val: "9q9vzz"
        string_val: "9qc0ng"
        string_val: "9q9p65"
        string_val: "9r4bgn"
        string_val: "9q9qkx"
        string_val: "9qc0dz"
        string_val: "9q9ke0"
        string_val: "9q8yvy"
        string_val: "9qc8pp"
        string_val: "9q9jye"
        string_val: "9qbf6z"
        string_val: "9q8zxy"
        string_val: "9qbfc3"
        string_val: "9q9njj"
        string_val: "9qcgby"
        string_val: "9qc261"
        string_val: "9r4c4b"
        string_val: "9q9hrp"
        string_val: "9qbdmc"
        string_val: "9q8yvy"
        string_val: "9q9q6b"
        string_val: "9qbb58"
        string_val: "9q8vs1"
        string_val: "9qc70k"
        string_val: "9q9jwb"
        string_val: "9q9wt1"
        string_val: "9qc1yg"
        string_val: "9qc22s"
        string_val: "9q9k65"
        string_val: "9qc9p6"
        string_val: "9q9k7f"
        string_val: "9qcb2g"
        string_val: "9qcbb1"
        string_val: "9q9xp8"
        string_val: "9qc0n1"
        string_val: "9q9xp1"
        string_val: "9rcf8t"
        string_val: "9q97pg"
        string_val: "9qcet6"
        string_val: "9q9rvp"
        string_val: "9q8yvv"
        string_val: "9q9p50"
        string_val: "9q9p4d"
        string_val: "dp4d1k"
        string_val: "9qbdyg"
        string_val: "9qbfb7"
        string_val: "9qc8q7"
        string_val: "9q9pkb"
        string_val: "9qc9pd"
        string_val: "9q94ze"
        string_val: "9qc140"
        string_val: "9q9j9t"
        string_val: "9q95rg"
        string_val: "9qc8tb"
        string_val: "9q9num"
        string_val: "9q962u"
        string_val: "9q8ywt"
        string_val: "9q9wkx"
        string_val: "dqctep"
        string_val: "9qc614"
        string_val: "9q9k1h"
        string_val: "9qcbbk"
        string_val: "9q97c7"
        string_val: "9q9xzz"
        string_val: "9q8vm3"
        string_val: "9qbbfc"
        string_val: "9q9p4h"
        string_val: "9q9z0u"
        string_val: "9q99t4"
        string_val: "9q9hx7"
        string_val: "9q94sr"
        string_val: "9q9ppq"
        string_val: "9q9r1r"
        string_val: "9q9nge"
        string_val: "9q9ryd"
        string_val: "9q9kdu"
        string_val: "9qbv9h"
        string_val: "9qc8n0"
        string_val: "9q9q9q"
        string_val: "9q9p4m"
        string_val: "9qc0n4"
        string_val: "9q9hsf"
        string_val: "9q8vyf"
        string_val: "9q9jyb"
        string_val: "9q9dbz"
        string_val: "9q9p3m"
        string_val: "9qc611"
        string_val: "9rcdzf"
        string_val: "9q97br"
        string_val: "9qc8qw"
        string_val: "9q8ywh"
        string_val: "9q8ytb"
        string_val: "9q9j2r"
        string_val: "9q9pvq"
        string_val: "9q9kdf"
        string_val: "9qc2h7"
        string_val: "9rcf85"
        string_val: "9q8yyz"
        string_val: "9qctj8"
        string_val: "9q9p4w"
        string_val: "9r4bgn"
        string_val: "9q9pwc"
        string_val: "9qc7r1"
        string_val: "dp4d6h"
        string_val: "9q8yyy"
        string_val: "9q9jzs"
        string_val: "9qbb7z"
        string_val: "9qc0eh"
        string_val: "9qc269"
        string_val: "9q95zk"
        string_val: "9qbfb5"
        string_val: "9qcemk"
        string_val: "9q9qmd"
        string_val: "9qc8nt"
        string_val: "9q9hvf"
        string_val: "9qctpz"
        string_val: "9q8yht"
        string_val: "9q9pef"
        string_val: "9q9z44"
        string_val: "9q8ytn"
        string_val: "9qc7kf"
        string_val: "9q9z1g"
        string_val: "9qbbpb"
        string_val: "9q9xxk"
        string_val: "9qdngt"
        string_val: "9q97up"
        string_val: "9q9pzx"
        string_val: "9q9yet"
        string_val: "9q97fc"
        string_val: "9q9xxx"
        string_val: "9q9j2v"
        string_val: "9q99w6"
        string_val: "9qc0pc"
        string_val: "9q97by"
        string_val: "9q9hnx"
        string_val: "9q9k44"
        string_val: "9q9nn4"
        string_val: "9q9hqw"
        string_val: "9qc9pd"
        string_val: "9qc7kf"
        string_val: "9q9h9v"
        string_val: "9qctpt"
        string_val: "9q9pqn"
        string_val: "9q9e31"
        string_val: "9q9wt1"
        string_val: "9q9k3k"
        string_val: "9q5bcd"
        string_val: "9q8yyk"
        string_val: "9qctpm"
        string_val: "9q9ke2"
        string_val: "9q9kke"
        string_val: "9q9kk1"
        string_val: "9q9yn6"
        string_val: "9qbgty"
        string_val: "9q9keh"
        string_val: "9qbf8j"
        string_val: "9q9j4h"
        string_val: "9q9r44"
        string_val: "9qbc3t"
        string_val: "9qbfe5"
        string_val: "9q9k6n"
        string_val: "9q8zt0"
        string_val: "9q9hqc"
        string_val: "9qbdwe"
        string_val: "9qc8n7"
        string_val: "9q9q6c"
        string_val: "9qcu11"
        string_val: "9q9p32"
        string_val: "dp4d5h"
        string_val: "9qc63n"
        string_val: "9q9k6r"
        string_val: "9q8yvb"
        string_val: "9qc8p8"
        string_val: "9qc0gj"
        string_val: "9q8yt7"
        string_val: "9q9pk3"
        string_val: "9q95j3"
        string_val: "9q9r42"
        string_val: "9q9p15"
        string_val: "9q9njy"
        string_val: "9q9k7b"
        string_val: "9qc0fs"
        string_val: "9q9p8x"
        string_val: "9q9xyz"
        string_val: "9q9ysr"
        string_val: "9q9p4s"
        string_val: "9q9kj3"
        string_val: "9q9ng8"
        string_val: "9q9z44"
        string_val: "9qbdzc"
        string_val: "9q9kkc"
        string_val: "9q99tc"
        string_val: "9qc0ph"
        string_val: "9q9yxf"
        string_val: "9q9r13"
        string_val: "9q8uyn"
        string_val: "9q9j3k"
        string_val: "9qc1eg"
        string_val: "9q8yt7"
        string_val: "9rcfb4"
        string_val: "9q9r48"
        string_val: "9qbbcd"
        string_val: "9q9r44"
        string_val: "9q9htr"
        string_val: "9q9p91"
        string_val: "9qc226"
        string_val: "9q9k88"
        string_val: "9q9qks"
        string_val: "9q9p4x"
        string_val: "9r4bfx"
        string_val: "9q9j8m"
        string_val: "9q9wev"
        string_val: "9q9qm2"
        string_val: "9q9rtw"
        string_val: "9qbbpc"
        string_val: "9q9z1h"
        string_val: "9q94y3"
        string_val: "9q9xyr"
        string_val: "9q9hxw"
        string_val: "9r4bfv"
        string_val: "9q97ub"
        string_val: "9q9p94"
        string_val: "9qcxjt"
        string_val: "9q8yyz"
        string_val: "9qc8pe"
        string_val: "9q9m88"
        string_val: "9qctpq"
        string_val: "9q94r9"
        string_val: "9q9nfr"
        string_val: "dp4d6w"
        string_val: "9qbe03"
        string_val: "9qc2hq"
        string_val: "9q9pwe"
        string_val: "9q9nnz"
        string_val: "9q9k15"
        string_val: "9q9pqp"
        string_val: "9q9rwm"
        string_val: "9q9p49"
        string_val: "9q9hxc"
        string_val: "9qc2j2"
        string_val: "9qdngj"
        string_val: "9q9k52"
        string_val: "9qc1c0"
        string_val: "9q9wkx"
        string_val: "9q966c"
        string_val: "9q8ywj"
        string_val: "9q9qc5"
        string_val: "9q8yww"
        string_val: "9q5b9x"
        string_val: "9qbg4k"
        string_val: "9q97pn"
        string_val: "9qbb5n"
        string_val: "9qbd7v"
        string_val: "9qbdw2"
        string_val: "9q8zzb"
        string_val: "dqctdn"
        string_val: "9qc7ms"
        string_val: "9r4bft"
        string_val: "9q97b0"
        string_val: "9q9nu5"
        string_val: "9q9z1c"
        string_val: "9qdpvs"
        string_val: "9q9prd"
        string_val: "9qbfbe"
        string_val: "9q9q9u"
        string_val: "9q9pmw"
        string_val: "9qc8r4"
        string_val: "9q8vxt"
        string_val: "9q9p99"
        string_val: "9qbdyg"
        string_val: "9qc406"
        string_val: "9q8yy5"
        string_val: "9q96j9"
        string_val: "9q9rch"
        string_val: "9q9nqc"
        string_val: "9q9k0d"
        string_val: "9q9q8p"
        string_val: "9q8zke"
        string_val: "9q8vx8"
        string_val: "9q9qbj"
        string_val: "9q9htn"
        string_val: "9qc8qt"
        string_val: "9q9k6h"
        string_val: "9qbcuw"
        string_val: "9q9rzz"
        string_val: "9q9wsd"
        string_val: "9q9jxs"
        string_val: "9q99t2"
        string_val: "dqctfm"
        string_val: "9q9wsd"
        string_val: "9qcgb7"
        string_val: "9qcb0n"
        string_val: "9qc1k3"
        string_val: "9q9ygd"
        string_val: "9qcet3"
        string_val: "9q9jhe"
        string_val: "9q9z15"
        string_val: "9q9vzy"
        string_val: "9qc9rv"
        string_val: "9q9pqj"
        string_val: "9q9rbv"
        string_val: "9q97g0"
        string_val: "9q9p9h"
        string_val: "9q8ytg"
        string_val: "9qc8qm"
        string_val: "9qc8zz"
        string_val: "9q9746"
        string_val: "9q9x8f"
        string_val: "9q8yvw"
        string_val: "9q9p1w"
        string_val: "9q8yyu"
        string_val: "9q9hn3"
        string_val: "dp4d6e"
        string_val: "9q9pyy"
        string_val: "9qcbct"
        string_val: "9r4bfw"
        string_val: "9q9r1c"
        string_val: "9qbe91"
        string_val: "9qbgj1"
        string_val: "9q8yyr"
        string_val: "9q8yyz"
        string_val: "9q8yyz"
        string_val: "9qc63q"
        string_val: "dp4d6e"
        string_val: "9qc2hm"
        string_val: "9qcbb0"
        string_val: "9qcsp2"
        string_val: "9q9jyc"
        string_val: "9q9kg7"
        string_val: "9q9pqj"
        string_val: "9qc630"
        string_val: "9q9mb2"
        string_val: "9q9nwc"
        string_val: "9qbv9t"
        string_val: "9q9xz2"
        string_val: "9qc0ep"
        string_val: "9q9huu"
        string_val: "9q979x"
        string_val: "9q8zt2"
        string_val: "9qc70q"
        string_val: "9q9wu3"
        string_val: "9q9jwm"
        string_val: "9q9z0n"
        string_val: "9qbfc6"
        string_val: "9q9ye5"
        string_val: "9q8zgh"
        string_val: "9q9k21"
        string_val: "9qbesn"
        string_val: "9q5bc8"
        string_val: "9q95ze"
        string_val: "9qc0st"
        string_val: "9q8yvx"
        string_val: "9q8yyd"
        string_val: "9q9k72"
        string_val: "9qc1x5"
        string_val: "9q8zup"
        string_val: "9qc0fk"
        string_val: "9q9k69"
        string_val: "9q8vuv"
        string_val: "9q9hsk"
        string_val: "9q8yjr"
        string_val: "9qc0pj"
        string_val: "9q9k6u"
        string_val: "9q9z1f"
        string_val: "9q9k54"
        string_val: "9q8ym2"
        string_val: "9qc0pd"
        string_val: "9q9wsh"
        string_val: "9qc8nt"
        string_val: "9qc264"
        string_val: "9qbesv"
        string_val: "9qbesy"
        string_val: "9q9wt1"
        string_val: "9q970f"
        string_val: "9q9pwz"
        string_val: "9qdnfs"
        string_val: "9q8ywh"
        string_val: "9q8yvd"
        string_val: "9q9nsg"
        string_val: "9q8zn8"
        string_val: "9q99wn"
        string_val: "9q9pb8"
        string_val: "9qctp7"
        string_val: "9qcu0e"
        string_val: "9q9q1e"
        string_val: "9q9yck"
        string_val: "9q9jy8"
        string_val: "9qbdxn"
        string_val: "9q97fq"
        string_val: "9q9run"
        string_val: "9q9njg"
        string_val: "9q97rv"
        string_val: "9q8yyu"
        string_val: "9qcuf4"
        string_val: "9q9wsk"
        string_val: "9q94r5"
        string_val: "9qc0du"
        string_val: "9q9pcx"
        string_val: "9qc238"
        string_val: "9q8uvy"
        string_val: "9q9yyr"
        string_val: "9qcbbs"
        string_val: "9q9k9c"
        string_val: "9q97pz"
        string_val: "9q9p45"
        string_val: "9q9p52"
        string_val: "9q9kk9"
        string_val: "9q9qb6"
        string_val: "9qdnc8"
        string_val: "9q9j3f"
        string_val: "9q5bf0"
        string_val: "9qc8rr"
        string_val: "9rcfb5"
        string_val: "9q9p4f"
        string_val: "9q8yk8"
        string_val: "9q9p15"
        string_val: "9q9m2p"
        string_val: "dp4d6e"
        string_val: "9q9p6k"
        string_val: "9q8zze"
        string_val: "9qctpd"
        string_val: "9q8ym8"
        string_val: "9q5bc3"
        string_val: "9q9k89"
        string_val: "9q9jb8"
        string_val: "9qbenc"
        string_val: "9q9j93"
        string_val: "9qbv9j"
        string_val: "9q9nm5"
        string_val: "9q9pjh"
        string_val: "9q9qce"
        string_val: "9q9jy5"
        string_val: "9q9ygb"
        string_val: "9q9p9t"
        string_val: "9q9yn6"
        string_val: "9qcezg"
        string_val: "9q8yxj"
        string_val: "9qcgcn"
        string_val: "9q9ngn"
        string_val: "9q8yjs"
        string_val: "9q9pv9"
        string_val: "9q9nu1"
        string_val: "9q97bj"
        string_val: "9q9ngu"
        string_val: "9q9j9t"
        string_val: "9qbv9q"
        string_val: "9qc8pg"
        string_val: "9q8yy7"
        string_val: "9q9yn2"
        string_val: "9q9qcs"
        string_val: "9q9p15"
        string_val: "9q9j9t"
        string_val: "9q9hqy"
        string_val: "9q8yhx"
        string_val: "9q9qh5"
        string_val: "9qcv14"
        string_val: "9q7ntg"
        string_val: "9q9nu4"
        string_val: "9qc9p6"
        string_val: "9qc0g0"
        string_val: "9q9px3"
        string_val: "9qc9x7"
        string_val: "9q9pqb"
        string_val: "9rcfb4"
        string_val: "9q9p5h"
        string_val: "9qbenc"
        string_val: "9q9kk0"
        string_val: "9qbsz9"
        string_val: "9qbf83"
        string_val: "9q9p50"
        string_val: "9qc7r1"
        string_val: "9q9d8v"
        string_val: "9qbfdc"
        string_val: "9qc0pf"
        string_val: "9qcb2h"
        string_val: "9qc7qj"
        string_val: "9q8zxy"
        string_val: "9q9rym"
        string_val: "drdv4w"
        string_val: "9q9nnx"
        string_val: "9qctpt"
        string_val: "9q9q6b"
        string_val: "9q9k7s"
        string_val: "9q99td"
        string_val: "9q9yx9"
        string_val: "9qc9p8"
        string_val: "9qc60k"
        string_val: "9qbbgd"
        string_val: "9q7ntf"
        string_val: "9q99te"
        string_val: "9qc0de"
        string_val: "dp4d70"
        string_val: "9q9hrr"
        string_val: "9q9k8b"
        string_val: "9qc8pc"
        string_val: "9qc2h8"
        string_val: "9q99w0"
        string_val: "9q8yyu"
        string_val: "9q8ykf"
        string_val: "9q9ycr"
        string_val: "9q8yvb"
        string_val: "9q7nxm"
        string_val: "9qdngt"
        string_val: "9qc03g"
        string_val: "9q9k55"
        string_val: "9q9d89"
        string_val: "9q97fb"
        string_val: "9q9hur"
        string_val: "9q9k3b"
        string_val: "9qc25y"
        string_val: "9q8ytx"
        string_val: "9q8vz7"
        string_val: "9q9zcp"
        string_val: "9q97py"
        string_val: "9q9yjb"
        string_val: "9q8zur"
        string_val: "dp4d66"
        string_val: "9q9pq7"
        string_val: "9q9r19"
        string_val: "9q9ryu"
        string_val: "9qbdx7"
        string_val: "9q9wsj"
        string_val: "9qc260"
        string_val: "9q95j1"
        string_val: "9q9qmh"
        string_val: "9q9qb0"
        string_val: "9q9nsr"
        string_val: "9q9pwv"
        string_val: "9q970w"
        string_val: "9qc8ny"
        string_val: "9q9yg9"
        string_val: "9q99ss"
        string_val: "9q8ytc"
        string_val: "9qbv9t"
        string_val: "9q9pqn"
        string_val: "9q8ywn"
        string_val: "9q9pzt"
        string_val: "9q9r27"
        string_val: "9q8yvg"
        string_val: "9r4bft"
        string_val: "9q9k32"
        string_val: "9q9p6e"
        string_val: "9q9keq"
        string_val: "9qc0jj"
        string_val: "9q8yxk"
        string_val: "9q8zsq"
        string_val: "9q9rvj"
        string_val: "9qc01e"
        string_val: "9q978r"
        string_val: "9q9kdy"
        string_val: "9q9nmn"
        string_val: "dqctep"
        string_val: "9qc1wd"
        string_val: "9q9ngv"
        string_val: "9qbdz4"
        string_val: "9qc2hb"
        string_val: "9q9k1x"
        string_val: "9qc8nm"
        string_val: "9q9j9k"
        string_val: "9q9jw8"
        string_val: "9qc1ww"
        string_val: "9qbb4d"
        string_val: "9qbdbz"
        string_val: "9qbf8k"
        string_val: "9qc828"
        string_val: "9qcv20"
        string_val: "9q9rcm"
        string_val: "9q99w4"
        string_val: "9q9nnf"
        string_val: "9qbs8x"
        string_val: "9q9hr4"
        string_val: "9q95zj"
        string_val: "9qc8rp"
        string_val: "9q9j9t"
        string_val: "9q8ywb"
        string_val: "9q9yxm"
        string_val: "9qbeey"
        string_val: "9q9k2h"
        string_val: "9q9qkf"
        string_val: "9q9j92"
        string_val: "9q9qq4"
        string_val: "9qbf8g"
        string_val: "9q5bcf"
        string_val: "9q9p9c"
        string_val: "dp4d0u"
        string_val: "9qc8r9"
        string_val: "9q9jqw"
        string_val: "9q9neu"
        string_val: "9q9p15"
        string_val: "9qcemr"
        string_val: "9q9wuc"
        string_val: "9qdncd"
        string_val: "9q9ksn"
        string_val: "9q9jqw"
        string_val: "9qcemr"
        string_val: "9q8zkn"
        string_val: "9q9ncr"
        string_val: "9q9j55"
        string_val: "9qbb4e"
        string_val: "dp4d6h"
        string_val: "9q9k7r"
        string_val: "9qcgby"
        string_val: "9qdpjt"
        string_val: "9qcxq9"
        string_val: "9qcgb6"
        string_val: "9q9r0s"
        string_val: "9qc238"
        string_val: "9q8yym"
        string_val: "9q9qks"
        string_val: "9q8yy1"
        string_val: "9qcb2k"
        string_val: "9qc60f"
        string_val: "9q9yek"
        string_val: "9q9x8t"
        string_val: "9q9qkf"
        string_val: "9qbesj"
        string_val: "9q9pgk"
        string_val: "9q9yxv"
        string_val: "9qcet2"
        string_val: "9q97er"
        string_val: "9q9j38"
        string_val: "9q8zzg"
        string_val: "9q8ytq"
        string_val: "9q96x9"
        string_val: "9q8yyd"
        string_val: "9q9jxd"
        string_val: "9q9jwm"
        string_val: "9qdncc"
        string_val: "9q9pw0"
        string_val: "9q9j5h"
        string_val: "9qc8zw"
        string_val: "9q8ynp"
        string_val: "9qc38j"
        string_val: "9r4bgp"
        string_val: "9qc3nt"
        string_val: "9qc25f"
        string_val: "9q93zb"
        string_val: "9qcb2y"
        string_val: "dp4d65"
        string_val: "dqctdz"
        string_val: "9q8zzg"
        string_val: "9q9725"
        string_val: "9q5bcf"
        string_val: "9q9pz0"
        string_val: "9q97fe"
        string_val: "9q9z9n"
        string_val: "9qcbb7"
        string_val: "9q99w4"
        string_val: "9q9x8g"
        string_val: "9q5bdp"
        string_val: "9q9635"
        string_val: "9q9kd0"
        string_val: "9q9p5n"
        string_val: "9q9ng7"
        string_val: "9q9jb8"
        string_val: "9qctpd"
        string_val: "9q9qcs"
        string_val: "9q970y"
        string_val: "9q9nfz"
        string_val: "9q9pyd"
        string_val: "9q9624"
        string_val: "9q9m86"
        string_val: "9qc1bz"
        string_val: "9q9zbm"
        string_val: "9q9p4m"
        string_val: "9q9p32"
        string_val: "9qc7sb"
        string_val: "9q9ypu"
        string_val: "9qc005"
        string_val: "9q9j9g"
        string_val: "9q9p43"
        string_val: "9qc142"
        string_val: "9q8zn6"
        string_val: "9q9jqx"
        string_val: "9qc62n"
        string_val: "9q9pwn"
        string_val: "9q8vz5"
        string_val: "9q9yxu"
        string_val: "9q9qkf"
        string_val: "9q8yy5"
        string_val: "9q9x91"
        string_val: "9q99w6"
        string_val: "9q9pqx"
        string_val: "9qc0jd"
        string_val: "9qbu6m"
        string_val: "9q963j"
        string_val: "9q8vkp"
        string_val: "9q9k54"
        string_val: "9q9k04"
        string_val: "9q9kej"
        string_val: "9q9k77"
        string_val: "9q964x"
        string_val: "9q9jxr"
        string_val: "9q9xx5"
        string_val: "9q9njj"
        string_val: "9q9pmy"
        string_val: "9q8zyb"
        string_val: "9q9k4r"
        string_val: "9qc1ev"
        string_val: "9q8vx8"
        string_val: "9qdnf6"
        string_val: "9q9z20"
        string_val: "9qc001"
        string_val: "9q9e20"
        string_val: "dp4d60"
        string_val: "9qc8pc"
        string_val: "9q8zmp"
        string_val: "9q9wsj"
        string_val: "9qc0ff"
        string_val: "9q97c9"
        string_val: "9qcbbw"
        string_val: "9qc8nv"
        string_val: "9qc9xv"
        string_val: "9q9k00"
        string_val: "9q9p1m"
        string_val: "9q9zby"
        string_val: "9q9hp1"
        string_val: "9q6mt1"
        string_val: "9qc148"
        string_val: "9q9qh5"
        string_val: "9q9kkp"
        string_val: "9q9z0g"
        string_val: "9q9k5z"
        string_val: "9q9p1g"
        string_val: "9q9qhh"
        string_val: "9qc0fr"
        string_val: "9q8yvt"
        string_val: "9qc7q4"
        string_val: "9q9jy5"
        string_val: "9q8vzf"
        string_val: "9qcggh"
        string_val: "9q9635"
        string_val: "9q93zw"
        string_val: "9q9nkv"
        string_val: "9q9q66"
        string_val: "9q8vz3"
        string_val: "9qcc3b"
        string_val: "9q9qkx"
        string_val: "9qc0sk"
        string_val: "9qcbbp"
        string_val: "9q9d96"
        string_val: "9q99wj"
        string_val: "9q9ngv"
        string_val: "9q9r0r"
        string_val: "9q8vxg"
        string_val: "9q97cd"
        string_val: "9qbf0t"
        string_val: "9q9kj4"
        string_val: "9q9ycv"
        string_val: "9qc0dt"
        string_val: "9q97bx"
        string_val: "9q9r2b"
        string_val: "9q9wse"
        string_val: "9q9qdr"
        string_val: "9q963m"
        string_val: "dqctdn"
        string_val: "9q9k0v"
        string_val: "9qctp7"
        string_val: "9q8yyp"
        string_val: "9qbesn"
        string_val: "9q9hur"
        string_val: "9q9kfg"
        string_val: "9q9ng6"
        string_val: "9q9jh6"
        string_val: "9q8yt9"
        string_val: "dp4d1z"
        string_val: "9q9p3k"
        string_val: "9qbf0t"
        string_val: "9qc8zz"
        string_val: "9q9nkw"
        string_val: "9q9j8q"
        string_val: "9q9hz8"
        string_val: "9q9j3t"
        string_val: "9q9pmy"
        string_val: "9qbdpe"
        string_val: "9q9jrx"
        string_val: "9q9ycg"
        string_val: "9q9nsg"
        string_val: "9q9nsb"
        string_val: "9q9zn8"
        string_val: "9q9h9u"
        string_val: "9qc8r3"
        string_val: "9r4bgp"
        string_val: "9qdngw"
        string_val: "9q9p47"
        string_val: "9q97c5"
        string_val: "9q97r2"
        string_val: "9q8yvw"
        string_val: "9qbb50"
        string_val: "9q9kd2"
        string_val: "9q8yjs"
        string_val: "9q9nm9"
        string_val: "9q9pre"
        string_val: "9q8yuy"
        string_val: "9q99tv"
        string_val: "9q9ndp"
        string_val: "9q9j38"
        string_val: "9q9664"
        string_val: "9q8zg4"
        string_val: "9qc2j2"
        string_val: "9q99qy"
        string_val: "9rcdzf"
        string_val: "9qc60e"
        string_val: "9q9nsw"
        string_val: "9q9ndj"
        string_val: "9q8ywr"
        string_val: "9q9j53"
        string_val: "9q8yhd"
        string_val: "9q9m8f"
        string_val: "9q9p3p"
        string_val: "9q9pzr"
        string_val: "9q9nm5"
        string_val: "9qdp48"
        string_val: "9q9nx1"
        string_val: "9qcgb4"
        string_val: "9q9k7k"
        string_val: "9qc1wf"
        string_val: "9q9zcp"
        string_val: "9q9qq6"
        string_val: "9r4bfv"
        string_val: "9q9z2y"
        string_val: "9q9ynh"
        string_val: "9q8zup"
        string_val: "9qc8n7"
        string_val: "9q9kj7"
        string_val: "9qc60d"
        string_val: "9qc6eu"
        string_val: "9qc2h2"
        string_val: "9q97c4"
        string_val: "9q9m86"
        string_val: "9q9hx9"
        string_val: "9qbv96"
        string_val: "9q9jqw"
        string_val: "dp4d65"
        string_val: "9qc2hy"
        string_val: "9q8ymk"
        string_val: "9q9phy"
        string_val: "9qc8zc"
        string_val: "9q9nw0"
        string_val: "9q8zkf"
        string_val: "9qc63q"
        string_val: "9q9wuf"
        string_val: "9q9k76"
        string_val: "dqctfc"
        string_val: "dp4d69"
        string_val: "9q5bc9"
        string_val: "9q9k6g"
        string_val: "9q9vyq"
        string_val: "9q8zn6"
        string_val: "9qcezw"
        string_val: "9qc2h8"
        string_val: "9qc8pc"
        string_val: "9q8vz6"
        string_val: "9qbgmu"
        string_val: "9q9k2p"
        string_val: "9q9jzp"
        string_val: "9qc0pn"
        string_val: "9qc8nu"
        string_val: "9q9p5p"
        string_val: "9qc0nn"
        string_val: "9qc0p8"
        string_val: "9q5b9x"
        string_val: "9qc0fc"
        string_val: "9q9jvz"
        string_val: "9q964w"
        string_val: "9q9rbs"
        string_val: "9q9ppu"
        string_val: "9q9pr1"
        string_val: "9q9p51"
        string_val: "9q9qcu"
        string_val: "9qc7ms"
        string_val: "9q8ywq"
        string_val: "9q8yyz"
        string_val: "9q9htd"
        string_val: "9q97fr"
        string_val: "9qbb5z"
        string_val: "9q8yy2"
        string_val: "9q9jzm"
        string_val: "9q9nsh"
        string_val: "9qcuf8"
        string_val: "9qbc9t"
        string_val: "9q9x8g"
        string_val: "9q97cw"
        string_val: "9q8vzd"
        string_val: "9q9prm"
        string_val: "9q8yyp"
        string_val: "9qbdwu"
        string_val: "9q9q70"
        string_val: "9q9nkf"
        string_val: "9q9k4k"
        string_val: "9qc8qe"
        string_val: "9q9k2t"
        string_val: "9q9kec"
        string_val: "9qbs8t"
        string_val: "9q9kj7"
        string_val: "9q9xpv"
        string_val: "9q9nt2"
        string_val: "9q9pqv"
        string_val: "9q9j8p"
        string_val: "9q9pvf"
        string_val: "9q8yv0"
        string_val: "9q8yvm"
        string_val: "9qc7qj"
        string_val: "9q9kdn"
        string_val: "9q8vz5"
        string_val: "9q9ptx"
        string_val: "9q9x8g"
        string_val: "9qc682"
        string_val: "9qc3np"
        string_val: "9qc017"
        string_val: "9q9hx8"
        string_val: "9q8ywt"
        string_val: "9q8yyz"
        string_val: "dp4d4z"
        string_val: "9q9pt5"
        string_val: "9q963j"
        string_val: "9r4bgm"
        string_val: "9q9pvz"
        string_val: "9q99t5"
        string_val: "9q9m2y"
        string_val: "9q9ke0"
        string_val: "9q8yyp"
        string_val: "9q9phg"
        string_val: "9q9k22"
        string_val: "9q8yq0"
        string_val: "9q9m38"
        string_val: "9qcgcw"
        string_val: "9q9zbr"
        string_val: "9q8ywn"
        string_val: "9r4c4d"
        string_val: "9q8yys"
        string_val: "9q8yyv"
        string_val: "9q9d97"
        string_val: "9q9ws6"
        string_val: "9q8vug"
        string_val: "9qc1yb"
        string_val: "9q9k8z"
        string_val: "9q9kdf"
        string_val: "9qbbcc"
        string_val: "9qc0p3"
        string_val: "9qbdpd"
        string_val: "9q9nu4"
        string_val: "9q9p15"
        string_val: "9q9j8q"
        string_val: "9qc2hr"
        string_val: "9q9r0s"
        string_val: "9qc8p9"
        string_val: "9qc1xr"
        string_val: "9q9nm7"
        string_val: "9q94r9"
        string_val: "9q8zxv"
        string_val: "9qbdbe"
        string_val: "9q964x"
        string_val: "9q9j3n"
        string_val: "9q9k58"
        string_val: "dp4d4z"
        string_val: "9qcezx"
        string_val: "9q5b9w"
        string_val: "9q9xzr"
        string_val: "9q9m8n"
        string_val: "9q9rc2"
        string_val: "9q5bdp"
        string_val: "9qbbfc"
        string_val: "9q8ywy"
        string_val: "9qc0g4"
        string_val: "9q9nt1"
        string_val: "9q9k4q"
        string_val: "9q9nu0"
        string_val: "9q9jy4"
        string_val: "9q9623"
        string_val: "9q9k0s"
        string_val: "9qbesj"
        string_val: "9q9ncq"
        string_val: "9q9p45"
        string_val: "9q9pps"
        string_val: "9q97b1"
        string_val: "9q8yyt"
        string_val: "9q9rtg"
        string_val: "9q9hpr"
        string_val: "9q9m1g"
        string_val: "9q9zxd"
        string_val: "9q9m86"
        string_val: "9qc70t"
        string_val: "9q9nqd"
        string_val: "9q9j5w"
        string_val: "9q9k81"
        string_val: "9qc8n6"
        string_val: "9q9yg9"
        string_val: "9qc0dx"
        string_val: "9qcgcp"
        string_val: "9q8zxu"
        string_val: "9q9kc8"
        string_val: "9q9qbf"
        string_val: "9q962g"
        string_val: "9q8zkf"
        string_val: "9q8yxk"
        string_val: "9q9pse"
        string_val: "dp4d69"
        string_val: "9q8zn0"
        string_val: "9qc7q4"
        string_val: "9q9nfw"
        string_val: "9q9khh"
        string_val: "9q95z6"
        string_val: "9q9phv"
        string_val: "9qcets"
        string_val: "9r4bfw"
        string_val: "9q9jy1"
        string_val: "9q97gp"
        string_val: "9q9j4f"
        string_val: "9q9pzp"
        string_val: "9qc01e"
        string_val: "9qc0d7"
        string_val: "9q9pz4"
        string_val: "9qbgj3"
        string_val: "9q9p1b"
        string_val: "9q97uk"
        string_val: "9q9p4p"
        string_val: "9qcb2z"
        string_val: "9q9r1c"
        string_val: "9q97pt"
        string_val: "9q8yy1"
        string_val: "9qbcut"
        string_val: "9q8ywt"
        string_val: "9q9d96"
        string_val: "9qcgcr"
        string_val: "9q962h"
        string_val: "9qcb0m"
        string_val: "9q9k1y"
        string_val: "9rcf8x"
        string_val: "9qc63n"
        string_val: "9q9jhm"
        string_val: "9q8zgz"
        string_val: "9qcezc"
        string_val: "9q9nft"
        string_val: "9q9k2q"
        string_val: "9qc1s4"
        string_val: "9qc0fd"
        string_val: "9qbhsf"
        string_val: "9q6mt5"
        string_val: "9qc8p1"
        string_val: "9qcc2m"
        string_val: "9q9pwe"
        string_val: "9qcudg"
        string_val: "9q9d9k"
        string_val: "9q9p8x"
        string_val: "9qcezv"
        string_val: "9q9z17"
        string_val: "9qc2h5"
        string_val: "dqctfd"
        string_val: "9q9p4q"
        string_val: "9q8zxj"
        string_val: "9qc1xd"
        string_val: "9q3vgz"
        string_val: "9q9pyp"
        string_val: "9q9xzw"
        string_val: "9q99t7"
        string_val: "9qc224"
        string_val: "9q97cm"
        string_val: "9q9xpd"
        string_val: "9qc0jv"
        string_val: "9qbesh"
        string_val: "9q9p6e"
        string_val: "9qbbhd"
        string_val: "9qbff3"
        string_val: "9q9q9m"
        string_val: "9q8zs5"
        string_val: "9q9hru"
        string_val: "9q8yyc"
        string_val: "9q9j51"
        string_val: "9qc0fd"
        string_val: "9q9z13"
        string_val: "9qc38j"
        string_val: "9q9pzy"
        string_val: "9q9jwp"
        string_val: "9qbfc5"
        string_val: "9qc8ph"
        string_val: "9q966e"
        string_val: "9q9z1e"
        string_val: "9qc147"
        string_val: "9qc1cj"
        string_val: "9qbc3w"
        string_val: "9q99t8"
        string_val: "9q94zd"
        string_val: "9q9rum"
        string_val: "9q9p1f"
        string_val: "9q9k4q"
        string_val: "9q9k27"
        string_val: "9q9rch"
        string_val: "9qbesn"
        string_val: "9q9k4q"
        string_val: "9q9ycg"
        string_val: "9q8zj8"
        string_val: "9qbdww"
        string_val: "9q8zew"
        string_val: "9q9j5e"
        string_val: "9qc26k"
        string_val: "9q8yy3"
        string_val: "9q9qh5"
        string_val: "9qc03c"
        string_val: "9q5b9v"
        string_val: "9q9huk"
        string_val: "9q9p1k"
        string_val: "dp4d1j"
        string_val: "9q8zxy"
        string_val: "9q9p32"
        string_val: "9q8ywp"
        string_val: "9qcbb9"
        string_val: "9q9xb8"
        string_val: "9q9nmd"
        string_val: "9q95zm"
        string_val: "9q8zur"
        string_val: "9qcgbg"
        string_val: "9qbdxn"
        string_val: "9q9ks4"
        string_val: "9q97cd"
        string_val: "9q9rcm"
        string_val: "9q9z1f"
        string_val: "9q8zn2"
        string_val: "9q9j51"
        string_val: "9qbdwg"
        string_val: "9q8ymn"
        string_val: "9q9p90"
        string_val: "9qc1c4"
        string_val: "9q9p62"
        string_val: "9q8zgu"
        string_val: "9qbfbg"
        string_val: "9q9pbb"
        string_val: "dqctdt"
        string_val: "9q9njx"
        string_val: "9q9yxc"
        string_val: "9q9j1f"
        string_val: "9q9nfp"
        string_val: "9q9p3e"
        string_val: "9q9p52"
        string_val: "9q5bc9"
        string_val: "9qbs9r"
        string_val: "9q8yyy"
        string_val: "9q9hrp"
        string_val: "9qc7ms"
        string_val: "9qcgfv"
        string_val: "9r4c42"
        string_val: "9qc62m"
        string_val: "9q9j63"
        string_val: "9q9p4j"
        string_val: "9q9nje"
        string_val: "9q9hrq"
        string_val: "9q8yt0"
        string_val: "9qccb1"
        string_val: "9q8yy4"
        string_val: "9qc00v"
        string_val: "9qcufu"
        string_val: "9qctpk"
        string_val: "9q9k0e"
        string_val: "9q9yct"
        string_val: "9qctpt"
        string_val: "9qcgb1"
        string_val: "9qcb07"
        string_val: "9q9pqj"
        string_val: "9q9wef"
        string_val: "9qbdzx"
        string_val: "9q9q6c"
        string_val: "9q962f"
        string_val: "9qcu0g"
        string_val: "9qc8rj"
        string_val: "9q99r4"
        string_val: "9q9xyy"
        string_val: "9q9nqd"
        string_val: "9q8yyh"
        string_val: "9q9xp1"
        string_val: "9q9nm1"
        string_val: "9q9xyy"
        string_val: "9q8zej"
        string_val: "9q9hfp"
        string_val: "9q9ngb"
        string_val: "9qc1bb"
        string_val: "9q9qcw"
        string_val: "9q9p3f"
        string_val: "9q9nmb"
        string_val: "9qc0ng"
        string_val: "9q9jx2"
        string_val: "9q9p70"
        string_val: "9q8zn0"
        string_val: "9q9kfc"
        string_val: "9rcf8z"
        string_val: "9qdn9r"
        string_val: "9qc8ny"
        string_val: "9qbhgh"
        string_val: "9q9pwq"
        string_val: "9qc060"
        string_val: "9q9zbf"
        string_val: "9q9nnf"
        string_val: "9q8yyy"
        string_val: "9qc0n1"
        string_val: "9qc24v"
        string_val: "9qbfb9"
        string_val: "9q9p58"
        string_val: "9qc0s4"
        string_val: "9q9ry7"
        string_val: "9q9phv"
        string_val: "9qbeez"
        string_val: "9q9p30"
        string_val: "9q8yvu"
        string_val: "9q9prh"
        string_val: "9q9p19"
        string_val: "9q9jqw"
        string_val: "9q97ud"
        string_val: "9q9njy"
        string_val: "9qbb5p"
        string_val: "9q97ck"
        string_val: "9q9pt8"
        string_val: "dp4d68"
        string_val: "9q9zb7"
        string_val: "9qc8zf"
        string_val: "9q9664"
        string_val: "9qbe9e"
        string_val: "9qbs8x"
        string_val: "9q9qm6"
        string_val: "9q9zbe"
        string_val: "9q94y1"
        string_val: "9q9qf4"
        string_val: "9q9p49"
        string_val: "9q9j88"
        string_val: "9q8zsj"
        string_val: "9qc7me"
        string_val: "9q95zj"
        string_val: "9q9njj"
        string_val: "9q9wkz"
        string_val: "9q9p3q"
        string_val: "9q9k36"
        string_val: "9q96j4"
        string_val: "9q9x8f"
        string_val: "9qc1xf"
        string_val: "9q9zb9"
        string_val: "9q9e0n"
        string_val: "9qcgcr"
        string_val: "9q9xyv"
        string_val: "9q8ywu"
        string_val: "9q97r8"
        string_val: "9qcv0d"
        string_val: "9q9nqg"
        string_val: "9q5bc7"
        string_val: "9q8ymr"
        string_val: "9q9nnr"
        string_val: "9q97pz"
        string_val: "9q5bcf"
        string_val: "9qc1xd"
        string_val: "9qc8ny"
        string_val: "9qbhsf"
        string_val: "9q9qbu"
        string_val: "9qc00y"
        string_val: "9q8yhe"
        string_val: "9qc8rh"
        string_val: "9qc0pe"
        string_val: "9q9dn5"
        string_val: "9q9pwm"
        string_val: "9q9wu0"
        string_val: "9qc2hj"
        string_val: "9q9nw2"
        string_val: "9qc8zx"
        string_val: "9q9p4f"
        string_val: "9q9p9f"
        string_val: "9q8ymk"
        string_val: "9q9pqj"
        string_val: "9q9p5d"
        string_val: "9q8yyk"
        string_val: "9q97v6"
        string_val: "9qc0dp"
        string_val: "9qbs8t"
        string_val: "9qbfc3"
        string_val: "9qc7m5"
        string_val: "9qbcuy"
        string_val: "9qc0nj"
        string_val: "9q9ry1"
        string_val: "9qc64m"
        string_val: "9q9jqw"
        string_val: "9qcv21"
        string_val: "9q9k7q"
        string_val: "9q9ncg"
        string_val: "9q9nks"
        string_val: "9qc6gf"
        string_val: "9rcf84"
        string_val: "9q8ysq"
        string_val: "9q9wt0"
        string_val: "9q9jj0"
        string_val: "9qdnfj"
        string_val: "9q9p45"
        string_val: "9qcet6"
        string_val: "9qc8n3"
        string_val: "9q9nn3"
        string_val: "9q9r1b"
        string_val: "9qc8ns"
        string_val: "9q97b5"
        string_val: "9q9rbu"
        string_val: "9q9jvx"
        string_val: "9qc26k"
        string_val: "9q9xze"
        string_val: "9q9j91"
        string_val: "9q9k6j"
        string_val: "drdv4m"
        string_val: "9q9q9h"
        string_val: "dqctfg"
        string_val: "drdv4t"
        string_val: "9q9r07"
        string_val: "9qc613"
        string_val: "9qc1ze"
        string_val: "9q9vyp"
        string_val: "9q8ytp"
        string_val: "9q9x94"
        string_val: "9qc9zc"
        string_val: "9q9nsp"
        string_val: "9qc8pd"
        string_val: "9qc0r1"
        string_val: "9q5bc8"
        string_val: "9qcuf1"
        string_val: "9q9p51"
        string_val: "9q9hvh"
        string_val: "9q8yvx"
        string_val: "9q99qn"
        string_val: "9qc0j2"
        string_val: "9q9kdu"
        string_val: "9q8zur"
        string_val: "9q8yv9"
        string_val: "9q9p1y"
        string_val: "9q99tt"
        string_val: "9q9hqd"
        string_val: "9qdnc6"
        string_val: "9q9r0m"
        string_val: "9q8yje"
        string_val: "9qc0dv"
        string_val: "9q9jyg"
        string_val: "9q9kdf"
        string_val: "9q9k7t"
        string_val: "9q9vzv"
        string_val: "9qbf8t"
        string_val: "9qcu11"
        string_val: "9qc1xf"
        string_val: "9q93h7"
        string_val: "9q9j4t"
        string_val: "9r4bgn"
        string_val: "9r4c4b"
        string_val: "9qc236"
        string_val: "9qcu14"
        string_val: "9q8yyp"
        string_val: "9qcsp8"
        string_val: "9qc1s8"
        string_val: "9q97fz"
        string_val: "9q9p33"
        string_val: "9q9p97"
        string_val: "9q9p4q"
        string_val: "9qbfb3"
        string_val: "9q9j94"
        string_val: "9q8vyk"
        string_val: "9q9qkx"
        string_val: "9qdnf7"
        string_val: "9qctr4"
        string_val: "9qctps"
        string_val: "9q9pqj"
        string_val: "9q9jy4"
        string_val: "9q9pty"
        string_val: "9q8zn6"
        string_val: "9q9jzj"
        string_val: "9q93jm"
        string_val: "9q8ytj"
        string_val: "9q99t5"
        string_val: "9q9qf2"
        string_val: "9q9ngs"
        string_val: "9qc01z"
        string_val: "9qb6xq"
        string_val: "9q9z1j"
        string_val: "9q9jhg"
        string_val: "9q8ymh"
        string_val: "9q9663"
        string_val: "9q9nxh"
        string_val: "dp4d6e"
        string_val: "9qcv26"
        string_val: "dqctfd"
        string_val: "9q9khy"
        string_val: "9qc226"
        string_val: "9qc11u"
        string_val: "9qc8q6"
        string_val: "9q9p9g"
        string_val: "9q9z0f"
        string_val: "9q8yxk"
        string_val: "9qbc9s"
        string_val: "9qbb49"
        string_val: "9qc0dj"
        string_val: "9q8yt5"
        string_val: "9q9nnv"
        string_val: "9q9p1u"
        string_val: "9q9k4k"
        string_val: "9q8yt4"
        string_val: "9q9kf1"
        string_val: "9q9d3k"
        string_val: "9q9pyv"
        string_val: "9q9k30"
        string_val: "9q9kdm"
        string_val: "9qc7qh"
        string_val: "9q9wsq"
        string_val: "9qc03e"
        string_val: "9qc8zw"
        string_val: "9q8ymk"
        string_val: "9q9wzu"
        string_val: "9qc59s"
        string_val: "9q9ng7"
        string_val: "dp4d4r"
        string_val: "9q9jhc"
        string_val: "9q9psb"
        string_val: "9q8yyy"
        string_val: "9q9nkz"
        string_val: "9q8zmq"
        string_val: "dp4d46"
        string_val: "9qc8ru"
        string_val: "9q9r1c"
        string_val: "9q9nqx"
        string_val: "9qcet7"
        string_val: "9qc0nv"
        string_val: "9qc2hz"
        string_val: "9qc8n3"
        string_val: "9q9njj"
        string_val: "9q9p6e"
        string_val: "9q9k9n"
        string_val: "9q8yhs"
        string_val: "9q9hrb"
        string_val: "9q9ncu"
        string_val: "9qcetd"
        string_val: "9q94qd"
        string_val: "9q9nr4"
        string_val: "9q97py"
        string_val: "9q9jrx"
        string_val: "9q9hx7"
        string_val: "9q9kdf"
        string_val: "9rcf87"
        string_val: "9q9x8t"
        string_val: "9q9kfu"
        string_val: "9q9pvb"
        string_val: "9q8zn1"
        string_val: "9q9kf4"
        string_val: "9q9nq1"
        string_val: "9qc60z"
        string_val: "9qbdwe"
        string_val: "9q9kc8"
        string_val: "9q8yvw"
        string_val: "9q9k62"
        string_val: "9qc0f2"
        string_val: "9q9q6t"
        string_val: "9q8yyp"
        string_val: "9qc7r0"
        string_val: "9q9yn2"
        string_val: "9qc03g"
        string_val: "9qc0dr"
        string_val: "9q94pp"
        string_val: "9q8zzu"
        string_val: "9q8zjb"
        string_val: "9q9pt1"
        string_val: "9qc0js"
        string_val: "9q8yyp"
        string_val: "9qc8ny"
        string_val: "9q9kde"
        string_val: "9q9qkx"
        string_val: "9qc0jn"
        string_val: "9qc8qe"
        string_val: "9qc1xf"
        string_val: "9qc0p5"
        string_val: "9q9q6d"
        string_val: "9qc8qz"
        string_val: "9q97bg"
        string_val: "9q9wtj"
        string_val: "9q9pw7"
        string_val: "9qc1c1"
        string_val: "9q9wth"
        string_val: "9q8yyy"
        string_val: "9q8yyz"
        string_val: "9qcv0k"
        string_val: "9qc7m4"
        string_val: "9q964w"
        string_val: "9q963j"
        string_val: "9q8znd"
        string_val: "9q9k40"
        string_val: "9q9p3e"
        string_val: "9q9qmn"
        string_val: "9q9hx5"
        string_val: "9q8vz2"
        string_val: "9q8ymr"
        string_val: "9q9q6s"
        string_val: "9r4c4b"
        string_val: "9qc8mx"
        string_val: "9qc8px"
        string_val: "9qc70h"
        string_val: "9qc2hh"
        string_val: "9q9pme"
        string_val: "9q9k44"
        string_val: "9q8yy1"
        string_val: "9q9wt3"
        string_val: "9q9p4g"
        string_val: "9q9q9j"
        string_val: "9rcfbp"
        string_val: "9q9pq7"
        string_val: "9qc1wb"
        string_val: "9q9xp9"
        string_val: "9q9j57"
        string_val: "dqctdz"
        string_val: "9qbf9v"
        string_val: "9q9yn3"
        string_val: "9qc1xn"
        string_val: "9rcdzg"
        string_val: "9qc1z3"
        string_val: "9q95z6"
        string_val: "9qc8p8"
        string_val: "9qc0pc"
        string_val: "9q8yqq"
        string_val: "9qc00t"
        string_val: "9q9ych"
        string_val: "dp4d67"
        string_val: "9qc68v"
        string_val: "9q9hfv"
        string_val: "9q8zfz"
        string_val: "dp4d67"
        string_val: "9q9pmz"
        string_val: "9q9xxs"
        string_val: "9q9j9n"
        string_val: "9q9rvu"
        string_val: "9qc0pf"
        string_val: "9qc4rk"
        string_val: "9q9k80"
        string_val: "9q9yzk"
        string_val: "9q9q9n"
        string_val: "9qbdwk"
        string_val: "9q9p1z"
        string_val: "9q8zzg"
        string_val: "9q9hf1"
        string_val: "9q9njc"
        string_val: "9q9xzr"
        string_val: "9q9jyg"
        string_val: "9q9nsh"
        string_val: "9qc9p6"
        string_val: "9q8zt1"
        string_val: "9q9ng6"
        string_val: "9qcgcp"
        string_val: "9q9hpj"
        string_val: "9qc0gh"
        string_val: "9rcf8q"
        string_val: "9q9k36"
        string_val: "9qc8qv"
        string_val: "9q94zd"
        string_val: "9q9z16"
        string_val: "9q99tc"
        string_val: "9q8yu6"
        string_val: "9q9j8q"
        string_val: "9qc0n1"
        string_val: "9qbc3y"
        string_val: "9q8yw9"
        string_val: "9qc039"
        string_val: "9qc148"
        string_val: "9qc1kq"
        string_val: "9q9hty"
        string_val: "9qbesn"
        string_val: "9q9k1y"
        string_val: "9q9x8g"
        string_val: "9q8yuk"
        string_val: "9qc70m"
        string_val: "9q8yyx"
        string_val: "9q8yvz"
        string_val: "9q9ks1"
        string_val: "9qc8xr"
        string_val: "9qc0p8"
        string_val: "9qc8nb"
        string_val: "dqct9v"
        string_val: "9q9yp1"
        string_val: "9qc634"
        string_val: "9q9jqw"
        string_val: "9q9r0p"
        string_val: "9qc406"
        string_val: "9q9p42"
        string_val: "9q9p1z"
        string_val: "9q9nfh"
        string_val: "9q8yvs"
        string_val: "9q9njj"
        string_val: "9qc3q2"
        string_val: "9q9xx7"
        string_val: "9q9z1p"
        string_val: "9rcdxg"
        string_val: "9q8ytb"
        string_val: "9q9hvd"
        string_val: "dp4d2b"
        string_val: "9q9m39"
        string_val: "9q9m89"
        string_val: "9qdnfj"
        string_val: "9q8zxy"
        string_val: "9q9rwn"
        string_val: "9q97ff"
        string_val: "9qc253"
        string_val: "9q9njj"
        string_val: "9q8yuu"
        string_val: "9q9p4h"
        string_val: "9q9p3s"
        string_val: "dp4d62"
        string_val: "9qc256"
        string_val: "9q8yqq"
        string_val: "9qbbh1"
        string_val: "9qc1s4"
        string_val: "9q963m"
        string_val: "9q7nv9"
        string_val: "9q9yxd"
        string_val: "9q9k4j"
        string_val: "9q9hwr"
        string_val: "9qctpt"
        string_val: "9qcv0g"
        string_val: "9q8zzd"
        string_val: "9q9hdz"
        string_val: "dp4d60"
        string_val: "9q9k41"
        string_val: "9q8zj9"
        string_val: "9q8zsy"
        string_val: "9q9k5m"
        string_val: "9qc2hz"
        string_val: "9q9r2k"
        string_val: "9q9dds"
        string_val: "9q9hxj"
        string_val: "9qc0js"
        string_val: "9qc40k"
        string_val: "9q9ng3"
        string_val: "9qbbh2"
        string_val: "9qc11u"
        string_val: "drdv4r"
        string_val: "9q8uyp"
        string_val: "9q9zcj"
        string_val: "9q9r26"
        string_val: "9qbdye"
        string_val: "9q9hpm"
        string_val: "9q9z05"
        string_val: "9qc011"
        string_val: "9q9hqj"
        string_val: "9qdjbn"
        string_val: "9q9htm"
        string_val: "9q5bc8"
        string_val: "9q99tc"
        string_val: "9q9wmn"
        string_val: "9q9k7f"
        string_val: "9qc22b"
        string_val: "drdv4x"
        string_val: "9q9k6f"
        string_val: "9q9xb8"
        string_val: "9qc1wn"
        string_val: "9q8yyr"
        string_val: "9q96j3"
        string_val: "9q9zp1"
        string_val: "9qc200"
        string_val: "9q97ep"
        string_val: "9qc0pj"
        string_val: "9q9keh"
        string_val: "9q9ndr"
        string_val: "9q9e1m"
        string_val: "9q9kj0"
        string_val: "9q95zu"
        string_val: "9q9nge"
        string_val: "9qcvbr"
        string_val: "9q9p33"
        string_val: "9r4bgn"
        string_val: "9q9njj"
        string_val: "9q9py0"
        string_val: "9qc0hx"
        string_val: "9q8zur"
        string_val: "9q9hux"
        string_val: "9q9ney"
        string_val: "9q7nw3"
        string_val: "9qcu11"
        string_val: "9q7ns8"
        string_val: "9q9hw2"
        string_val: "9q9d8f"
        string_val: "9q9j96"
        string_val: "9qc6eu"
        string_val: "9q9m2m"
        string_val: "9q9jvw"
        string_val: "9q9x8x"
        string_val: "9q8yum"
        string_val: "9qbb72"
        string_val: "9q8zjb"
        string_val: "9q9jxv"
        string_val: "9q9jb0"
        string_val: "9q9p4c"
        string_val: "9q9nut"
        string_val: "9q96hg"
        string_val: "9q8vzb"
        string_val: "9q9htt"
        string_val: "9qdncf"
        string_val: "9q8ywn"
        string_val: "9q9jh1"
        string_val: "9qcgbv"
        string_val: "9q9qhy"
        string_val: "9q9hx7"
        string_val: "9q9k1h"
        string_val: "9qc11b"
        string_val: "9q8vnh"
        string_val: "9qc9xs"
        string_val: "9qbb7k"
        string_val: "9q9x8k"
        string_val: "9qcezu"
        string_val: "9qcv0d"
        string_val: "9q9pb0"
        string_val: "9qc61h"
        string_val: "9q97gv"
        string_val: "9q94qf"
        string_val: "dp4d60"
        string_val: "9q9prb"
        string_val: "9qc0p2"
        string_val: "9q9wu3"
        string_val: "9qc11c"
        string_val: "9qbbh6"
        string_val: "9qc8n6"
        string_val: "9q9k46"
        string_val: "9q8yt6"
        string_val: "9q9wkx"
        string_val: "9q9x91"
        string_val: "9qc0p2"
        string_val: "9qbev7"
        string_val: "9q9qcu"
        string_val: "9qc7m4"
        string_val: "9q9p9n"
        string_val: "9q8zzc"
        string_val: "9q9k1h"
        string_val: "9q9kje"
        string_val: "9q9x95"
        string_val: "9q5bc3"
        string_val: "9q8zn1"
        string_val: "9qdngm"
        string_val: "9rcfb1"
        string_val: "9q9ptr"
        string_val: "9q9jrx"
        string_val: "9q9ngd"
        string_val: "9qdnf4"
        string_val: "9q9d89"
        string_val: "9qc044"
        string_val: "9qbfb8"
        string_val: "9q9jwp"
        string_val: "9q9jhq"
        string_val: "9q9nqv"
        string_val: "9q9xyx"
        string_val: "9q9qbw"
        string_val: "9q9p4j"
        string_val: "9q9jx4"
        string_val: "9q9z16"
        string_val: "9qbb70"
        string_val: "9q9ycr"
        string_val: "9q9p1w"
        string_val: "9qc0f8"
        string_val: "9q9k27"
        string_val: "9qc80q"
        string_val: "9qbb4z"
        string_val: "9q9jxt"
        string_val: "9q9jrx"
        string_val: "9q9r42"
        string_val: "9qc1wm"
        string_val: "9q8yyf"
        string_val: "9q9q9k"
        string_val: "9q9p52"
        string_val: "9qc411"
        string_val: "9q9nc7"
        string_val: "9qbe4e"
        string_val: "9q9nm4"
        string_val: "9qcemp"
        string_val: "9q9ngu"
        string_val: "9q8yvb"
        string_val: "9q8yyd"
        string_val: "9q9pwe"
        string_val: "9qdnc6"
        string_val: "9q9k89"
        string_val: "9q94x2"
        string_val: "9qcezg"
        string_val: "9q9nqw"
        string_val: "9qc8p0"
        string_val: "9q8zzm"
        string_val: "9q9p44"
        string_val: "9q9r14"
        string_val: "9q9p99"
        string_val: "9q9hp1"
        string_val: "9q97u5"
        string_val: "9q9k4k"
        string_val: "9q9jh2"
        string_val: "9q8yw3"
        string_val: "9q9z13"
        string_val: "9qc1kq"
        string_val: "9q9p4v"
        string_val: "9qcc8p"
        string_val: "9q96d4"
        string_val: "9q9kkr"
        string_val: "9qbb48"
        string_val: "9qbv96"
        string_val: "9qc03e"
        string_val: "9qc25d"
        string_val: "9q9ws6"
        string_val: "9qbdwt"
        string_val: "9qcgb7"
        string_val: "9q9xb8"
        string_val: "9q9ksk"
        string_val: "9q9p1z"
        string_val: "9q5b9z"
        string_val: "9qbbfe"
        string_val: "9q5bc7"
        string_val: "9q9nqn"
        string_val: "9qc0p6"
        string_val: "9q94xp"
        string_val: "9q97et"
        string_val: "9q9wub"
        string_val: "9qc012"
        string_val: "9qc8p2"
        string_val: "9q962v"
        string_val: "9qbcbd"
        string_val: "9q9wsm"
        string_val: "9qc0jt"
        string_val: "9q8zxj"
        string_val: "9q5b9v"
        string_val: "9q8yvx"
        string_val: "9q8ymh"
        string_val: "9q9xp9"
        string_val: "9q9zcr"
        string_val: "9qbdby"
        string_val: "9q9rvg"
        string_val: "9q9k73"
        string_val: "9q9hs2"
        string_val: "9q8yy7"
        string_val: "9q9yxs"
        string_val: "9qbbff"
        string_val: "9q9nmf"
        string_val: "9q9p14"
        string_val: "9qbdy7"
        string_val: "9q9rw5"
        string_val: "9q9ke0"
        string_val: "9q9rcm"
        string_val: "9q9jxd"
        string_val: "9q9ruv"
        string_val: "9q8yyp"
        string_val: "9qc7md"
        string_val: "9qcgcn"
        string_val: "9q95zd"
        string_val: "9q9q9k"
        string_val: "9qc8qq"
        string_val: "9q9yxd"
        string_val: "9q964x"
        string_val: "9q9njv"
        string_val: "9qc20r"
        string_val: "9qc8p9"
        string_val: "9qc630"
        string_val: "9q9q8v"
        string_val: "9q9jwx"
        string_val: "9q9pvc"
        string_val: "9qc63q"
        string_val: "9q9jxv"
        string_val: "9q8ze9"
        string_val: "9q9k7e"
        string_val: "9q9ryf"
        string_val: "9q9nn9"
        string_val: "9q9rup"
        string_val: "9q9p4j"
        string_val: "9q9rvf"
        string_val: "9q9qmu"
        string_val: "9qc0jp"
        string_val: "9q9nur"
        string_val: "9q9p1y"
        string_val: "9q9k75"
        string_val: "9q9z1r"
        string_val: "9q9nq1"
        string_val: "9q9qf0"
        string_val: "9qc148"
        string_val: "9q8yvf"
        string_val: "9qc1we"
        string_val: "9qdpdp"
        string_val: "9q9j1t"
        string_val: "9rcdzf"
        string_val: "9q8zsy"
        string_val: "9qc9wu"
        string_val: "9q9jhs"
        string_val: "9q8yvb"
        string_val: "9q9kjr"
        string_val: "9q8yyp"
        string_val: "9q9p36"
        string_val: "9q9yxu"
        string_val: "9q9nnm"
        string_val: "9q9k6k"
        string_val: "9qc8wb"
        string_val: "9qc1wf"
        string_val: "9qcuff"
        string_val: "9q9j4j"
        string_val: "9q9hur"
        string_val: "9qbdzb"
        string_val: "9qc8rh"
        string_val: "9q9r13"
        string_val: "9q9k1n"
        string_val: "9q9jxd"
        string_val: "9q8vjg"
        string_val: "9q9q3f"
        string_val: "9qbb5p"
        string_val: "9r4bgq"
        string_val: "9q9p33"
        string_val: "9q9d3k"
        string_val: "9q9znb"
        string_val: "9qc8nu"
        string_val: "dqctcu"
        string_val: "9q9ryr"
        string_val: "9q9wsp"
        string_val: "9q9k30"
        string_val: "9q9j96"
        string_val: "9q9z1b"
        string_val: "9q9j5b"
        string_val: "9q9yce"
        string_val: "9q8yvq"
        string_val: "9rcdxs"
        string_val: "9q93gb"
        string_val: "9qbc2y"
        string_val: "9qc61k"
        string_val: "9q8yyw"
        string_val: "9q9k18"
        string_val: "9q9qkq"
        string_val: "9q95yv"
        string_val: "9qcb2y"
        string_val: "9q9pb7"
        string_val: "9q97r8"
        string_val: "9q97fp"
        string_val: "9q9p4e"
        string_val: "9q8zwz"
        string_val: "9qcemr"
        string_val: "9qc0nj"
        string_val: "9q97bn"
        string_val: "9qc229"
        string_val: "9q9pb7"
        string_val: "9qc1c5"
        string_val: "9qc7mf"
        string_val: "9qbc9h"
        string_val: "9q9wzu"
        string_val: "9q9ngb"
        string_val: "9q8zn2"
        string_val: "9qc1z8"
        string_val: "9q9kj5"
        string_val: "9qc004"
        string_val: "9q9kd7"
        string_val: "9q9qm7"
        string_val: "9q93yf"
        string_val: "9q9z0g"
        string_val: "9q9hkr"
        string_val: "9q9yck"
        string_val: "9qcbbe"
        string_val: "9q9m8q"
        string_val: "9qc613"
        string_val: "9qc0f3"
        string_val: "9q8zzv"
        string_val: "9q9hgx"
        string_val: "9q9x91"
        string_val: "9q8vyk"
        string_val: "9q8yvd"
        string_val: "9qbdpe"
        string_val: "9q8ze6"
        string_val: "9qbf0t"
        string_val: "9q9pzp"
        string_val: "9q9qcw"
        string_val: "9q9k47"
        string_val: "9q9m81"
        string_val: "9q8zet"
        string_val: "dp4d3b"
        string_val: "9q9zbq"
        string_val: "9q9jdn"
        string_val: "9q8yyx"
        string_val: "9q8zn8"
        string_val: "9qc0p2"
        string_val: "9qcxhz"
        string_val: "9q97f8"
        string_val: "9q9hnm"
        string_val: "9q9xyz"
        string_val: "9q8yq0"
        string_val: "9qbb4d"
        string_val: "9qc00s"
        string_val: "9qbb4d"
        string_val: "9q9jwg"
        string_val: "9q9p18"
        string_val: "9qbf8h"
        string_val: "9qc6ep"
        string_val: "9q9qtb"
        string_val: "9rcdxz"
        string_val: "9qbfh5"
        string_val: "9q9qtg"
        string_val: "9q9pww"
        string_val: "9q9k6r"
        string_val: "9q9jqw"
        string_val: "9qcb2d"
        string_val: "9q9qb5"
        string_val: "9q9p3f"
        string_val: "9q8yyx"
        string_val: "9q9r1n"
        string_val: "9q9p15"
        string_val: "9q96jg"
        string_val: "9q9nn0"
        string_val: "9qc8zv"
        string_val: "9q9hug"
        string_val: "9qbb4d"
        string_val: "9qc0ep"
        string_val: "9qbf8v"
        string_val: "9q8yvf"
        string_val: "9q9pzv"
        string_val: "9qc8pj"
        string_val: "9q9qcc"
        string_val: "9q9r19"
        string_val: "9q9r4k"
        string_val: "9q9xxz"
        string_val: "9q9rzm"
        string_val: "9q9jb3"
        string_val: "9q8ze9"
        string_val: "9q9pyu"
        string_val: "9q9kd0"
        string_val: "9q9rys"
        string_val: "9q9wt0"
        string_val: "9qcb0d"
        string_val: "9q9wkx"
        string_val: "9q8zzz"
        string_val: "9q9q8x"
        string_val: "9q9kjh"
        string_val: "9qc7m4"
        string_val: "9q9k77"
        string_val: "9qc8pc"
        string_val: "9q8zmn"
        string_val: "9q9j4k"
        string_val: "9qb9ty"
        string_val: "9q9njz"
        string_val: "9q8yjx"
        string_val: "9q9p9q"
        string_val: "9q9hum"
        string_val: "9q8zjb"
        string_val: "9q6mt5"
        string_val: "9qcemk"
        string_val: "9q8yqt"
        string_val: "9q9yyw"
        string_val: "9qcemr"
        string_val: "9q8yu3"
        string_val: "9qc8pg"
        string_val: "9q9kd3"
        string_val: "9qc7mf"
        string_val: "9q9r46"
        string_val: "9q9wkx"
        string_val: "9q966d"
        string_val: "9q9pvm"
        string_val: "9q9p4q"
        string_val: "9q9yp4"
        string_val: "9q962z"
        string_val: "9qbb1b"
        string_val: "9q9qkb"
        string_val: "9q94r9"
        string_val: "9qc0dm"
        string_val: "9qc3np"
        string_val: "9q9k12"
        string_val: "9qbhgb"
        string_val: "9q9nzg"
        string_val: "9q9p43"
        string_val: "9q8vyd"
        string_val: "9q9kew"
        string_val: "9q9jzd"
        string_val: "9q9j8d"
        string_val: "9q9p1s"
        string_val: "9qcbb9"
        string_val: "9q9p9g"
        string_val: "9q9jwt"
        string_val: "9q97ug"
        string_val: "9qbdxh"
        string_val: "9q9prs"
        string_val: "dp4d6k"
        string_val: "9qc1z3"
        string_val: "9q9r03"
        string_val: "9q8ytg"
        string_val: "9q8yy5"
        string_val: "9q9p38"
        string_val: "9r4c48"
        string_val: "9qcgfv"
        string_val: "9q9xp9"
        string_val: "9q9ycn"
        string_val: "9q9664"
        string_val: "9qc9xs"
        string_val: "9qc7ms"
        string_val: "9qc609"
        string_val: "9q94zc"
        string_val: "9q9prp"
        string_val: "9q9pvh"
        string_val: "dp4d60"
        string_val: "9q99td"
        string_val: "9q8yhv"
        string_val: "9q8yy0"
        string_val: "9q9keh"
        string_val: "9q8vuw"
        string_val: "dp4d0g"
        string_val: "9q9p6b"
        string_val: "9q9nmq"
        string_val: "9q9z1p"
        string_val: "9q99d7"
        string_val: "9q94r9"
        string_val: "9q9nq3"
        string_val: "9q8yyy"
        string_val: "9q9ycr"
        string_val: "9q9ked"
        string_val: "9qc7m7"
        string_val: "9rcfb8"
        string_val: "9q5bc7"
        string_val: "9qc15g"
        string_val: "9q9npx"
        string_val: "9qdnfs"
        string_val: "9qc1wq"
        string_val: "9q9wuj"
        string_val: "9q9net"
        string_val: "9qc8qb"
        string_val: "9qbgdp"
        string_val: "9q9p3t"
        string_val: "9qbc3y"
        string_val: "9q9yp1"
        string_val: "9q9k55"
        string_val: "9qbdqy"
        string_val: "9qcu0c"
        string_val: "9q7ns8"
        string_val: "9qcbbr"
        string_val: "9q9njw"
        string_val: "9q8yvc"
        string_val: "9q8vz0"
        string_val: "9qbb5q"
        string_val: "9q9njj"
        string_val: "9q94r6"
        string_val: "9q99t5"
        string_val: "9q8yyz"
        string_val: "9q9k4e"
        string_val: "9q9yem"
        string_val: "9q97g9"
        string_val: "9q9x9h"
        string_val: "9qc00h"
        string_val: "9qc0jc"
        string_val: "9qc630"
        string_val: "9q93gb"
        string_val: "9q8vxq"
        string_val: "9qbd7e"
        string_val: "9q9ry1"
        string_val: "9q97fk"
        string_val: "9qc03s"
        string_val: "9q9nmc"
        string_val: "9qbbpb"
        string_val: "9q9p64"
        string_val: "9q9qkc"
        string_val: "9q8zks"
        string_val: "9q97bg"
        string_val: "9q8ysx"
        string_val: "9q9p4h"
        string_val: "9qbbeb"
        string_val: "9q9ry2"
        string_val: "9q8zsy"
        string_val: "9q9ndn"
        string_val: "9q9zbp"
        string_val: "9qcemh"
        string_val: "9qc25d"
        string_val: "9q9x8g"
        string_val: "9q9jxt"
        string_val: "9q97cv"
        string_val: "9q9k9c"
        string_val: "9q9jy9"
        string_val: "9qbb46"
        string_val: "9q9km2"
        string_val: "9qbes4"
        string_val: "9q9nw0"
        string_val: "9qdnbe"
        string_val: "9qcb2m"
        string_val: "9q9p3p"
        string_val: "9qcgcw"
        string_val: "9q8zke"
        string_val: "9q9nmb"
        string_val: "9q8vu5"
        string_val: "9q9jwm"
        string_val: "9q9hnw"
        string_val: "9qbdwv"
        string_val: "9q9yzc"
        string_val: "9q9hxx"
        string_val: "9qc2h7"
        string_val: "9q9net"
        string_val: "9q9r40"
        string_val: "9q9j4j"
        string_val: "9q9d2x"
        string_val: "9q9x8u"
        string_val: "9qc7q4"
        string_val: "9q97fg"
        string_val: "9q99w6"
        string_val: "9q9zbn"
        string_val: "9q9nf3"
        string_val: "9q9khc"
        string_val: "9qc01v"
        string_val: "9qc25z"
        string_val: "9qbdxz"
        string_val: "9q9k8b"
        string_val: "9q9prb"
        string_val: "dqctg0"
        string_val: "9q9q66"
        string_val: "9q97r2"
        string_val: "9q9wef"
        string_val: "9q9z47"
        string_val: "9q9k2f"
        string_val: "9q9jvw"
        string_val: "9q9q3f"
        string_val: "9qbdzb"
        string_val: "9qbfh9"
        string_val: "9q9j4n"
        string_val: "9q9pcw"
        string_val: "9q9qkf"
        string_val: "9qdn8k"
        string_val: "9q9ruq"
        string_val: "9qbgk7"
        string_val: "9q9hdf"
        string_val: "9qc202"
        string_val: "9qc0nu"
        string_val: "9qc0jx"
        string_val: "9q9yex"
        string_val: "9q9hjs"
        string_val: "9q8yvy"
        string_val: "9q9pb6"
        string_val: "9q8yvd"
        string_val: "9qc1ch"
        string_val: "9q9kg3"
        string_val: "9qbhsy"
        string_val: "9q9ysp"
        string_val: "9q8yus"
        string_val: "9q9h9s"
        string_val: "9q9rcj"
        string_val: "9q9khv"
        string_val: "9q8yyy"
        string_val: "9q94r7"
        string_val: "9qc8qw"
        string_val: "9q9k4n"
        string_val: "9q9j38"
        string_val: "9q9yxt"
        string_val: "9qbf0t"
        string_val: "dp4d66"
        string_val: "9q9d9k"
        string_val: "9q9z0g"
        string_val: "9q97uu"
        string_val: "9q8yvy"
        string_val: "9qdncc"
        string_val: "9qcgbd"
        string_val: "9q9p6d"
        string_val: "9q9k2f"
        string_val: "9qcb25"
        string_val: "9q9q4t"
        string_val: "9q9hgm"
        string_val: "9q9rbj"
        string_val: "9qc6ex"
        string_val: "9qc613"
        string_val: "9qbfc4"
        string_val: "9q9k01"
        string_val: "9q9xzq"
        string_val: "9qc6es"
        string_val: "9q9rwr"
        string_val: "9q8yyc"
        string_val: "9q97ub"
        string_val: "9q9kk3"
        string_val: "9q9zcj"
        string_val: "9q9ngb"
        string_val: "9q9rbn"
        string_val: "dqcteq"
        string_val: "9qc8r6"
        string_val: "9q972h"
        string_val: "9q9qkx"
        string_val: "9q8yyv"
        string_val: "9q9nmq"
        string_val: "9q8yu8"
        string_val: "9q9ynh"
        string_val: "9q9ynk"
        string_val: "9qbb74"
        string_val: "9rcf8x"
        string_val: "9q9zb1"
        string_val: "9q9pk6"
        string_val: "9q9ksj"
        string_val: "9qcezv"
        string_val: "9q9p97"
        string_val: "9q8zez"
        string_val: "9q9r21"
        string_val: "9q9hry"
        string_val: "9qcgfy"
        string_val: "9qc606"
        string_val: "9q9pqu"
        string_val: "9q9k24"
        string_val: "9q8zxy"
        string_val: "9q9wzv"
        string_val: "9q9jhg"
        string_val: "9q9qfh"
        string_val: "9qcggz"
        string_val: "9qbf01"
        string_val: "9qc0n5"
        string_val: "9qcezf"
        string_val: "9q9p48"
        string_val: "9qc2jm"
        string_val: "9q9pse"
        string_val: "9q9pxm"
        string_val: "9qc7mv"
        string_val: "9q9kd0"
        string_val: "9q9j4d"
        string_val: "9q9kd2"
        string_val: "9q9py4"
        string_val: "9q9k37"
        string_val: "9q8zyb"
        string_val: "9qc40d"
        string_val: "9q9jh2"
        string_val: "9q9wzx"
        string_val: "dp4d46"
        string_val: "9qc8ng"
        string_val: "9rcf89"
        string_val: "9q9jd1"
        string_val: "9q9p55"
        string_val: "9q8vku"
        string_val: "9q9qq4"
        string_val: "9qc8n8"
        string_val: "9q95z7"
        string_val: "9qc1kz"
        string_val: "9q9p8r"
        string_val: "9q9j38"
        string_val: "9qc38j"
        string_val: "9q93hm"
        string_val: "9q9pq5"
        string_val: "9qcb0v"
        string_val: "9qc7m4"
        string_val: "9q9j4c"
        string_val: "9q8yyp"
        string_val: "9q9phz"
        string_val: "9q9hsp"
        string_val: "9q9r11"
        string_val: "9qc826"
        string_val: "9qbcuy"
        string_val: "9q9k6n"
        string_val: "9qbbhb"
        string_val: "9q9k24"
        string_val: "9qbf6z"
        string_val: "9rcfbh"
        string_val: "9q9p74"
        string_val: "9qc9zb"
        string_val: "9q9pqn"
        string_val: "9q9nf1"
        string_val: "9q8yyw"
        string_val: "9q8ysm"
        string_val: "9q9j2v"
        string_val: "9qc2hq"
        string_val: "9q9q4u"
        string_val: "9q9pqj"
        string_val: "9q8ywr"
        string_val: "9q8yyx"
        string_val: "dqctf8"
        string_val: "9qc8pt"
        string_val: "9q9pvc"
        string_val: "dp4d70"
        string_val: "9q7nt3"
        string_val: "9q8zzf"
        string_val: "9qc0ds"
        string_val: "9qbf8k"
        string_val: "9q9k1p"
        string_val: "9qc0pc"
        string_val: "9q8zkp"
        string_val: "9qc1vf"
        string_val: "9q9ngr"
        string_val: "9q9j3b"
        string_val: "9qc0dx"
        string_val: "9qc62n"
        string_val: "9q9q8p"
        string_val: "9q8ymr"
        string_val: "9q9j5c"
        string_val: "9q9r44"
        string_val: "9q9rym"
        string_val: "9q9ngq"
        string_val: "9q9p8v"
        string_val: "9q9hvf"
        string_val: "9q8zfy"
        string_val: "9q9jyg"
        string_val: "9qbv9j"
        string_val: "9qc00f"
        string_val: "9q9p7t"
        string_val: "9q9qme"
        string_val: "9q3vgx"
        string_val: "9q9p9h"
        string_val: "9q9qkx"
        string_val: "9q9p1p"
        string_val: "9q9pwy"
        string_val: "9q9rty"
        string_val: "9q9jxb"
        string_val: "9qc8n6"
        string_val: "9qbb5n"
        string_val: "9q9pku"
        string_val: "9q9hvp"
        string_val: "9qc0js"
        string_val: "9q9m1e"
        string_val: "9q9k53"
        string_val: "9q97fu"
        string_val: "9q9hpr"
        string_val: "9q9kjm"
        string_val: "9q97pf"
        string_val: "9qbdxt"
        string_val: "9q8yyc"
        string_val: "9q9pwr"
        string_val: "9q9r0h"
        string_val: "9q94r6"
        string_val: "9q9p4h"
        string_val: "9qcemh"
        string_val: "9q9hkr"
        string_val: "9q9nfx"
        string_val: "9q9j53"
        string_val: "9qcbbp"
        string_val: "9q9wsn"
        string_val: "9q9r1e"
        string_val: "9q8zgf"
        string_val: "9qcv0e"
        string_val: "9q9p8f"
        string_val: "9q8zzb"
        string_val: "9qbbh1"
        string_val: "9q8zz3"
        string_val: "9q9rvd"
        string_val: "9q8yvw"
        string_val: "9q9pr3"
        string_val: "9q9pys"
        string_val: "9q9jh6"
        string_val: "9q9wzv"
        string_val: "9qc0pf"
        string_val: "9qc0p4"
        string_val: "9q9yfj"
        string_val: "9qcb24"
        string_val: "9q9hrh"
        string_val: "9q9kkb"
        string_val: "9rcf8x"
        string_val: "9q9kdm"
        string_val: "9q9z11"
        string_val: "9q9kft"
        string_val: "9qc0jm"
        string_val: "9q9yem"
        string_val: "9q9jy5"
        string_val: "9q9pyu"
        string_val: "9q9pw3"
        string_val: "9q9xzx"
        string_val: "9q9k7q"
        string_val: "9q9qqr"
        string_val: "9q9kf4"
        string_val: "9q9pqr"
        string_val: "9q8zgd"
        string_val: "9q6mt6"
        string_val: "9q9vyp"
        string_val: "9q8yyv"
        string_val: "9q9phu"
        string_val: "9qc8ny"
        string_val: "9q9qhx"
        string_val: "9q964r"
        string_val: "9q9p3q"
        string_val: "9q94r7"
        string_val: "9q8yyz"
        string_val: "9q9ht7"
        string_val: "9q8ytt"
        string_val: "9q9jd7"
        string_val: "9q8ytf"
        string_val: "9qc11c"
        string_val: "9qc0fk"
        string_val: "9qbdww"
        string_val: "9q9jwz"
        string_val: "9q9kfg"
        string_val: "9q9jzu"
        string_val: "9q9ke6"
        string_val: "dqctcf"
        string_val: "9q8ytz"
        string_val: "9qbgdm"
        string_val: "9r4bgp"
        string_val: "9q9k3f"
        string_val: "9q9hs6"
        string_val: "9q9nsq"
        string_val: "9rcdxv"
        string_val: "9qc8mt"
        string_val: "9q9kdj"
        string_val: "9q9xzw"
        string_val: "9q9qkx"
        string_val: "9q9pw4"
        string_val: "9qc0nn"
        string_val: "9q9pcq"
        string_val: "9q9pqt"
        string_val: "9qc8px"
        string_val: "9q9j94"
        string_val: "9q9jx9"
        string_val: "9qctpm"
        string_val: "9qc6eu"
        string_val: "9qc4pu"
        string_val: "9qbbcg"
        string_val: "9qc8qu"
        string_val: "9qbdxv"
        string_val: "9q99t5"
        string_val: "9q9xzj"
        string_val: "9q8uvy"
        string_val: "9q9pbb"
        string_val: "9qc62w"
        string_val: "9q9pkg"
        string_val: "9q9qkg"
        string_val: "9qbcye"
        string_val: "9q8zem"
        string_val: "9q8yyy"
        string_val: "9q9j8w"
        string_val: "9q9jhg"
        string_val: "9q8yy2"
        string_val: "9q94yj"
        string_val: "9q9rtx"
        string_val: "9qcb0j"
        string_val: "9q9p5r"
        string_val: "9qbdyg"
        string_val: "9qc269"
        string_val: "9q9pte"
        string_val: "9qcezv"
        string_val: "9qbb4s"
        string_val: "9qbc3q"
        string_val: "9q9p1g"
        string_val: "9qcgcy"
        string_val: "9q9yn6"
        string_val: "9qcu0e"
        string_val: "9q9nex"
        string_val: "9qbb5v"
        string_val: "9q9z0j"
        string_val: "9q8ywx"
        string_val: "9q97r2"
        string_val: "9qc40k"
        string_val: "9q9kjm"
        string_val: "dqctdn"
        string_val: "9q99t5"
        string_val: "9q5bf1"
        string_val: "9qcb2v"
        string_val: "9q9hxb"
        string_val: "9q9nr0"
        string_val: "9q9kf1"
        string_val: "9q97b5"
        string_val: "9q9pyf"
        string_val: "9q9njj"
        string_val: "9q9k0d"
        string_val: "9qctr8"
        string_val: "9qbb7d"
        string_val: "9qc260"
        string_val: "9q9pqn"
        string_val: "9q9jwq"
        string_val: "9q9qf0"
        string_val: "9q9x8s"
        string_val: "9q9qe0"
        string_val: "9qbdpu"
        string_val: "9q8ytq"
        string_val: "9q8ysr"
        string_val: "9q9620"
        string_val: "9qc9xz"
        string_val: "9qc0n5"
        string_val: "9q8ymh"
        string_val: "9q9ydq"
        string_val: "9q9rvp"
        string_val: "9q9qme"
        string_val: "9q9pmy"
        string_val: "9qbb49"
        string_val: "9q9q9k"
        string_val: "9qbdpv"
        string_val: "9qc3nc"
        string_val: "9q9m89"
        string_val: "9q8ytg"
        string_val: "9qcv2b"
        string_val: "9q9k2u"
        string_val: "9q9nnb"
        string_val: "9q9jy8"
        string_val: "9qc1xy"
        string_val: "9q9m1g"
        string_val: "9qbdx6"
        string_val: "9qc4zw"
        string_val: "9qc0fs"
        string_val: "9q5bc6"
        string_val: "9qc8rb"
        string_val: "9q8ztj"
        string_val: "9qc064"
        string_val: "9q9q9n"
        string_val: "9qc00y"
        string_val: "9q9qq3"
        string_val: "9q8yyt"
        string_val: "9qbc9c"
        string_val: "9qc1xr"
        string_val: "9qcb2v"
        string_val: "9qbfvr"
        string_val: "9qbf8s"
        string_val: "9q9hx7"
        string_val: "9q9k2u"
        string_val: "9q9rvf"
        string_val: "9qdngq"
        string_val: "9q96j6"
        string_val: "9q8yyc"
        string_val: "9q9qc0"
        string_val: "9qcb2v"
        string_val: "9qc8r1"
        string_val: "9q962v"
        string_val: "9q8yyh"
        string_val: "9qbg6r"
        string_val: "9qc9pq"
        string_val: "dp4d64"
        string_val: "9qc8ne"
        string_val: "9q94rs"
        string_val: "9qc8r0"
        string_val: "9q9m8c"
        string_val: "9q9pzu"
        string_val: "9q8yyh"
        string_val: "dp4d1h"
        string_val: "9q9k2g"
        string_val: "9qcgbg"
        string_val: "9qbdwk"
        string_val: "9q9ngb"
        string_val: "9q962z"
        string_val: "9qc9xc"
        string_val: "9q9pb5"
        string_val: "9q9yem"
        string_val: "9q9hut"
        string_val: "9q9k6f"
        string_val: "9qc0dr"
        string_val: "9q9kc8"
        string_val: "9q9m2q"
        string_val: "9q9kfq"
        string_val: "9qbf5z"
        string_val: "9q9r43"
        string_val: "9q9wkx"
        string_val: "9qbfe3"
        string_val: "9q9xb8"
        string_val: "9qc0jx"
        string_val: "9q8zn0"
        string_val: "9q5b9x"
        string_val: "9q9nm8"
        string_val: "9q7ntz"
        string_val: "9q8ysy"
        string_val: "9q9p4w"
        string_val: "9q9kdf"
        string_val: "9r4c52"
        string_val: "9qc60c"
        string_val: "9qc8rh"
        string_val: "9q9j35"
        string_val: "9q9jwt"
        string_val: "9q9d97"
        string_val: "9rcfbh"
        string_val: "9q97fz"
        string_val: "9qc1eu"
        string_val: "9qbb5q"
        string_val: "9qc8qt"
        string_val: "9q9vyp"
        string_val: "9qc1eu"
        string_val: "9q9njj"
        string_val: "9q9rtg"
        string_val: "9q5bc8"
        string_val: "9qc269"
        string_val: "9q8yyd"
        string_val: "9q9wsp"
        string_val: "9qc63n"
        string_val: "9q9yp1"
        string_val: "9q9rbh"
        string_val: "9q9keh"
        string_val: "9q9nmq"
        string_val: "9q9pm4"
        string_val: "9q9k2b"
        string_val: "9q8zes"
        string_val: "9qc409"
        string_val: "9q8yvu"
        string_val: "9q6mtk"
        string_val: "9qbesy"
        string_val: "9qc8nq"
        string_val: "9q9yjc"
        string_val: "9r4c50"
        string_val: "9qc011"
        string_val: "9q9p1x"
        string_val: "9q99w5"
        string_val: "9q9k8b"
        string_val: "9q8zdg"
        string_val: "9q5bc3"
        string_val: "9qc3nf"
        string_val: "9qcemr"
        string_val: "9q9pqu"
        string_val: "9qc9p9"
        string_val: "9q9nx1"
        string_val: "9q8uvy"
        string_val: "9q8yv2"
        string_val: "9qcc2t"
        string_val: "9q9hrx"
        string_val: "9qcuew"
        string_val: "9q8vyg"
        string_val: "9q9pmz"
        string_val: "9qc8p1"
      }
    }
  }
}
node {
  name: "SparseTensor/dense_shape"
  op: "Const"
  attr {
    key: "_output_shapes"
    value {
      list {
        shape {
          dim {
            size: 2
          }
        }
      }
    }
  }
  attr {
    key: "dtype"
    value {
      type: DT_INT64
    }
  }
  attr {
    key: "value"
    value {
      tensor {
        dtype: DT_INT64
        tensor_shape {
          dim {
            size: 2
          }
        }
        tensor_content: "l\022\000\000\000\000\000\000\001\000\000\000\000\000\000\000"
      }
    }
  }
}
node {
  name: "SparseTensor_1/indices"
  op: "Const"
  attr {
    key: "_output_shapes"
    value {
      list {
        shape {
          dim {
            size: 4716
          }
          dim {
            size: 2
          }
        }
      }
    }
  }
  attr {
    key: "dtype"
    value {
      type: DT_INT64
    }
  }
  attr {
    key: "value"
    value {
      tensor {
        dtype: DT_INT64
        tensor_shape {
          dim {
            size: 4716
          }
          dim {
            size: 2
          }
        }
        tensor_content: "…"
      }
    }
  }
}
node {
  name: "SparseTensor_1/values"
  op: "Const"
  attr {
    key: "_output_shapes"
    value {
      list {
        shape {
          dim {
            size: 4716
          }
        }
      }
    }
  }
  attr {
    key: "dtype"
    value {
      type: DT_STRING
    }
  }
  attr {
    key: "value"
    value {
      tensor {
        dtype: DT_STRING
        tensor_shape {
          dim {
            size: 4716
          }
        }
        string_val: "Single Family"
        string_val: "Single Family"
        string_val: "Single Family"
        string_val: "Single Family"
        string_val: "Single Family"
        string_val: "Single Family"
        string_val: "Single Family"
        string_val: "Single Family"
        string_val: "Condo"
        string_val: "Condo"
        string_val: "Condo"
        string_val: "Single Family"
        string_val: "Single Family"
        string_val: "Single Family"
        string_val: "Single Family"
        string_val: "Single Family"
        string_val: "Single Family"
        string_val: "Single Family"
        string_val: "Condo"
        string_val: "Condo"
        string_val: "Single Family"
        string_val: "Single Family"
        string_val: "Condo"
        string_val: "Condo"
        string_val: "Condo"
        string_val: "Condo"
        string_val: "Single Family"
        string_val: "Single Family"
        string_val: "Single Family"
        string_val: "Single Family"
        string_val: "Single Family"
        string_val: "Single Family"
        string_val: "Single Family"
        string_val: "Single Family"
        string_val: "Single Family"
        string_val: "Single Family"
        string_val: "Single Family"
        string_val: "Condo"
        string_val: "Single Family"
        string_val: "Single Family"
        string_val: "Single Family"
        string_val: "Single Family"
        string_val: "Single Family"
        string_val: "Single Family"
        string_val: "Single Family"
        string_val: "Single Family"
        string_val: "Single Family"
        string_val: "Single Family"
        string_val: "Single Family"
        string_val: "Townhouse"
        string_val: "Single Family"
        string_val: "Single Family"
        string_val: "Single Family"
        string_val: "Single Family"
        string_val: "Single Family"
        string_val: "Condo"
        string_val: "Single Family"
        string_val: "Single Family"
        string_val: "Single Family"
        string_val: "Condo"
        string_val: "Single Family"
        string_val: "Single Family"
        string_val: "Townhouse"
        string_val: "Single Family"
        string_val: "Single Family"
        string_val: "Townhouse"
        string_val: "Single Family"
        string_val: "Single Family"
        string_val: "Single Family"
        string_val: "Single Family"
        string_val: "Single Family"
        string_val: "Single Family"
        string_val: "Single Family"
        string_val: "Single Family"
        string_val: "Single Family"
        string_val: "Condo"
        string_val: "Single Family"
        string_val: "Single Family"
        string_val: "Single Family"
        string_val: "Single Family"
        string_val: "Single Family"
        string_val: "Single Family"
        string_val: "Single Family"
        string_val: "Single Family"
        string_val: "Single Family"
        string_val: "Single Family"
        string_val: "Single Family"
        string_val: "Condo"
        string_val: "Single Family"
        string_val: "Single Family"
        string_val: "Single Family"
        string_val: "Single Family"
        string_val: "Single Family"
        string_val: "Single Family"
        string_val: "Single Family"
        string_val: "Single Family"
        string_val: "Single Family"
        string_val: "Single Family"
        string_val: "Single Family"
        string_val: "Single Family"
        string_val: "Single Family"
        string_val: "Single Family"
        string_val: "Condo"
        string_val: "Single Family"
        string_val: "Single Family"
        string_val: "Condo"
        string_val: "Single Family"
        string_val: "Single Family"
        string_val: "Single Family"
        string_val: "Single Family"
        string_val: "Single Family"
        string_val: "Single Family"
        string_val: "Single Family"
        string_val: "Single Family"
        string_val: "Single Family"
        string_val: "Condo"
        string_val: "Single Family"
        string_val: "Single Family"
        string_val: "Condo"
        string_val: "Single Family"
        string_val: "Single Family"
        string_val: "Single Family"
        string_val: "Single Family"
        string_val: "Townhouse"
        string_val: "Single Family"
        string_val: "Single Family"
        string_val: "Single Family"
        string_val: "Single Family"
        string_val: "Single Family"
        string_val: "Single Family"
        string_val: "Single Family"
        string_val: "Condo"
        string_val: "Single Family"
        string_val: "Single Family"
        string_val: "Single Family"
        string_val: "Condo"
        string_val: "Single Family"
        string_val: "Single Family"
        string_val: "Condo"
        string_val: "Single Family"
        string_val: "Single Family"
        string_val: "Single Family"
        string_val: "Single Family"
…
          unknown_rank: true
        }
      }
    }
  }
  attr {
    key: "dtypes"
    value {
      list {
        type: DT_FLOAT
      }
    }
  }
}
node {
  name: "save/Assign_12"
  op: "Assign"
  input: "linear/regression_head/linear/geohash/weights/part_0/Adam_1"
  input: "save/RestoreV2_12"
  attr {
    key: "T"
    value {
      type: DT_FLOAT
    }
  }
  attr {
    key: "_class"
    value {
      list {
        s: "loc:@linear/geohash/weights/part_0"
      }
    }
  }
  attr {
    key: "_output_shapes"
    value {
      list {
        shape {
          dim {
            size: 10000
          }
          dim {
            size: 1
          }
        }
      }
    }
  }
  attr {
    key: "use_locking"
    value {
      b: true
    }
  }
  attr {
    key: "validate_shape"
    value {
      b: true
    }
  }
}
node {
  name: "save/RestoreV2_13/tensor_names"
  op: "Const"
  attr {
    key: "_output_shapes"
    value {
      list {
        shape {
          dim {
            size: 1
          }
        }
      }
    }
  }
  attr {
    key: "dtype"
    value {
      type: DT_STRING
    }
  }
  attr {
    key: "value"
    value {
      tensor {
        dtype: DT_STRING
        tensor_shape {
          dim {
            size: 1
          }
        }
        string_val: "linear/lotsize_bucketized/weights"
      }
    }
  }
}
node {
  name: "save/RestoreV2_13/shape_and_slices"
  op: "Const"
  attr {
    key: "_output_shapes"
    value {
      list {
        shape {
          dim {
            size: 1
          }
        }
      }
    }
  }
  attr {
    key: "dtype"
    value {
      type: DT_STRING
    }
  }
  attr {
    key: "value"
    value {
      tensor {
        dtype: DT_STRING
        tensor_shape {
          dim {
            size: 1
          }
        }
        string_val: "31 1 0,31:0,1"
      }
    }
  }
}
node {
  name: "save/RestoreV2_13"
  op: "RestoreV2"
  input: "save/Const"
  input: "save/RestoreV2_13/tensor_names"
  input: "save/RestoreV2_13/shape_and_slices"
  attr {
    key: "_output_shapes"
    value {
      list {
        shape {
          unknown_rank: true
        }
      }
    }
  }
  attr {
    key: "dtypes"
    value {
      list {
        type: DT_FLOAT
      }
    }
  }
}
node {
  name: "save/Assign_13"
  op: "Assign"
  input: "linear/lotsize_bucketized/weights/part_0"
  input: "save/RestoreV2_13"
  attr {
    key: "T"
    value {
      type: DT_FLOAT
    }
  }
  attr {
    key: "_class"
    value {
      list {
        s: "loc:@linear/lotsize_bucketized/weights/part_0"
      }
    }
  }
  attr {
    key: "_output_shapes"
    value {
      list {
        shape {
          dim {
            size: 31
          }
          dim {
            size: 1
          }
        }
      }
    }
  }
  attr {
    key: "use_locking"
    value {
      b: true
    }
  }
  attr {
    key: "validate_shape"
    value {
      b: true
    }
  }
}
node {
  name: "save/RestoreV2_14/tensor_names"
  op: "Const"
  attr {
    key: "_output_shapes"
    value {
      list {
        shape {
          dim {
            size: 1
          }
        }
      }
    }
  }
  attr {
    key: "dtype"
    value {
      type: DT_STRING
    }
  }
  attr {
    key: "value"
    value {
      tensor {
        dtype: DT_STRING
        tensor_shape {
          dim {
            size: 1
          }
        }
        string_val: "linear/lotsize_bucketized/weights/ketized/weights/part_0/Adam"
      }
    }
  }
}
node {
  name: "save/RestoreV2_14/shape_and_slices"
  op: "Const"
  attr {
    key: "_output_shapes"
    value {
      list {
        shape {
          dim {
            size: 1
          }
        }
      }
    }
  }
  attr {
    key: "dtype"
    value {
      type: DT_STRING
    }
  }
  attr {
    key: "value"
    value {
      tensor {
        dtype: DT_STRING
        tensor_shape {
          dim {
            size: 1
          }
        }
        string_val: "31 1 0,31:0,1"
      }
    }
  }
}
node {
  name: "save/RestoreV2_14"
  op: "RestoreV2"
  input: "save/Const"
  input: "save/RestoreV2_14/tensor_names"
  input: "save/RestoreV2_14/shape_and_slices"
  attr {
    key: "_output_shapes"
    value {
      list {
        shape {
          unknown_rank: true
        }
      }
    }
  }
  attr {
    key: "dtypes"
    value {
      list {
        type: DT_FLOAT
      }
    }
  }
}
node {
  name: "save/Assign_14"
  op: "Assign"
  input: "linear/regression_head/linear/lotsize_bucketized/weights/part_0/Adam"
  input: "save/RestoreV2_14"
  attr {
    key: "T"
    value {
      type: DT_FLOAT
    }
  }
  attr {
    key: "_class"
    value {
      list {
        s: "loc:@linear/lotsize_bucketized/weights/part_0"
      }
    }
  }
  attr {
    key: "_output_shapes"
    value {
      list {
        shape {
          dim {
            size: 31
          }
          dim {
            size: 1
          }
        }
      }
    }
  }
  attr {
    key: "use_locking"
    value {
      b: true
    }
  }
  attr {
    key: "validate_shape"
    value {
      b: true
    }
  }
}
node {
  name: "save/RestoreV2_15/tensor_names"
  op: "Const"
  attr {
    key: "_output_shapes"
    value {
      list {
        shape {
          dim {
            size: 1
          }
        }
      }
    }
  }
  attr {
    key: "dtype"
    value {
      type: DT_STRING
    }
  }
  attr {
    key: "value"
    value {
      tensor {
        dtype: DT_STRING
        tensor_shape {
          dim {
            size: 1
          }
        }
        string_val: "linear/lotsize_bucketized/weights/ketized/weights/part_0/Adam_1"
      }
    }
  }
}
node {
  name: "save/RestoreV2_15/shape_and_slices"
  op: "Const"
  attr {
    key: "_output_shapes"
    value {
      list {
        shape {
          dim {
            size: 1
          }
        }
      }
    }
  }
  attr {
    key: "dtype"
    value {
      type: DT_STRING
    }
  }
  attr {
    key: "value"
    value {
      tensor {
        dtype: DT_STRING
        tensor_shape {
          dim {
            size: 1
          }
        }
        string_val: "31 1 0,31:0,1"
      }
    }
  }
}
node {
  name: "save/RestoreV2_15"
  op: "RestoreV2"
  input: "save/Const"
  input: "save/RestoreV2_15/tensor_names"
  input: "save/RestoreV2_15/shape_and_slices"
  attr {
    key: "_output_shapes"
    value {
      list {
        shape {
          unknown_rank: true
        }
      }
    }
  }
  attr {
    key: "dtypes"
    value {
      list {
        type: DT_FLOAT
      }
    }
  }
}
node {
  name: "save/Assign_15"
  op: "Assign"
  input: "linear/regression_head/linear/lotsize_bucketized/weights/part_0/Adam_1"
  input: "save/RestoreV2_15"
  attr {
    key: "T"
    value {
      type: DT_FLOAT
    }
  }
  attr {
    key: "_class"
    value {
      list {
        s: "loc:@linear/lotsize_bucketized/weights/part_0"
      }
    }
  }
  attr {
    key: "_output_shapes"
    value {
      list {
        shape {
          dim {
            size: 31
          }
          dim {
            size: 1
          }
        }
      }
    }
  }
  attr {
    key: "use_locking"
    value {
      b: true
    }
  }
  attr {
    key: "validate_shape"
    value {
      b: true
    }
  }
}
node {
  name: "save/RestoreV2_16/tensor_names"
  op: "Const"
  attr {
    key: "_output_shapes"
    value {
      list {
        shape {
          dim {
            size: 1
          }
        }
      }
    }
  }
  attr {
    key: "dtype"
    value {
      type: DT_STRING
    }
  }
  attr {
    key: "value"
    value {
      tensor {
        dtype: DT_STRING
        tensor_shape {
          dim {
            size: 1
          }
        }
        string_val: "linear/property_type/weights"
      }
    }
  }
}
node {
  name: "save/RestoreV2_16/shape_and_slices"
  op: "Const"
  attr {
    key: "_output_shapes"
    value {
      list {
        shape {
          dim {
            size: 1
          }
        }
      }
    }
  }
  attr {
    key: "dtype"
    value {
      type: DT_STRING
    }
  }
  attr {
    key: "value"
    value {
      tensor {
        dtype: DT_STRING
        tensor_shape {
          dim {
            size: 1
          }
        }
        string_val: "10 1 0,10:0,1"
      }
    }
  }
}
node {
  name: "save/RestoreV2_16"
  op: "RestoreV2"
  input: "save/Const"
  input: "save/RestoreV2_16/tensor_names"
  input: "save/RestoreV2_16/shape_and_slices"
  attr {
    key: "_output_shapes"
    value {
      list {
        shape {
          unknown_rank: true
        }
      }
    }
  }
  attr {
    key: "dtypes"
    value {
      list {
        type: DT_FLOAT
      }
    }
  }
}
node {
  name: "save/Assign_16"
  op: "Assign"
  input: "linear/property_type/weights/part_0"
  input: "save/RestoreV2_16"
  attr {
    key: "T"
    value {
      type: DT_FLOAT
    }
  }
  attr {
    key: "_class"
    value {
      list {
        s: "loc:@linear/property_type/weights/part_0"
      }
    }
  }
  attr {
    key: "_output_shapes"
    value {
      list {
        shape {
          dim {
            size: 10
          }
          dim {
            size: 1
          }
        }
      }
    }
  }
  attr {
    key: "use_locking"
    value {
      b: true
    }
  }
  attr {
    key: "validate_shape"
    value {
      b: true
    }
  }
}
node {
  name: "save/RestoreV2_17/tensor_names"
  op: "Const"
  attr {
    key: "_output_shapes"
    value {
      list {
        shape {
          dim {
            size: 1
          }
        }
      }
    }
  }
  attr {
    key: "dtype"
    value {
      type: DT_STRING
    }
  }
  attr {
    key: "value"
    value {
      tensor {
        dtype: DT_STRING
        tensor_shape {
          dim {
            size: 1
          }
        }
        string_val: "linear/property_type/weights/ty_type/weights/part_0/Adam"
      }
    }
  }
}
node {
  name: "save/RestoreV2_17/shape_and_slices"
  op: "Const"
  attr {
    key: "_output_shapes"
    value {
      list {
        shape {
          dim {
            size: 1
          }
        }
      }
    }
  }
  attr {
    key: "dtype"
    value {
      type: DT_STRING
    }
  }
  attr {
    key: "value"
    value {
      tensor {
        dtype: DT_STRING
        tensor_shape {
          dim {
            size: 1
          }
        }
        string_val: "10 1 0,10:0,1"
      }
    }
  }
}
node {
  name: "save/RestoreV2_17"
  op: "RestoreV2"
  input: "save/Const"
  input: "save/RestoreV2_17/tensor_names"
  input: "save/RestoreV2_17/shape_and_slices"
  attr {
    key: "_output_shapes"
    value {
      list {
        shape {
          unknown_rank: true
        }
      }
    }
  }
  attr {
    key: "dtypes"
    value {
      list {
        type: DT_FLOAT
      }
    }
  }
}
node {
  name: "save/Assign_17"
  op: "Assign"
  input: "linear/regression_head/linear/property_type/weights/part_0/Adam"
  input: "save/RestoreV2_17"
  attr {
    key: "T"
    value {
      type: DT_FLOAT
    }
  }
  attr {
    key: "_class"
    value {
      list {
        s: "loc:@linear/property_type/weights/part_0"
      }
    }
  }
  attr {
    key: "_output_shapes"
    value {
      list {
        shape {
          dim {
            size: 10
          }
          dim {
            size: 1
          }
        }
      }
    }
  }
  attr {
    key: "use_locking"
    value {
      b: true
    }
  }
  attr {
    key: "validate_shape"
    value {
      b: true
    }
  }
}
node {
  name: "save/RestoreV2_18/tensor_names"
  op: "Const"
  attr {
    key: "_output_shapes"
    value {
      list {
        shape {
          dim {
            size: 1
          }
        }
      }
    }
  }
  attr {
    key: "dtype"
    value {
      type: DT_STRING
    }
  }
  attr {
    key: "value"
    value {
      tensor {
        dtype: DT_STRING
        tensor_shape {
          dim {
            size: 1
          }
        }
        string_val: "linear/property_type/weights/ty_type/weights/part_0/Adam_1"
      }
    }
  }
}
node {
  name: "save/RestoreV2_18/shape_and_slices"
  op: "Const"
  attr {
    key: "_output_shapes"
    value {
      list {
        shape {
          dim {
            size: 1
          }
        }
      }
    }
  }
  attr {
    key: "dtype"
    value {
      type: DT_STRING
    }
  }
  attr {
    key: "value"
    value {
      tensor {
        dtype: DT_STRING
        tensor_shape {
          dim {
            size: 1
          }
        }
        string_val: "10 1 0,10:0,1"
      }
    }
  }
}
node {
  name: "save/RestoreV2_18"
  op: "RestoreV2"
  input: "save/Const"
  input: "save/RestoreV2_18/tensor_names"
  input: "save/RestoreV2_18/shape_and_slices"
  attr {
    key: "_output_shapes"
    value {
      list {
        shape {
          unknown_rank: true
        }
      }
    }
  }
  attr {
    key: "dtypes"
    value {
      list {
        type: DT_FLOAT
      }
    }
  }
}
node {
  name: "save/Assign_18"
  op: "Assign"
  input: "linear/regression_head/linear/property_type/weights/part_0/Adam_1"
  input: "save/RestoreV2_18"
  attr {
    key: "T"
    value {
      type: DT_FLOAT
    }
  }
  attr {
    key: "_class"
    value {
      list {
        s: "loc:@linear/property_type/weights/part_0"
      }
    }
  }
  attr {
    key: "_output_shapes"
    value {
      list {
        shape {
          dim {
            size: 10
          }
          dim {
            size: 1
          }
        }
      }
    }
  }
  attr {
    key: "use_locking"
    value {
      b: true
    }
  }
  attr {
    key: "validate_shape"
    value {
      b: true
    }
  }
}
node {
  name: "save/RestoreV2_19/tensor_names"
  op: "Const"
  attr {
    key: "_output_shapes"
    value {
      list {
        shape {
          dim {
            size: 1
          }
        }
      }
    }
  }
  attr {
    key: "dtype"
    value {
      type: DT_STRING
    }
  }
  attr {
    key: "value"
    value {
      tensor {
        dtype: DT_STRING
        tensor_shape {
          dim {
            size: 1
          }
        }
        string_val: "linear/regression_head/train_op/beta1_power"
      }
    }
  }
}
node {
  name: "save/RestoreV2_19/shape_and_slices"
  op: "Const"
  attr {
    key: "_output_shapes"
    value {
      list {
        shape {
          dim {
            size: 1
          }
        }
      }
    }
  }
  attr {
    key: "dtype"
    value {
      type: DT_STRING
    }
  }
  attr {
    key: "value"
    value {
      tensor {
        dtype: DT_STRING
        tensor_shape {
          dim {
            size: 1
          }
        }
        string_val: ""
      }
    }
  }
}
node {
  name: "save/RestoreV2_19"
  op: "RestoreV2"
  input: "save/Const"
  input: "save/RestoreV2_19/tensor_names"
  input: "save/RestoreV2_19/shape_and_slices"
  attr {
    key: "_output_shapes"
    value {
      list {
        shape {
          unknown_rank: true
        }
      }
    }
  }
  attr {
    key: "dtypes"
    value {
      list {
        type: DT_FLOAT
      }
    }
  }
}
node {
  name: "save/Assign_19"
  op: "Assign"
  input: "linear/regression_head/train_op/beta1_power"
  input: "save/RestoreV2_19"
  attr {
    key: "T"
    value {
      type: DT_FLOAT
    }
  }
  attr {
    key: "_class"
    value {
      list {
        s: "loc:@linear/lotsize_bucketized/weights/part_0"
      }
    }
  }
  attr {
    key: "_output_shapes"
    value {
      list {
        shape {
        }
      }
    }
  }
  attr {
    key: "use_locking"
    value {
      b: true
    }
  }
  attr {
    key: "validate_shape"
    value {
      b: true
    }
  }
}
node {
  name: "save/RestoreV2_20/tensor_names"
  op: "Const"
  attr {
    key: "_output_shapes"
    value {
      list {
        shape {
          dim {
            size: 1
          }
        }
      }
    }
  }
  attr {
    key: "dtype"
    value {
      type: DT_STRING
    }
  }
  attr {
    key: "value"
    value {
      tensor {
        dtype: DT_STRING
        tensor_shape {
          dim {
            size: 1
          }
        }
        string_val: "linear/regression_head/train_op/beta2_power"
      }
    }
  }
}
node {
  name: "save/RestoreV2_20/shape_and_slices"
  op: "Const"
  attr {
    key: "_output_shapes"
    value {
      list {
        shape {
          dim {
            size: 1
          }
        }
      }
    }
  }
  attr {
    key: "dtype"
    value {
      type: DT_STRING
    }
  }
  attr {
    key: "value"
    value {
      tensor {
        dtype: DT_STRING
        tensor_shape {
          dim {
            size: 1
          }
        }
        string_val: ""
      }
    }
  }
}
node {
  name: "save/RestoreV2_20"
  op: "RestoreV2"
  input: "save/Const"
  input: "save/RestoreV2_20/tensor_names"
  input: "save/RestoreV2_20/shape_and_slices"
  attr {
    key: "_output_shapes"
    value {
      list {
        shape {
          unknown_rank: true
        }
      }
    }
  }
  attr {
    key: "dtypes"
    value {
      list {
        type: DT_FLOAT
      }
    }
  }
}
node {
  name: "save/Assign_20"
  op: "Assign"
  input: "linear/regression_head/train_op/beta2_power"
  input: "save/RestoreV2_20"
  attr {
    key: "T"
    value {
      type: DT_FLOAT
    }
  }
  attr {
    key: "_class"
    value {
      list {
        s: "loc:@linear/lotsize_bucketized/weights/part_0"
      }
    }
  }
  attr {
    key: "_output_shapes"
    value {
      list {
        shape {
        }
      }
    }
  }
  attr {
    key: "use_locking"
    value {
      b: true
    }
  }
  attr {
    key: "validate_shape"
    value {
      b: true
    }
  }
}
node {
  name: "save/RestoreV2_21/tensor_names"
  op: "Const"
  attr {
    key: "_output_shapes"
    value {
      list {
        shape {
          dim {
            size: 1
          }
        }
      }
    }
  }
  attr {
    key: "dtype"
    value {
      type: DT_STRING
    }
  }
  attr {
    key: "value"
    value {
      tensor {
        dtype: DT_STRING
        tensor_shape {
          dim {
            size: 1
          }
        }
        string_val: "linear/school_ratingE/weight"
      }
    }
  }
}
node {
  name: "save/RestoreV2_21/shape_and_slices"
  op: "Const"
  attr {
    key: "_output_shapes"
    value {
      list {
        shape {
          dim {
            size: 1
          }
        }
      }
    }
  }
  attr {
    key: "dtype"
    value {
      type: DT_STRING
    }
  }
  attr {
    key: "value"
    value {
      tensor {
        dtype: DT_STRING
        tensor_shape {
          dim {
            size: 1
          }
        }
        string_val: "1 1 0,1:0,1"
      }
    }
  }
}
node {
  name: "save/RestoreV2_21"
  op: "RestoreV2"
  input: "save/Const"
  input: "save/RestoreV2_21/tensor_names"
  input: "save/RestoreV2_21/shape_and_slices"
  attr {
    key: "_output_shapes"
    value {
      list {
        shape {
          unknown_rank: true
        }
      }
    }
  }
  attr {
    key: "dtypes"
    value {
      list {
        type: DT_FLOAT
      }
    }
  }
}
node {
  name: "save/Assign_21"
  op: "Assign"
  input: "linear/school_ratingE/weight/part_0"
  input: "save/RestoreV2_21"
  attr {
    key: "T"
    value {
      type: DT_FLOAT
    }
  }
  attr {
    key: "_class"
    value {
      list {
        s: "loc:@linear/school_ratingE/weight/part_0"
      }
    }
  }
  attr {
    key: "_output_shapes"
    value {
      list {
        shape {
          dim {
            size: 1
          }
          dim {
            size: 1
          }
        }
      }
    }
  }
  attr {
    key: "use_locking"
    value {
      b: true
    }
  }
  attr {
    key: "validate_shape"
    value {
      b: true
    }
  }
}
node {
  name: "save/RestoreV2_22/tensor_names"
  op: "Const"
  attr {
    key: "_output_shapes"
    value {
      list {
        shape {
          dim {
            size: 1
          }
        }
      }
    }
  }
  attr {
    key: "dtype"
    value {
      type: DT_STRING
    }
  }
  attr {
    key: "value"
    value {
      tensor {
        dtype: DT_STRING
        tensor_shape {
          dim {
            size: 1
          }
        }
        string_val: "linear/school_ratingE/weight/_ratingE/weight/part_0/Adam"
      }
    }
  }
}
node {
  name: "save/RestoreV2_22/shape_and_slices"
  op: "Const"
  attr {
    key: "_output_shapes"
    value {
      list {
        shape {
          dim {
            size: 1
          }
        }
      }
    }
  }
  attr {
    key: "dtype"
    value {
      type: DT_STRING
    }
  }
  attr {
    key: "value"
    value {
      tensor {
        dtype: DT_STRING
        tensor_shape {
          dim {
            size: 1
          }
        }
        string_val: "1 1 0,1:0,1"
      }
    }
  }
}
node {
  name: "save/RestoreV2_22"
  op: "RestoreV2"
  input: "save/Const"
  input: "save/RestoreV2_22/tensor_names"
  input: "save/RestoreV2_22/shape_and_slices"
  attr {
    key: "_output_shapes"
    value {
      list {
        shape {
          unknown_rank: true
        }
      }
    }
  }
  attr {
    key: "dtypes"
    value {
      list {
        type: DT_FLOAT
      }
    }
  }
}
node {
  name: "save/Assign_22"
  op: "Assign"
  input: "linear/regression_head/linear/school_ratingE/weight/part_0/Adam"
  input: "save/RestoreV2_22"
  attr {
    key: "T"
    value {
      type: DT_FLOAT
    }
  }
  attr {
    key: "_class"
    value {
      list {
        s: "loc:@linear/school_ratingE/weight/part_0"
      }
    }
  }
  attr {
    key: "_output_shapes"
    value {
      list {
        shape {
          dim {
            size: 1
          }
          dim {
            size: 1
          }
        }
      }
    }
  }
  attr {
    key: "use_locking"
    value {
      b: true
    }
  }
  attr {
    key: "validate_shape"
    value {
      b: true
    }
  }
}
node {
  name: "save/RestoreV2_23/tensor_names"
  op: "Const"
  attr {
    key: "_output_shapes"
    value {
      list {
        shape {
          dim {
            size: 1
          }
        }
      }
    }
  }
  attr {
    key: "dtype"
    value {
      type: DT_STRING
    }
  }
  attr {
    key: "value"
    value {
      tensor {
        dtype: DT_STRING
        tensor_shape {
          dim {
            size: 1
          }
        }
        string_val: "linear/school_ratingE/weight/_ratingE/weight/part_0/Adam_1"
      }
    }
  }
}
node {
  name: "save/RestoreV2_23/shape_and_slices"
  op: "Const"
  attr {
    key: "_output_shapes"
    value {
      list {
        shape {
          dim {
            size: 1
          }
        }
      }
    }
  }
  attr {
    key: "dtype"
    value {
      type: DT_STRING
    }
  }
  attr {
    key: "value"
    value {
      tensor {
        dtype: DT_STRING
        tensor_shape {
          dim {
            size: 1
          }
        }
        string_val: "1 1 0,1:0,1"
      }
    }
  }
}
node {
  name: "save/RestoreV2_23"
  op: "RestoreV2"
  input: "save/Const"
  input: "save/RestoreV2_23/tensor_names"
  input: "save/RestoreV2_23/shape_and_slices"
  attr {
    key: "_output_shapes"
    value {
      list {
        shape {
          unknown_rank: true
        }
      }
    }
  }
  attr {
    key: "dtypes"
    value {
      list {
        type: DT_FLOAT
      }
    }
  }
}
node {
  name: "save/Assign_23"
  op: "Assign"
  input: "linear/regression_head/linear/school_ratingE/weight/part_0/Adam_1"
  input: "save/RestoreV2_23"
  attr {
    key: "T"
    value {
      type: DT_FLOAT
    }
  }
  attr {
    key: "_class"
    value {
      list {
        s: "loc:@linear/school_ratingE/weight/part_0"
      }
    }
  }
  attr {
    key: "_output_shapes"
    value {
      list {
        shape {
          dim {
            size: 1
          }
          dim {
            size: 1
          }
        }
      }
    }
  }
  attr {
    key: "use_locking"
    value {
      b: true
    }
  }
  attr {
    key: "validate_shape"
    value {
      b: true
    }
  }
}
node {
  name: "save/RestoreV2_24/tensor_names"
  op: "Const"
  attr {
    key: "_output_shapes"
    value {
      list {
        shape {
          dim {
            size: 1
          }
        }
      }
    }
  }
  attr {
    key: "dtype"
    value {
      type: DT_STRING
    }
  }
  attr {
    key: "value"
    value {
      tensor {
        dtype: DT_STRING
        tensor_shape {
          dim {
            size: 1
          }
        }
        string_val: "linear/school_ratingH/weight"
      }
    }
  }
}
node {
  name: "save/RestoreV2_24/shape_and_slices"
  op: "Const"
  attr {
    key: "_output_shapes"
    value {
      list {
        shape {
          dim {
            size: 1
          }
        }
      }
    }
  }
  attr {
    key: "dtype"
    value {
      type: DT_STRING
    }
  }
  attr {
    key: "value"
    value {
      tensor {
        dtype: DT_STRING
        tensor_shape {
          dim {
            size: 1
          }
        }
        string_val: "1 1 0,1:0,1"
      }
    }
  }
}
node {
  name: "save/RestoreV2_24"
  op: "RestoreV2"
  input: "save/Const"
  input: "save/RestoreV2_24/tensor_names"
  input: "save/RestoreV2_24/shape_and_slices"
  attr {
    key: "_output_shapes"
    value {
      list {
        shape {
          unknown_rank: true
        }
      }
    }
  }
  attr {
    key: "dtypes"
    value {
      list {
        type: DT_FLOAT
      }
    }
  }
}
node {
  name: "save/Assign_24"
  op: "Assign"
  input: "linear/school_ratingH/weight/part_0"
  input: "save/RestoreV2_24"
  attr {
    key: "T"
    value {
      type: DT_FLOAT
    }
  }
  attr {
    key: "_class"
    value {
      list {
        s: "loc:@linear/school_ratingH/weight/part_0"
      }
    }
  }
  attr {
    key: "_output_shapes"
    value {
      list {
        shape {
          dim {
            size: 1
          }
          dim {
            size: 1
          }
        }
      }
    }
  }
  attr {
    key: "use_locking"
    value {
      b: true
    }
  }
  attr {
    key: "validate_shape"
    value {
      b: true
    }
  }
}
node {
  name: "save/RestoreV2_25/tensor_names"
  op: "Const"
  attr {
    key: "_output_shapes"
    value {
      list {
        shape {
          dim {
            size: 1
          }
        }
      }
    }
  }
  attr {
    key: "dtype"
    value {
      type: DT_STRING
    }
  }
  attr {
    key: "value"
    value {
      tensor {
        dtype: DT_STRING
        tensor_shape {
          dim {
            size: 1
          }
        }
        string_val: "linear/school_ratingH/weight/_ratingH/weight/part_0/Adam"
      }
    }
  }
}
node {
  name: "save/RestoreV2_25/shape_and_slices"
  op: "Const"
  attr {
    key: "_output_shapes"
    value {
      list {
        shape {
          dim {
            size: 1
          }
        }
      }
    }
  }
  attr {
    key: "dtype"
    value {
      type: DT_STRING
    }
  }
  attr {
    key: "value"
    value {
      tensor {
        dtype: DT_STRING
        tensor_shape {
          dim {
            size: 1
          }
        }
        string_val: "1 1 0,1:0,1"
      }
    }
  }
}
node {
  name: "save/RestoreV2_25"
  op: "RestoreV2"
  input: "save/Const"
  input: "save/RestoreV2_25/tensor_names"
  input: "save/RestoreV2_25/shape_and_slices"
  attr {
    key: "_output_shapes"
    value {
      list {
        shape {
          unknown_rank: true
        }
      }
    }
  }
  attr {
    key: "dtypes"
    value {
      list {
        type: DT_FLOAT
      }
    }
  }
}
node {
  name: "save/Assign_25"
  op: "Assign"
  input: "linear/regression_head/linear/school_ratingH/weight/part_0/Adam"
  input: "save/RestoreV2_25"
  attr {
    key: "T"
    value {
      type: DT_FLOAT
    }
  }
  attr {
    key: "_class"
    value {
      list {
        s: "loc:@linear/school_ratingH/weight/part_0"
      }
    }
  }
  attr {
    key: "_output_shapes"
    value {
      list {
        shape {
          dim {
            size: 1
          }
          dim {
            size: 1
          }
        }
      }
    }
  }
  attr {
    key: "use_locking"
    value {
      b: true
    }
  }
  attr {
    key: "validate_shape"
    value {
      b: true
    }
  }
}
node {
  name: "save/RestoreV2_26/tensor_names"
  op: "Const"
  attr {
    key: "_output_shapes"
    value {
      list {
        shape {
          dim {
            size: 1
          }
        }
      }
    }
  }
  attr {
    key: "dtype"
    value {
      type: DT_STRING
    }
  }
  attr {
    key: "value"
    value {
      tensor {
        dtype: DT_STRING
        tensor_shape {
          dim {
            size: 1
          }
        }
        string_val: "linear/school_ratingH/weight/_ratingH/weight/part_0/Adam_1"
      }
    }
  }
}
node {
  name: "save/RestoreV2_26/shape_and_slices"
  op: "Const"
  attr {
    key: "_output_shapes"
    value {
      list {
        shape {
          dim {
            size: 1
          }
        }
      }
    }
  }
  attr {
    key: "dtype"
    value {
      type: DT_STRING
    }
  }
  attr {
    key: "value"
    value {
      tensor {
        dtype: DT_STRING
        tensor_shape {
          dim {
            size: 1
          }
        }
        string_val: "1 1 0,1:0,1"
      }
    }
  }
}
node {
  name: "save/RestoreV2_26"
  op: "RestoreV2"
  input: "save/Const"
  input: "save/RestoreV2_26/tensor_names"
  input: "save/RestoreV2_26/shape_and_slices"
  attr {
    key: "_output_shapes"
    value {
      list {
        shape {
          unknown_rank: true
        }
      }
    }
  }
  attr {
    key: "dtypes"
    value {
      list {
        type: DT_FLOAT
      }
    }
  }
}
node {
  name: "save/Assign_26"
  op: "Assign"
  input: "linear/regression_head/linear/school_ratingH/weight/part_0/Adam_1"
  input: "save/RestoreV2_26"
  attr {
    key: "T"
    value {
      type: DT_FLOAT
    }
  }
  attr {
    key: "_class"
    value {
      list {
        s: "loc:@linear/school_ratingH/weight/part_0"
      }
    }
  }
  attr {
    key: "_output_shapes"
    value {
      list {
        shape {
          dim {
            size: 1
          }
          dim {
            size: 1
          }
        }
      }
    }
  }
  attr {
    key: "use_locking"
    value {
      b: true
    }
  }
  attr {
    key: "validate_shape"
    value {
      b: true
    }
  }
}
node {
  name: "save/RestoreV2_27/tensor_names"
  op: "Const"
  attr {
    key: "_output_shapes"
    value {
      list {
        shape {
          dim {
            size: 1
          }
        }
      }
    }
  }
  attr {
    key: "dtype"
    value {
      type: DT_STRING
    }
  }
  attr {
    key: "value"
    value {
      tensor {
        dtype: DT_STRING
        tensor_shape {
          dim {
            size: 1
          }
        }
        string_val: "linear/school_ratingM/weight"
      }
    }
  }
}
node {
  name: "save/RestoreV2_27/shape_and_slices"
  op: "Const"
  attr {
    key: "_output_shapes"
    value {
      list {
        shape {
          dim {
            size: 1
          }
        }
      }
    }
  }
  attr {
    key: "dtype"
    value {
      type: DT_STRING
    }
  }
  attr {
    key: "value"
    value {
      tensor {
        dtype: DT_STRING
        tensor_shape {
          dim {
            size: 1
          }
        }
        string_val: "1 1 0,1:0,1"
      }
    }
  }
}
node {
  name: "save/RestoreV2_27"
  op: "RestoreV2"
  input: "save/Const"
  input: "save/RestoreV2_27/tensor_names"
  input: "save/RestoreV2_27/shape_and_slices"
  attr {
    key: "_output_shapes"
    value {
      list {
        shape {
          unknown_rank: true
        }
      }
    }
  }
  attr {
    key: "dtypes"
    value {
      list {
        type: DT_FLOAT
      }
    }
  }
}
node {
  name: "save/Assign_27"
  op: "Assign"
  input: "linear/school_ratingM/weight/part_0"
  input: "save/RestoreV2_27"
  attr {
    key: "T"
    value {
      type: DT_FLOAT
    }
  }
  attr {
    key: "_class"
    value {
      list {
        s: "loc:@linear/school_ratingM/weight/part_0"
      }
    }
  }
  attr {
    key: "_output_shapes"
    value {
      list {
        shape {
          dim {
            size: 1
          }
          dim {
            size: 1
          }
        }
      }
    }
  }
  attr {
    key: "use_locking"
    value {
      b: true
    }
  }
  attr {
    key: "validate_shape"
    value {
      b: true
    }
  }
}
node {
  name: "save/RestoreV2_28/tensor_names"
  op: "Const"
  attr {
    key: "_output_shapes"
    value {
      list {
        shape {
          dim {
            size: 1
          }
        }
      }
    }
  }
  attr {
    key: "dtype"
    value {
      type: DT_STRING
    }
  }
  attr {
    key: "value"
    value {
      tensor {
        dtype: DT_STRING
        tensor_shape {
          dim {
            size: 1
          }
        }
        string_val: "linear/school_ratingM/weight/_ratingM/weight/part_0/Adam"
      }
    }
  }
}
node {
  name: "save/RestoreV2_28/shape_and_slices"
  op: "Const"
  attr {
    key: "_output_shapes"
    value {
      list {
        shape {
          dim {
            size: 1
          }
        }
      }
    }
  }
  attr {
    key: "dtype"
    value {
      type: DT_STRING
    }
  }
  attr {
    key: "value"
    value {
      tensor {
        dtype: DT_STRING
        tensor_shape {
          dim {
            size: 1
          }
        }
        string_val: "1 1 0,1:0,1"
      }
    }
  }
}
node {
  name: "save/RestoreV2_28"
  op: "RestoreV2"
  input: "save/Const"
  input: "save/RestoreV2_28/tensor_names"
  input: "save/RestoreV2_28/shape_and_slices"
  attr {
    key: "_output_shapes"
    value {
      list {
        shape {
          unknown_rank: true
        }
      }
    }
  }
  attr {
    key: "dtypes"
    value {
      list {
        type: DT_FLOAT
      }
    }
  }
}
node {
  name: "save/Assign_28"
  op: "Assign"
  input: "linear/regression_head/linear/school_ratingM/weight/part_0/Adam"
  input: "save/RestoreV2_28"
  attr {
    key: "T"
    value {
      type: DT_FLOAT
    }
  }
  attr {
    key: "_class"
    value {
      list {
        s: "loc:@linear/school_ratingM/weight/part_0"
      }
    }
  }
  attr {
    key: "_output_shapes"
    value {
      list {
        shape {
          dim {
            size: 1
          }
          dim {
            size: 1
          }
        }
      }
    }
  }
  attr {
    key: "use_locking"
    value {
      b: true
    }
  }
  attr {
    key: "validate_shape"
    value {
      b: true
    }
  }
}
node {
  name: "save/RestoreV2_29/tensor_names"
  op: "Const"
  attr {
    key: "_output_shapes"
    value {
      list {
        shape {
          dim {
            size: 1
          }
        }
      }
    }
  }
  attr {
    key: "dtype"
    value {
      type: DT_STRING
    }
  }
  attr {
    key: "value"
    value {
      tensor {
        dtype: DT_STRING
        tensor_shape {
          dim {
            size: 1
          }
        }
        string_val: "linear/school_ratingM/weight/_ratingM/weight/part_0/Adam_1"
      }
    }
  }
}
node {
  name: "save/RestoreV2_29/shape_and_slices"
  op: "Const"
  attr {
    key: "_output_shapes"
    value {
      list {
        shape {
          dim {
            size: 1
          }
        }
      }
    }
  }
  attr {
    key: "dtype"
    value {
      type: DT_STRING
    }
  }
  attr {
    key: "value"
    value {
      tensor {
        dtype: DT_STRING
        tensor_shape {
          dim {
            size: 1
          }
        }
        string_val: "1 1 0,1:0,1"
      }
    }
  }
}
node {
  name: "save/RestoreV2_29"
  op: "RestoreV2"
  input: "save/Const"
  input: "save/RestoreV2_29/tensor_names"
  input: "save/RestoreV2_29/shape_and_slices"
  attr {
    key: "_output_shapes"
    value {
      list {
        shape {
          unknown_rank: true
        }
      }
    }
  }
  attr {
    key: "dtypes"
    value {
      list {
        type: DT_FLOAT
      }
    }
  }
}
node {
  name: "save/Assign_29"
  op: "Assign"
  input: "linear/regression_head/linear/school_ratingM/weight/part_0/Adam_1"
  input: "save/RestoreV2_29"
  attr {
    key: "T"
    value {
      type: DT_FLOAT
    }
  }
  attr {
    key: "_class"
    value {
      list {
        s: "loc:@linear/school_ratingM/weight/part_0"
      }
    }
  }
  attr {
    key: "_output_shapes"
    value {
      list {
        shape {
          dim {
            size: 1
          }
          dim {
            size: 1
          }
        }
      }
    }
  }
  attr {
    key: "use_locking"
    value {
      b: true
    }
  }
  attr {
    key: "validate_shape"
    value {
      b: true
    }
  }
}
node {
  name: "save/RestoreV2_30/tensor_names"
  op: "Const"
  attr {
    key: "_output_shapes"
    value {
      list {
        shape {
          dim {
            size: 1
          }
        }
      }
    }
  }
  attr {
    key: "dtype"
    value {
      type: DT_STRING
    }
  }
  attr {
    key: "value"
    value {
      tensor {
        dtype: DT_STRING
        tensor_shape {
          dim {
            size: 1
          }
        }
        string_val: "linear/size_bucketized/weights"
      }
    }
  }
}
node {
  name: "save/RestoreV2_30/shape_and_slices"
  op: "Const"
  attr {
    key: "_output_shapes"
    value {
      list {
        shape {
          dim {
            size: 1
          }
        }
      }
    }
  }
  attr {
    key: "dtype"
    value {
      type: DT_STRING
    }
  }
  attr {
    key: "value"
    value {
      tensor {
        dtype: DT_STRING
        tensor_shape {
          dim {
            size: 1
          }
        }
        string_val: "31 1 0,31:0,1"
      }
    }
  }
}
node {
  name: "save/RestoreV2_30"
  op: "RestoreV2"
  input: "save/Const"
  input: "save/RestoreV2_30/tensor_names"
  input: "save/RestoreV2_30/shape_and_slices"
  attr {
    key: "_output_shapes"
    value {
      list {
        shape {
          unknown_rank: true
        }
      }
    }
  }
  attr {
    key: "dtypes"
    value {
      list {
        type: DT_FLOAT
      }
    }
  }
}
node {
  name: "save/Assign_30"
  op: "Assign"
  input: "linear/size_bucketized/weights/part_0"
  input: "save/RestoreV2_30"
  attr {
    key: "T"
    value {
      type: DT_FLOAT
    }
  }
  attr {
    key: "_class"
    value {
      list {
        s: "loc:@linear/size_bucketized/weights/part_0"
      }
    }
  }
  attr {
    key: "_output_shapes"
    value {
      list {
        shape {
          dim {
            size: 31
          }
          dim {
            size: 1
          }
        }
      }
    }
  }
  attr {
    key: "use_locking"
    value {
      b: true
    }
  }
  attr {
    key: "validate_shape"
    value {
      b: true
    }
  }
}
node {
  name: "save/RestoreV2_31/tensor_names"
  op: "Const"
  attr {
    key: "_output_shapes"
    value {
      list {
        shape {
          dim {
            size: 1
          }
        }
      }
    }
  }
  attr {
    key: "dtype"
    value {
      type: DT_STRING
    }
  }
  attr {
    key: "value"
    value {
      tensor {
        dtype: DT_STRING
        tensor_shape {
          dim {
            size: 1
          }
        }
        string_val: "linear/size_bucketized/weights/ketized/weights/part_0/Adam"
      }
    }
  }
}
node {
  name: "save/RestoreV2_31/shape_and_slices"
  op: "Const"
  attr {
    key: "_output_shapes"
    value {
      list {
        shape {
          dim {
            size: 1
          }
        }
      }
    }
  }
  attr {
    key: "dtype"
    value {
      type: DT_STRING
    }
  }
  attr {
    key: "value"
    value {
      tensor {
        dtype: DT_STRING
        tensor_shape {
          dim {
            size: 1
          }
        }
        string_val: "31 1 0,31:0,1"
      }
    }
  }
}
node {
  name: "save/RestoreV2_31"
  op: "RestoreV2"
  input: "save/Const"
  input: "save/RestoreV2_31/tensor_names"
  input: "save/RestoreV2_31/shape_and_slices"
  attr {
    key: "_output_shapes"
    value {
      list {
        shape {
          unknown_rank: true
        }
      }
    }
  }
  attr {
    key: "dtypes"
    value {
      list {
        type: DT_FLOAT
      }
    }
  }
}
node {
  name: "save/Assign_31"
  op: "Assign"
  input: "linear/regression_head/linear/size_bucketized/weights/part_0/Adam"
  input: "save/RestoreV2_31"
  attr {
    key: "T"
    value {
      type: DT_FLOAT
    }
  }
  attr {
    key: "_class"
    value {
      list {
        s: "loc:@linear/size_bucketized/weights/part_0"
      }
    }
  }
  attr {
    key: "_output_shapes"
    value {
      list {
        shape {
          dim {
            size: 31
          }
          dim {
            size: 1
          }
        }
      }
    }
  }
  attr {
    key: "use_locking"
    value {
      b: true
    }
  }
  attr {
    key: "validate_shape"
    value {
      b: true
    }
  }
}
node {
  name: "save/RestoreV2_32/tensor_names"
  op: "Const"
  attr {
    key: "_output_shapes"
    value {
      list {
        shape {
          dim {
            size: 1
          }
        }
      }
    }
  }
  attr {
    key: "dtype"
    value {
      type: DT_STRING
    }
  }
  attr {
    key: "value"
    value {
      tensor {
        dtype: DT_STRING
        tensor_shape {
          dim {
            size: 1
          }
        }
        string_val: "linear/size_bucketized/weights/ketized/weights/part_0/Adam_1"
      }
    }
  }
}
node {
  name: "save/RestoreV2_32/shape_and_slices"
  op: "Const"
  attr {
    key: "_output_shapes"
    value {
      list {
        shape {
          dim {
            size: 1
          }
        }
      }
    }
  }
  attr {
    key: "dtype"
    value {
      type: DT_STRING
    }
  }
  attr {
    key: "value"
    value {
      tensor {
        dtype: DT_STRING
        tensor_shape {
          dim {
            size: 1
          }
        }
        string_val: "31 1 0,31:0,1"
      }
    }
  }
}
node {
  name: "save/RestoreV2_32"
  op: "RestoreV2"
  input: "save/Const"
  input: "save/RestoreV2_32/tensor_names"
  input: "save/RestoreV2_32/shape_and_slices"
  attr {
    key: "_output_shapes"
    value {
      list {
        shape {
          unknown_rank: true
        }
      }
    }
  }
  attr {
    key: "dtypes"
    value {
      list {
        type: DT_FLOAT
      }
    }
  }
}
node {
  name: "save/Assign_32"
  op: "Assign"
  input: "linear/regression_head/linear/size_bucketized/weights/part_0/Adam_1"
  input: "save/RestoreV2_32"
  attr {
    key: "T"
    value {
      type: DT_FLOAT
    }
  }
  attr {
    key: "_class"
    value {
      list {
        s: "loc:@linear/size_bucketized/weights/part_0"
      }
    }
  }
  attr {
    key: "_output_shapes"
    value {
      list {
        shape {
          dim {
            size: 31
          }
          dim {
            size: 1
          }
        }
      }
    }
  }
  attr {
    key: "use_locking"
    value {
      b: true
    }
  }
  attr {
    key: "validate_shape"
    value {
      b: true
    }
  }
}
node {
  name: "save/RestoreV2_33/tensor_names"
  op: "Const"
  attr {
    key: "_output_shapes"
    value {
      list {
        shape {
          dim {
            size: 1
          }
        }
      }
    }
  }
  attr {
    key: "dtype"
    value {
      type: DT_STRING
    }
  }
  attr {
    key: "value"
    value {
      tensor {
        dtype: DT_STRING
        tensor_shape {
          dim {
            size: 1
          }
        }
        string_val: "linear/zestimate/weight"
      }
    }
  }
}
node {
  name: "save/RestoreV2_33/shape_and_slices"
  op: "Const"
  attr {
    key: "_output_shapes"
    value {
      list {
        shape {
          dim {
            size: 1
          }
        }
      }
    }
  }
  attr {
    key: "dtype"
    value {
      type: DT_STRING
    }
  }
  attr {
    key: "value"
    value {
      tensor {
        dtype: DT_STRING
        tensor_shape {
          dim {
            size: 1
          }
        }
        string_val: "1 1 0,1:0,1"
      }
    }
  }
}
node {
  name: "save/RestoreV2_33"
  op: "RestoreV2"
  input: "save/Const"
  input: "save/RestoreV2_33/tensor_names"
  input: "save/RestoreV2_33/shape_and_slices"
  attr {
    key: "_output_shapes"
    value {
      list {
        shape {
          unknown_rank: true
        }
      }
    }
  }
  attr {
    key: "dtypes"
    value {
      list {
        type: DT_FLOAT
      }
    }
  }
}
node {
  name: "save/Assign_33"
  op: "Assign"
  input: "linear/zestimate/weight/part_0"
  input: "save/RestoreV2_33"
  attr {
    key: "T"
    value {
      type: DT_FLOAT
    }
  }
  attr {
    key: "_class"
    value {
      list {
        s: "loc:@linear/zestimate/weight/part_0"
      }
    }
  }
  attr {
    key: "_output_shapes"
    value {
      list {
        shape {
          dim {
            size: 1
          }
          dim {
            size: 1
          }
        }
      }
    }
  }
  attr {
    key: "use_locking"
    value {
      b: true
    }
  }
  attr {
    key: "validate_shape"
    value {
      b: true
    }
  }
}
node {
  name: "save/RestoreV2_34/tensor_names"
  op: "Const"
  attr {
    key: "_output_shapes"
    value {
      list {
        shape {
          dim {
            size: 1
          }
        }
      }
    }
  }
  attr {
    key: "dtype"
    value {
      type: DT_STRING
    }
  }
  attr {
    key: "value"
    value {
      tensor {
        dtype: DT_STRING
        tensor_shape {
          dim {
            size: 1
          }
        }
        string_val: "linear/zestimate/weight/estimate/weight/part_0/Adam"
      }
    }
  }
}
node {
  name: "save/RestoreV2_34/shape_and_slices"
  op: "Const"
  attr {
    key: "_output_shapes"
    value {
      list {
        shape {
          dim {
            size: 1
          }
        }
      }
    }
  }
  attr {
    key: "dtype"
    value {
      type: DT_STRING
    }
  }
  attr {
    key: "value"
    value {
      tensor {
        dtype: DT_STRING
        tensor_shape {
          dim {
            size: 1
          }
        }
        string_val: "1 1 0,1:0,1"
      }
    }
  }
}
node {
  name: "save/RestoreV2_34"
  op: "RestoreV2"
  input: "save/Const"
  input: "save/RestoreV2_34/tensor_names"
  input: "save/RestoreV2_34/shape_and_slices"
  attr {
    key: "_output_shapes"
    value {
      list {
        shape {
          unknown_rank: true
        }
      }
    }
  }
  attr {
    key: "dtypes"
    value {
      list {
        type: DT_FLOAT
      }
    }
  }
}
node {
  name: "save/Assign_34"
  op: "Assign"
  input: "linear/regression_head/linear/zestimate/weight/part_0/Adam"
  input: "save/RestoreV2_34"
  attr {
    key: "T"
    value {
      type: DT_FLOAT
    }
  }
  attr {
    key: "_class"
    value {
      list {
        s: "loc:@linear/zestimate/weight/part_0"
      }
    }
  }
  attr {
    key: "_output_shapes"
    value {
      list {
        shape {
          dim {
            size: 1
          }
          dim {
            size: 1
          }
        }
      }
    }
  }
  attr {
    key: "use_locking"
    value {
      b: true
    }
  }
  attr {
    key: "validate_shape"
    value {
      b: true
    }
  }
}
node {
  name: "save/RestoreV2_35/tensor_names"
  op: "Const"
  attr {
    key: "_output_shapes"
    value {
      list {
        shape {
          dim {
            size: 1
          }
        }
      }
    }
  }
  attr {
    key: "dtype"
    value {
      type: DT_STRING
    }
  }
  attr {
    key: "value"
    value {
      tensor {
        dtype: DT_STRING
        tensor_shape {
          dim {
            size: 1
          }
        }
        string_val: "linear/zestimate/weight/estimate/weight/part_0/Adam_1"
      }
    }
  }
}
node {
  name: "save/RestoreV2_35/shape_and_slices"
  op: "Const"
  attr {
    key: "_output_shapes"
    value {
      list {
        shape {
          dim {
            size: 1
          }
        }
      }
    }
  }
  attr {
    key: "dtype"
    value {
      type: DT_STRING
    }
  }
  attr {
    key: "value"
    value {
      tensor {
        dtype: DT_STRING
        tensor_shape {
          dim {
            size: 1
          }
        }
        string_val: "1 1 0,1:0,1"
      }
    }
  }
}
node {
  name: "save/RestoreV2_35"
  op: "RestoreV2"
  input: "save/Const"
  input: "save/RestoreV2_35/tensor_names"
  input: "save/RestoreV2_35/shape_and_slices"
  attr {
    key: "_output_shapes"
    value {
      list {
        shape {
          unknown_rank: true
        }
      }
    }
  }
  attr {
    key: "dtypes"
    value {
      list {
        type: DT_FLOAT
      }
    }
  }
}
node {
  name: "save/Assign_35"
  op: "Assign"
  input: "linear/regression_head/linear/zestimate/weight/part_0/Adam_1"
  input: "save/RestoreV2_35"
  attr {
    key: "T"
    value {
      type: DT_FLOAT
    }
  }
  attr {
    key: "_class"
    value {
      list {
        s: "loc:@linear/zestimate/weight/part_0"
      }
    }
  }
  attr {
    key: "_output_shapes"
    value {
      list {
        shape {
          dim {
            size: 1
          }
          dim {
            size: 1
          }
        }
      }
    }
  }
  attr {
    key: "use_locking"
    value {
      b: true
    }
  }
  attr {
    key: "validate_shape"
    value {
      b: true
    }
  }
}
node {
  name: "save/restore_shard"
  op: "NoOp"
  input: "^save/Assign"
  input: "^save/Assign_1"
  input: "^save/Assign_2"
  input: "^save/Assign_3"
  input: "^save/Assign_4"
  input: "^save/Assign_5"
  input: "^save/Assign_6"
  input: "^save/Assign_7"
  input: "^save/Assign_8"
  input: "^save/Assign_9"
  input: "^save/Assign_10"
  input: "^save/Assign_11"
  input: "^save/Assign_12"
  input: "^save/Assign_13"
  input: "^save/Assign_14"
  input: "^save/Assign_15"
  input: "^save/Assign_16"
  input: "^save/Assign_17"
  input: "^save/Assign_18"
  input: "^save/Assign_19"
  input: "^save/Assign_20"
  input: "^save/Assign_21"
  input: "^save/Assign_22"
  input: "^save/Assign_23"
  input: "^save/Assign_24"
  input: "^save/Assign_25"
  input: "^save/Assign_26"
  input: "^save/Assign_27"
  input: "^save/Assign_28"
  input: "^save/Assign_29"
  input: "^save/Assign_30"
  input: "^save/Assign_31"
  input: "^save/Assign_32"
  input: "^save/Assign_33"
  input: "^save/Assign_34"
  input: "^save/Assign_35"
}
node {
  name: "save/restore_all"
  op: "NoOp"
  input: "^save/restore_shard"
}
versions {
  producer: 21
}
