node {
  name: "global_step/Initializer/Const"
  op: "Const"
  attr {
    key: "_class"
    value {
      list {
        s: "loc:@global_step"
      }
    }
  }
  attr {
    key: "_output_shapes"
    value {
      list {
        shape {
        }
      }
    }
  }
  attr {
    key: "dtype"
    value {
      type: DT_INT64
    }
  }
  attr {
    key: "value"
    value {
      tensor {
        dtype: DT_INT64
        tensor_shape {
        }
        int64_val: 0
      }
    }
  }
}
node {
  name: "global_step"
  op: "VariableV2"
  attr {
    key: "_class"
    value {
      list {
        s: "loc:@global_step"
      }
    }
  }
  attr {
    key: "_output_shapes"
    value {
      list {
        shape {
        }
      }
    }
  }
  attr {
    key: "container"
    value {
      s: ""
    }
  }
  attr {
    key: "dtype"
    value {
      type: DT_INT64
    }
  }
  attr {
    key: "shape"
    value {
      shape {
      }
    }
  }
  attr {
    key: "shared_name"
    value {
      s: ""
    }
  }
}
node {
  name: "global_step/Assign"
  op: "Assign"
  input: "global_step"
  input: "global_step/Initializer/Const"
  attr {
    key: "T"
    value {
      type: DT_INT64
    }
  }
  attr {
    key: "_class"
    value {
      list {
        s: "loc:@global_step"
      }
    }
  }
  attr {
    key: "_output_shapes"
    value {
      list {
        shape {
        }
      }
    }
  }
  attr {
    key: "use_locking"
    value {
      b: true
    }
  }
  attr {
    key: "validate_shape"
    value {
      b: true
    }
  }
}
node {
  name: "global_step/read"
  op: "Identity"
  input: "global_step"
  attr {
    key: "T"
    value {
      type: DT_INT64
    }
  }
  attr {
    key: "_class"
    value {
      list {
        s: "loc:@global_step"
      }
    }
  }
  attr {
    key: "_output_shapes"
    value {
      list {
        shape {
        }
      }
    }
  }
}
node {
  name: "Const"
  op: "Const"
  attr {
    key: "_output_shapes"
    value {
      list {
        shape {
          dim {
            size: 2508
          }
        }
      }
    }
  }
  attr {
    key: "dtype"
    value {
      type: DT_FLOAT
    }
  }
  attr {
    key: "value"
    value {
      tensor {
        dtype: DT_FLOAT
        tensor_shape {
          dim {
            size: 2508
          }
        }
        tensor_content: "…"
      }
    }
  }
}
node {
  name: "Const_1"
  op: "Const"
  attr {
    key: "_output_shapes"
    value {
      list {
        shape {
          dim {
            size: 2508
          }
        }
      }
    }
  }
  attr {
    key: "dtype"
    value {
      type: DT_FLOAT
    }
  }
  attr {
    key: "value"
    value {
      tensor {
        dtype: DT_FLOAT
        tensor_shape {
          dim {
            size: 2508
          }
        }
        tensor_content: "…"
      }
    }
  }
}
node {
  name: "Const_2"
  op: "Const"
  attr {
    key: "_output_shapes"
    value {
      list {
        shape {
          dim {
            size: 2508
          }
        }
      }
    }
  }
  attr {
    key: "dtype"
    value {
      type: DT_FLOAT
    }
  }
  attr {
    key: "value"
    value {
      tensor {
        dtype: DT_FLOAT
        tensor_shape {
          dim {
            size: 2508
          }
        }
        tensor_content: "…"
      }
    }
  }
}
node {
  name: "Const_3"
  op: "Const"
  attr {
    key: "_output_shapes"
    value {
      list {
        shape {
          dim {
            size: 2508
          }
        }
      }
    }
  }
  attr {
    key: "dtype"
    value {
      type: DT_FLOAT
    }
  }
  attr {
    key: "value"
    value {
      tensor {
        dtype: DT_FLOAT
        tensor_shape {
          dim {
            size: 2508
          }
        }
        tensor_content: "…"
      }
    }
  }
}
node {
  name: "Const_4"
  op: "Const"
  attr {
    key: "_output_shapes"
    value {
      list {
        shape {
          dim {
            size: 2508
          }
        }
      }
    }
  }
  attr {
    key: "dtype"
    value {
      type: DT_FLOAT
    }
  }
  attr {
    key: "value"
    value {
      tensor {
        dtype: DT_FLOAT
        tensor_shape {
          dim {
            size: 2508
          }
        }
        tensor_content: "…"
      }
    }
  }
}
node {
  name: "Const_5"
  op: "Const"
  attr {
    key: "_output_shapes"
    value {
      list {
        shape {
          dim {
            size: 2508
          }
        }
      }
    }
  }
  attr {
    key: "dtype"
    value {
      type: DT_FLOAT
    }
  }
  attr {
    key: "value"
    value {
      tensor {
        dtype: DT_FLOAT
        tensor_shape {
          dim {
            size: 2508
          }
        }
        tensor_content: "…"
      }
    }
  }
}
node {
  name: "Const_6"
  op: "Const"
  attr {
    key: "_output_shapes"
    value {
      list {
        shape {
          dim {
            size: 2508
          }
        }
      }
    }
  }
  attr {
    key: "dtype"
    value {
      type: DT_FLOAT
    }
  }
  attr {
    key: "value"
    value {
      tensor {
        dtype: DT_FLOAT
        tensor_shape {
          dim {
            size: 2508
          }
        }
        tensor_content: "…"
      }
    }
  }
}
node {
  name: "Const_7"
  op: "Const"
  attr {
    key: "_output_shapes"
    value {
      list {
        shape {
          dim {
            size: 2508
          }
        }
      }
    }
  }
  attr {
    key: "dtype"
    value {
      type: DT_FLOAT
    }
  }
  attr {
    key: "value"
    value {
      tensor {
        dtype: DT_FLOAT
        tensor_shape {
          dim {
            size: 2508
          }
        }
        tensor_content: "…"
      }
    }
  }
}
node {
  name: "SparseTensor/indices"
  op: "Const"
  attr {
    key: "_output_shapes"
    value {
      list {
        shape {
          dim {
            size: 2508
          }
          dim {
            size: 2
          }
        }
      }
    }
  }
  attr {
    key: "dtype"
    value {
      type: DT_INT64
    }
  }
  attr {
    key: "value"
    value {
      tensor {
        dtype: DT_INT64
        tensor_shape {
          dim {
            size: 2508
          }
          dim {
            size: 2
          }
        }
        tensor_content: "…"
      }
    }
  }
}
node {
  name: "SparseTensor/values"
  op: "Const"
  attr {
    key: "_output_shapes"
    value {
      list {
        shape {
          dim {
            size: 2508
          }
        }
      }
    }
  }
  attr {
    key: "dtype"
    value {
      type: DT_STRING
    }
  }
  attr {
    key: "value"
    value {
      tensor {
        dtype: DT_STRING
        tensor_shape {
          dim {
            size: 2508
          }
        }
        string_val: "9q9r18"
        string_val: "9qbdps"
        string_val: "9q97uq"
        string_val: "9qc7q7"
        string_val: "9q9j5h"
        string_val: "9q9pqn"
        string_val: "9qbdwb"
        string_val: "9q8zgn"
        string_val: "9qbdz1"
        string_val: "9q5bcd"
        string_val: "9qc0cz"
        string_val: "9q9xzb"
        string_val: "9q9pq7"
        string_val: "9qc8p9"
        string_val: "9q9j5t"
        string_val: "9qc8zu"
        string_val: "9q8zgm"
        string_val: "9q9k6k"
        string_val: "9q8ymx"
        string_val: "9q9p91"
        string_val: "9q8yvb"
        string_val: "9q97gs"
        string_val: "9qc8pb"
        string_val: "9q9k61"
        string_val: "9qc22s"
        string_val: "9qbs8m"
        string_val: "9q9rwr"
        string_val: "9q8yy7"
        string_val: "dp4d60"
        string_val: "9qbv9s"
        string_val: "9q97gv"
        string_val: "9qc8n9"
        string_val: "9q97f0"
        string_val: "9q8yy7"
        string_val: "9q8zj9"
        string_val: "9q9yn5"
        string_val: "9q9jrr"
        string_val: "9q9k0d"
        string_val: "9q962d"
        string_val: "9q9xzp"
        string_val: "9q9hxn"
        string_val: "9q9pzh"
        string_val: "9q99t4"
        string_val: "9qc00y"
        string_val: "9q99tf"
        string_val: "9qc8q9"
        string_val: "9q97b6"
        string_val: "9qc8qb"
        string_val: "9q8ywv"
        string_val: "9q9x8v"
        string_val: "9qc148"
        string_val: "9q9ke1"
        string_val: "9q9p1y"
        string_val: "dqctfd"
        string_val: "9qbdxv"
        string_val: "9q9d8e"
        string_val: "9q9kdy"
        string_val: "9q3vgx"
        string_val: "9q9r45"
        string_val: "9q9nwb"
        string_val: "9qbdzs"
        string_val: "9q9rbf"
        string_val: "9q9p5h"
        string_val: "9qbesj"
        string_val: "9qc00z"
        string_val: "9q9j58"
        string_val: "9q9ptz"
        string_val: "9q9xzp"
        string_val: "9q9ngd"
        string_val: "9q97dz"
        string_val: "9q9wu8"
        string_val: "9q9kfj"
        string_val: "9q9rck"
        string_val: "9qc70m"
        string_val: "9q9z1f"
        string_val: "dqctem"
        string_val: "9q9p4v"
        string_val: "9q8zjb"
        string_val: "9r4bgp"
        string_val: "9qctpm"
        string_val: "9q9p4h"
        string_val: "9q97rb"
        string_val: "drdv4t"
        string_val: "9q9key"
        string_val: "9q9p17"
        string_val: "9q9htx"
        string_val: "9q94yj"
        string_val: "9q9x8e"
        string_val: "9qc8nk"
        string_val: "9q8yy6"
        string_val: "9q9qcn"
        string_val: "9q9p1x"
        string_val: "9q8yts"
        string_val: "9q9r04"
        string_val: "9qbf0m"
        string_val: "9q9qh5"
        string_val: "9qc1ch"
        string_val: "9q9zbx"
        string_val: "9q9k4d"
        string_val: "9q9qcs"
        string_val: "9qcbbh"
        string_val: "9q9wu2"
        string_val: "dqcter"
        string_val: "9q9x8g"
        string_val: "9qcgc4"
        string_val: "9qc8q9"
        string_val: "9q97cj"
        string_val: "9q8zz3"
        string_val: "9qc001"
        string_val: "9q8yyp"
        string_val: "9q9z05"
        string_val: "9qc8n3"
        string_val: "9q9qf2"
        string_val: "9q9p9d"
        string_val: "9q97bp"
        string_val: "9q9qq6"
        string_val: "9q8vxn"
        string_val: "9qc3q2"
        string_val: "9q9nn9"
        string_val: "9qcb2m"
        string_val: "9qc8pu"
        string_val: "9qcgbg"
        string_val: "9q9ndm"
        string_val: "9q9rur"
        string_val: "9qc2hd"
        string_val: "9q94rc"
        string_val: "9q9p1z"
        string_val: "9q97pr"
        string_val: "9q9k4k"
        string_val: "9q9jy2"
        string_val: "9q9rbv"
        string_val: "9qc24n"
        string_val: "9q9k3h"
        string_val: "9q9nsq"
        string_val: "9q9p95"
        string_val: "9q8vuf"
        string_val: "9q9zbn"
        string_val: "9qc222"
        string_val: "9q9yn5"
        string_val: "9q9xp8"
        string_val: "9q9ypq"
        string_val: "9q9ns8"
        string_val: "9q9pqn"
        string_val: "9q9pzh"
        string_val: "9qbdzd"
        string_val: "9qbdyd"
        string_val: "9qbv96"
        string_val: "9q8zzm"
        string_val: "9qcv29"
        string_val: "9q9rtu"
        string_val: "9q9ryy"
        string_val: "9q8vy9"
        string_val: "9q9z0g"
        string_val: "9q8yyy"
        string_val: "9q97un"
        string_val: "9qcb25"
        string_val: "9q9p4k"
        string_val: "9qbcue"
        string_val: "9q9p18"
        string_val: "9qcbb5"
        string_val: "9q9qbv"
        string_val: "9q9wsd"
        string_val: "9qc0pj"
        string_val: "9q9hvf"
        string_val: "9qc0ew"
        string_val: "9qbhtj"
        string_val: "9q8zn0"
        string_val: "9qc8nk"
        string_val: "9qc24x"
        string_val: "9q9ng6"
        string_val: "9q9p98"
        string_val: "9qbdzd"
        string_val: "9qc0fm"
        string_val: "9q9yyw"
        string_val: "9q5bc9"
        string_val: "9q9k0g"
        string_val: "9rcf89"
        string_val: "9q9xze"
        string_val: "9q8zxv"
        string_val: "9q9k46"
        string_val: "9q97pu"
        string_val: "9q9629"
        string_val: "9qcemj"
        string_val: "9q8yyx"
        string_val: "9q8yuc"
        string_val: "9q8yyv"
        string_val: "9q8yyx"
        string_val: "9q9nnb"
        string_val: "9q9m8t"
        string_val: "9q9k73"
        string_val: "9q9p8z"
        string_val: "9q8yyj"
        string_val: "9q9j8m"
        string_val: "9q8vxz"
        string_val: "9qc8pw"
        string_val: "9q8zt1"
        string_val: "9q94r9"
        string_val: "9q9664"
        string_val: "9q8ytm"
        string_val: "9qc7m8"
        string_val: "9qdnc8"
        string_val: "9qc06z"
        string_val: "9q97fx"
        string_val: "dqctfd"
        string_val: "9q9k0n"
        string_val: "9q9hgn"
        string_val: "9q9hw8"
        string_val: "9q9qcs"
        string_val: "9q9z44"
        string_val: "9q9ng8"
        string_val: "9q9pk3"
        string_val: "9qdn26"
        string_val: "9qc8qc"
        string_val: "9q9hqp"
        string_val: "9q9z0u"
        string_val: "9q9p37"
        string_val: "9qcb24"
        string_val: "9q9jzp"
        string_val: "9q8yvg"
        string_val: "9qc7q6"
        string_val: "9qc8ns"
        string_val: "9rcfb1"
        string_val: "9qc0nn"
        string_val: "9q9qms"
        string_val: "9qc149"
        string_val: "9qbdxx"
        string_val: "9q9nmb"
        string_val: "9qbbpu"
        string_val: "9qbfc4"
        string_val: "9qbdwc"
        string_val: "9q9ngc"
        string_val: "9q9k1g"
        string_val: "9q9pzt"
        string_val: "9q97fm"
        string_val: "9q9p16"
        string_val: "9qc24s"
        string_val: "9q9pmm"
        string_val: "9q9wu3"
        string_val: "9q9hrx"
        string_val: "9q9qf6"
        string_val: "9q9pyd"
        string_val: "9qc1xc"
        string_val: "9qc62k"
        string_val: "9q9yxm"
        string_val: "9qc0j2"
        string_val: "9qc8nt"
        string_val: "9qbc9c"
        string_val: "9q9nm8"
        string_val: "9q9wsc"
        string_val: "9qcu06"
        string_val: "9qcezs"
        string_val: "9q9d3k"
        string_val: "9qbdps"
        string_val: "9q97et"
        string_val: "9q9yg8"
        string_val: "9q96ht"
        string_val: "9q9p54"
        string_val: "9q9nmh"
        string_val: "9qc8qd"
        string_val: "9q9hwv"
        string_val: "9q9nez"
        string_val: "9q8yyp"
        string_val: "9q8ywu"
        string_val: "9q5bc3"
        string_val: "9qcgct"
        string_val: "9q6mt5"
        string_val: "9q9pmw"
        string_val: "9qbfds"
        string_val: "9q9qhy"
        string_val: "9q9jhj"
        string_val: "9q9pqn"
        string_val: "9q9kk6"
        string_val: "9q9p4j"
        string_val: "9qc8r9"
        string_val: "9q8zzc"
        string_val: "9q9pbh"
        string_val: "9q97rd"
        string_val: "9q9kfg"
        string_val: "9q9yxt"
        string_val: "9qbeuq"
        string_val: "9qc8nu"
        string_val: "9q94xp"
        string_val: "9qc00y"
        string_val: "9qbdpe"
        string_val: "9qc11c"
        string_val: "9qdngm"
        string_val: "9q8zze"
        string_val: "9q8ytg"
        string_val: "9r4bfw"
        string_val: "9qbfb3"
        string_val: "9qc0ph"
        string_val: "9q8zem"
        string_val: "9q9yn1"
        string_val: "9q9prw"
        string_val: "9q8yvc"
        string_val: "9qcb2s"
        string_val: "9q8yyu"
        string_val: "9q9nfx"
        string_val: "9q8vuz"
        string_val: "9q9ngd"
        string_val: "9q8zgn"
        string_val: "9q9hs3"
        string_val: "9q9ryg"
        string_val: "9q9k52"
        string_val: "9q9p6u"
        string_val: "9q9nge"
        string_val: "9qbs8w"
        string_val: "dqctbf"
        string_val: "9q8yu9"
        string_val: "9qc1hg"
        string_val: "9q9yn6"
        string_val: "9qbcb9"
        string_val: "9q9p65"
        string_val: "9r4bgp"
        string_val: "9q9jze"
        string_val: "9q9k9p"
        string_val: "9qbdby"
        string_val: "9q9jh6"
        string_val: "9q9k1w"
        string_val: "9q9j99"
        string_val: "9qc3np"
        string_val: "9q8yvf"
        string_val: "9qcbbk"
        string_val: "9q9nmb"
        string_val: "9q9r0z"
        string_val: "9q8zxj"
        string_val: "9qc7r1"
        string_val: "9qc9p3"
        string_val: "9q97g9"
        string_val: "9qbdbe"
        string_val: "9q9r0p"
        string_val: "9qdnc8"
        string_val: "9q8zgb"
        string_val: "9q97fr"
        string_val: "9q9qbx"
        string_val: "9q8yyz"
        string_val: "9q9k6h"
        string_val: "9q8zzz"
        string_val: "9qc11g"
        string_val: "9q9p71"
        string_val: "9q9ngw"
        string_val: "9q9jb8"
        string_val: "9q9k66"
        string_val: "9qbdz4"
        string_val: "9qbc9c"
        string_val: "9qc2hq"
        string_val: "9qc140"
        string_val: "9q99td"
        string_val: "9q9j93"
        string_val: "9qc0eb"
        string_val: "9qc0pf"
        string_val: "9q9yng"
        string_val: "9qc40d"
        string_val: "9q9z14"
        string_val: "dqctfg"
        string_val: "9q9jhq"
        string_val: "9qc3bx"
        string_val: "9q9k64"
        string_val: "9q9m98"
        string_val: "9q978x"
        string_val: "9q9rbq"
        string_val: "9q9p1w"
        string_val: "9qc614"
        string_val: "9q9pyb"
        string_val: "9q9ht4"
        string_val: "9q9pbz"
        string_val: "9q9k08"
        string_val: "9q9x8g"
        string_val: "9q9qcv"
        string_val: "9q8ysq"
        string_val: "9q8zmm"
        string_val: "9q8zu4"
        string_val: "9qc608"
        string_val: "9q9p1u"
        string_val: "9qbb4m"
        string_val: "9qbf03"
        string_val: "9q9zb9"
        string_val: "9q97fz"
        string_val: "9q8yyx"
        string_val: "dqctc1"
        string_val: "9q93uy"
        string_val: "9q8ymx"
        string_val: "9q9x8r"
        string_val: "9qc1z3"
        string_val: "9qc0p8"
        string_val: "9qbb44"
        string_val: "9qcsp9"
        string_val: "9q9p1z"
        string_val: "9q9pz6"
        string_val: "9q99mz"
        string_val: "9qc0je"
        string_val: "9qc1c0"
        string_val: "9qbf9y"
        string_val: "9q9j8r"
        string_val: "9q9p18"
        string_val: "9qc11u"
        string_val: "9q9nk3"
        string_val: "9qc3nr"
        string_val: "9qbdbs"
        string_val: "9q8zzd"
        string_val: "9qc3bh"
        string_val: "9q9k10"
        string_val: "9q9nmw"
        string_val: "9q9d9k"
        string_val: "9q9yxg"
        string_val: "9q9m8m"
        string_val: "9q8zzm"
        string_val: "9q9j9j"
        string_val: "9qc8p0"
        string_val: "9qbgj3"
        string_val: "9rcfb0"
        string_val: "9qc1xf"
        string_val: "9q9kkc"
        string_val: "9r4bft"
        string_val: "9q8yyv"
        string_val: "9q9k6n"
        string_val: "9q8yyz"
        string_val: "9qc613"
        string_val: "9q9nqp"
        string_val: "9q97pz"
        string_val: "9q97em"
        string_val: "9q9635"
        string_val: "9q8ytm"
        string_val: "9qb6zu"
        string_val: "9q8zn2"
        string_val: "9q8yq8"
        string_val: "9q9pwz"
        string_val: "9q97ct"
        string_val: "9q9wsp"
        string_val: "9qcbb5"
        string_val: "9q99qn"
        string_val: "9qcszy"
        string_val: "9q94rr"
        string_val: "9qbdzv"
        string_val: "9q8yt4"
        string_val: "9qc8p9"
        string_val: "dqctfd"
        string_val: "9q9jy3"
        string_val: "9q8vz0"
        string_val: "9q97r7"
        string_val: "9qc2hu"
        string_val: "9q9j4r"
        string_val: "9q8yt1"
        string_val: "9q9p3e"
        string_val: "9qc1ww"
        string_val: "9q9d9k"
        string_val: "9q8yyt"
        string_val: "9q9xz7"
        string_val: "9qc1bf"
        string_val: "9q9k4j"
        string_val: "9q9pkc"
        string_val: "9qcug0"
        string_val: "9q9kdu"
        string_val: "9qbdps"
        string_val: "9q9kdu"
        string_val: "dp4d63"
        string_val: "9q8yy9"
        string_val: "9qcgbk"
        string_val: "dp4d60"
        string_val: "9qcbbp"
        string_val: "9q9hxx"
        string_val: "9q8zyb"
        string_val: "9q5b9x"
        string_val: "9q97f5"
        string_val: "9qcezt"
        string_val: "9q9wy0"
        string_val: "9q8yyw"
        string_val: "9qbesn"
        string_val: "9q9pb5"
        string_val: "9q9k43"
        string_val: "9q9k82"
        string_val: "9qc0fq"
        string_val: "9q9pxt"
        string_val: "9q9nuh"
        string_val: "9q9r4e"
        string_val: "9q9qhx"
        string_val: "9qbv97"
        string_val: "9q9jh2"
        string_val: "9q8ykv"
        string_val: "9qc8qm"
        string_val: "9q7nt6"
        string_val: "9q9r1t"
        string_val: "9q95z6"
        string_val: "9q9j98"
        string_val: "9q9q1e"
        string_val: "9q9k3e"
        string_val: "9q9nt1"
        string_val: "dqct9u"
        string_val: "9q9km0"
        string_val: "dp4d64"
        string_val: "9qc0je"
        string_val: "9q9pqn"
        string_val: "9q9hpc"
        string_val: "9q97fm"
        string_val: "9q9nm9"
        string_val: "9q94q8"
        string_val: "9qc04k"
        string_val: "dp4d2c"
        string_val: "9q962h"
        string_val: "9q9hfz"
        string_val: "9q9k6v"
        string_val: "9q9k3c"
        string_val: "9qc3q0"
        string_val: "9q8yvu"
        string_val: "9q9huy"
        string_val: "dqctfd"
        string_val: "9qc0dm"
        string_val: "9q9ngb"
        string_val: "9q9jhg"
        string_val: "9qbc3q"
        string_val: "9q9p37"
        string_val: "9q9xp9"
        string_val: "9qbdz8"
        string_val: "9q964w"
        string_val: "9qbv96"
        string_val: "9qc0fd"
        string_val: "9q9ke3"
        string_val: "9qc6eg"
        string_val: "9q9pc0"
        string_val: "9q9pxp"
        string_val: "9q9k66"
        string_val: "9qc2hu"
        string_val: "9q9k38"
        string_val: "9qbfb2"
        string_val: "9q8yyy"
        string_val: "9qbs8x"
        string_val: "9qc0hv"
        string_val: "9qc60j"
        string_val: "9q9rbf"
        string_val: "9q9ysp"
        string_val: "9qc8qd"
        string_val: "9q9k62"
        string_val: "9q5bc6"
        string_val: "9qbdxg"
        string_val: "9q95j6"
        string_val: "9q8zn1"
        string_val: "9qc3bx"
        string_val: "9qc8ns"
        string_val: "9q9qtb"
        string_val: "9q9j57"
        string_val: "9q8zgp"
        string_val: "9qc236"
        string_val: "9q9kes"
        string_val: "9qbfdm"
        string_val: "9q9r1e"
        string_val: "9q9j4v"
        string_val: "9q5b9g"
        string_val: "9q9pyb"
        string_val: "9qbdzs"
        string_val: "9q9j3j"
        string_val: "9q9m90"
        string_val: "9q962g"
        string_val: "9qcet6"
        string_val: "9q9m43"
        string_val: "9q9yey"
        string_val: "9q9yju"
        string_val: "9q8zn0"
        string_val: "9qbgmx"
        string_val: "dp4d19"
        string_val: "9q8vyf"
        string_val: "9q9x83"
        string_val: "dp4d1c"
        string_val: "9q9hr3"
        string_val: "9q9p1z"
        string_val: "9q8vku"
        string_val: "9q8zn2"
        string_val: "9q962g"
        string_val: "9q9keq"
        string_val: "9q9pb7"
        string_val: "9q9pzd"
        string_val: "9qc8nm"
        string_val: "9qcgcy"
        string_val: "9q97f8"
        string_val: "9qcemk"
        string_val: "9qc820"
        string_val: "9q9ntb"
        string_val: "9q8vz4"
        string_val: "9q9rux"
        string_val: "9qc60t"
        string_val: "9q97b3"
        string_val: "9q8zkm"
        string_val: "9q9p3e"
        string_val: "9qbdwe"
        string_val: "9q9k51"
        string_val: "9qc8ny"
        string_val: "9qc70j"
        string_val: "9r4c51"
        string_val: "9q8ze9"
        string_val: "9q9ynu"
        string_val: "9qcet7"
        string_val: "9q8zgx"
        string_val: "9q9ybt"
        string_val: "9r4bgz"
        string_val: "9q9pqj"
        string_val: "9q9yxk"
        string_val: "9q9j96"
        string_val: "9rcdxv"
        string_val: "9q9qbf"
        string_val: "9q6mtk"
        string_val: "9qc25d"
        string_val: "9q9xzk"
        string_val: "9q8zgq"
        string_val: "9q9j4h"
        string_val: "9q97cx"
        string_val: "9q9m19"
        string_val: "9q9jhm"
        string_val: "9q9pef"
        string_val: "9qc60f"
        string_val: "9q963e"
        string_val: "9q9p9b"
        string_val: "9qc8zw"
        string_val: "9qc8r9"
        string_val: "9q8ytz"
        string_val: "9q9jb0"
        string_val: "9q9pyy"
        string_val: "9qc2hj"
        string_val: "9q8yyy"
        string_val: "9qc8zc"
        string_val: "9q9ych"
        string_val: "9qc4py"
        string_val: "9qc0f5"
        string_val: "9q9p8r"
        string_val: "9q8yq0"
        string_val: "9q9z8n"
        string_val: "9q9p1q"
        string_val: "9qc7q4"
        string_val: "9qc0ds"
        string_val: "9qb9zv"
        string_val: "9q9d8v"
        string_val: "9q9k8z"
        string_val: "9q9zn8"
        string_val: "9q97f8"
        string_val: "9q97fx"
        string_val: "9q9hz8"
        string_val: "9q9k6j"
        string_val: "9q9k3j"
        string_val: "9q9jxk"
        string_val: "9qbc8u"
        string_val: "9qc1z7"
        string_val: "9qc1wj"
        string_val: "9q9r1n"
        string_val: "9q963g"
        string_val: "9qc0g0"
        string_val: "9q9ybt"
        string_val: "9q8yk9"
        string_val: "9q95j1"
        string_val: "9q9j3p"
        string_val: "9q9k6g"
        string_val: "9qbdxr"
        string_val: "9q9j39"
        string_val: "9qbesn"
        string_val: "9q9pzr"
        string_val: "dp4d48"
        string_val: "9q9p7t"
        string_val: "9q9qkt"
        string_val: "9q9xxk"
        string_val: "9q9pr6"
        string_val: "9qc8qb"
        string_val: "9q8yyf"
        string_val: "9q8yvs"
        string_val: "9q9p1k"
        string_val: "9q9hrp"
        string_val: "9q9ng7"
        string_val: "9qcv14"
        string_val: "9q9k60"
        string_val: "9q9p1y"
        string_val: "9qcgb3"
        string_val: "9q8yyz"
        string_val: "9qbghf"
        string_val: "9q9pkb"
        string_val: "9rcdzg"
        string_val: "9qc8pw"
        string_val: "9q94yj"
        string_val: "9qcb24"
        string_val: "9q8zek"
        string_val: "9q8yyz"
        string_val: "9q9nf9"
        string_val: "9q8yyq"
        string_val: "9q9nn9"
        string_val: "9q9jzj"
        string_val: "9qcc7h"
        string_val: "9q9p1u"
        string_val: "9q93gb"
        string_val: "9q9p1v"
        string_val: "9q9huk"
        string_val: "9q8vz9"
        string_val: "9q8zxy"
        string_val: "9q9k29"
        string_val: "dp4d60"
        string_val: "9q8zn3"
        string_val: "9qc8r6"
        string_val: "9q8yut"
        string_val: "9qbdps"
        string_val: "9q9pb5"
        string_val: "9qc2n2"
        string_val: "9q99mv"
        string_val: "9q9wub"
        string_val: "9q9k2q"
        string_val: "9qcbbr"
        string_val: "9qc0ff"
        string_val: "9qc1wy"
        string_val: "9q8yyr"
        string_val: "9qc0fc"
        string_val: "9q9hxq"
        string_val: "9q9q6b"
        string_val: "9q9q6g"
        string_val: "9q5bc7"
        string_val: "9q8yq0"
        string_val: "9q9nw4"
        string_val: "9q9pq7"
        string_val: "9q9r1b"
        string_val: "9q5b9w"
        string_val: "9q7nt1"
        string_val: "9qcb0m"
        string_val: "9q97gm"
        string_val: "9qbdxq"
        string_val: "9q8yyz"
        string_val: "9q8yw4"
        string_val: "9q9nky"
        string_val: "9q9q4y"
        string_val: "9qcbbe"
        string_val: "9q96jc"
        string_val: "9q8zs4"
        string_val: "9q9p67"
        string_val: "9q9huu"
        string_val: "9qdn25"
        string_val: "9q8zjb"
        string_val: "9q9x8g"
        string_val: "dp4d6s"
        string_val: "9qc7mw"
        string_val: "9qc2n9"
        string_val: "9q8yhd"
        string_val: "9q8ytq"
        string_val: "9q9k4j"
        string_val: "9qcgc5"
        string_val: "9qc615"
        string_val: "9q97fm"
        string_val: "9q9qc5"
        string_val: "9q9d2z"
        string_val: "9q9jzd"
        string_val: "9q9k4b"
        string_val: "9q5bf0"
        string_val: "9q9rbp"
        string_val: "9qbv9e"
        string_val: "9q9yru"
        string_val: "9qc8qc"
        string_val: "9qbb5j"
        string_val: "9q9kee"
        string_val: "9qc0eg"
        string_val: "9q9jzn"
        string_val: "9q8vxt"
        string_val: "9q9hpg"
        string_val: "9q5bdh"
        string_val: "9q9qcs"
        string_val: "9q9nud"
        string_val: "9q9p3f"
        string_val: "9q9p49"
        string_val: "9q9yxs"
        string_val: "9qbb4t"
        string_val: "9q9xzw"
        string_val: "9qcv01"
        string_val: "9q9neu"
        string_val: "dp4d68"
        string_val: "9qc8pg"
        string_val: "9qc269"
        string_val: "9qc4rc"
        string_val: "9q9m91"
        string_val: "9q9jxu"
        string_val: "9qc7mq"
        string_val: "9q95j1"
        string_val: "9qc40e"
        string_val: "9qc0pg"
        string_val: "9q9qcu"
        string_val: "9q9hw2"
        string_val: "9q9pbz"
        string_val: "9qc11v"
        string_val: "9q9dbe"
        string_val: "9q8yyy"
        string_val: "9q9k4t"
        string_val: "9q9pv3"
        string_val: "9q8znb"
        string_val: "9qc407"
        string_val: "9q8zfz"
        string_val: "9qc2hc"
        string_val: "9q9p94"
        string_val: "9q5bcc"
        string_val: "9rcdz6"
        string_val: "9q9zbn"
        string_val: "9qbhsy"
        string_val: "9q9kb8"
        string_val: "9q9wuc"
        string_val: "9q9xpd"
        string_val: "9qbdzf"
        string_val: "9q96j5"
        string_val: "9q9k0n"
        string_val: "9q9p67"
        string_val: "9q9r1v"
        string_val: "9qc1wp"
        string_val: "9qc8qw"
        string_val: "9qc9xm"
        string_val: "9q9p4t"
        string_val: "9qc3nq"
        string_val: "9qc0jp"
        string_val: "9q97uk"
        string_val: "9q8yyq"
        string_val: "9q9nm3"
        string_val: "9q8zzb"
        string_val: "9q9qqr"
        string_val: "9qbv96"
        string_val: "9qc3q0"
        string_val: "9qc7md"
        string_val: "9qc01x"
        string_val: "9q9yjb"
        string_val: "dqctfd"
        string_val: "9qc7qh"
        string_val: "9q99w5"
        string_val: "9q9pq7"
        string_val: "9r4bfm"
        string_val: "9q8yvv"
        string_val: "9qc1x0"
        string_val: "9q9m2q"
        string_val: "9q9p6e"
        string_val: "9q9k6t"
        string_val: "9q7nt0"
        string_val: "9q9j54"
        string_val: "9q9ke0"
        string_val: "9qdn23"
        string_val: "9q9k7h"
        string_val: "9qbv9k"
        string_val: "9qc70m"
        string_val: "9q8yyz"
        string_val: "9q9d9j"
        string_val: "9q9xzz"
        string_val: "9q94z3"
        string_val: "9q7ntd"
        string_val: "9q9k55"
        string_val: "9q9k0d"
        string_val: "9q9nev"
        string_val: "9qc0fm"
        string_val: "9q8yxj"
        string_val: "9q9k6r"
        string_val: "9q9p4v"
        string_val: "9q8ywp"
        string_val: "9q9wsh"
        string_val: "9q8yyy"
        string_val: "9q9nuh"
        string_val: "drdv4m"
        string_val: "9qcbb5"
        string_val: "9q9r04"
        string_val: "dp4d3f"
        string_val: "9q8yyz"
        string_val: "9q8zj9"
        string_val: "9q9d8v"
        string_val: "9q962g"
        string_val: "9qbs8t"
        string_val: "9q9nqu"
        string_val: "9qc1x5"
        string_val: "9qc8qu"
        string_val: "9q8yvc"
        string_val: "9qbdbz"
        string_val: "9q9z15"
        string_val: "9q9jwp"
        string_val: "9q93uz"
        string_val: "9q9yek"
        string_val: "9q9p9r"
        string_val: "9q9k6g"
        string_val: "9q7ntg"
        string_val: "9qc262"
        string_val: "9q97bm"
        string_val: "9qbs8x"
        string_val: "9qc0gh"
        string_val: "9q9qkd"
        string_val: "dqctfg"
        string_val: "9q9wky"
        string_val: "9qcez9"
        string_val: "9rcfb8"
        string_val: "9qcb27"
        string_val: "9q9pfn"
        string_val: "9q9ngf"
        string_val: "9q8zzm"
        string_val: "9qc8n7"
        string_val: "9q9ruv"
        string_val: "9q9jw9"
        string_val: "9q8vxu"
        string_val: "9qcu0d"
        string_val: "9q8yyy"
        string_val: "9qcb2k"
        string_val: "9q9k0u"
        string_val: "9q9zb7"
        string_val: "9q95ze"
        string_val: "9q9j5t"
        string_val: "9q9nq8"
        string_val: "9q9k8d"
        string_val: "9qctpm"
        string_val: "9qc0fp"
        string_val: "9q8zsy"
        string_val: "9q8yyz"
        string_val: "9q9j90"
        string_val: "9q8zkf"
        string_val: "9q9hfx"
        string_val: "9qdn25"
        string_val: "9qcb0h"
        string_val: "9q8ytn"
        string_val: "9qc0jg"
        string_val: "9qbdwe"
        string_val: "9qc1wb"
        string_val: "9qbgmw"
        string_val: "9q9hur"
        string_val: "9qc1xc"
        string_val: "9q9wsp"
        string_val: "9q8yyy"
        string_val: "9qcb09"
        string_val: "9q9nm1"
        string_val: "9qcb0n"
        string_val: "9q8zn9"
        string_val: "9q9htr"
        string_val: "9q8yyf"
        string_val: "9q9q63"
        string_val: "9q9kkd"
        string_val: "dp4d1d"
        string_val: "9q9jx9"
        string_val: "9q9ycx"
        string_val: "9q9htc"
        string_val: "9qc11v"
        string_val: "9q9z44"
        string_val: "9q9nkq"
        string_val: "9q8vjv"
        string_val: "9qc0sj"
        string_val: "9q9rym"
        string_val: "9q9d95"
        string_val: "9q9npw"
        string_val: "9qcgbd"
        string_val: "9q9j4k"
        string_val: "9qbdxq"
        string_val: "9q9hq5"
        string_val: "9q9j3n"
        string_val: "9q9j8q"
        string_val: "9q8zn8"
        string_val: "9q9j63"
        string_val: "9q8ynn"
        string_val: "9q7nwj"
        string_val: "9q9z13"
        string_val: "9q9qqr"
        string_val: "9qc24n"
        string_val: "dp4d12"
        string_val: "9q9njg"
        string_val: "9q8ywd"
        string_val: "9q8vmh"
        string_val: "9q9jx0"
        string_val: "9q9qqj"
        string_val: "9q8ywk"
        string_val: "9q99qn"
        string_val: "9qc04k"
        string_val: "9q9nsq"
        string_val: "9q9p1m"
        string_val: "9qc1xg"
        string_val: "9q8yjm"
        string_val: "9q9hv2"
        string_val: "9q9j97"
        string_val: "9q97bw"
        string_val: "9q9pbq"
        string_val: "9qc2hq"
        string_val: "9q9nu2"
        string_val: "dp4d3f"
        string_val: "9rcf8d"
        string_val: "9q9pqn"
        string_val: "9qcbbk"
        string_val: "dp4d68"
        string_val: "9q9k22"
        string_val: "9qc1c1"
        string_val: "9q97vh"
        string_val: "9q9ngr"
        string_val: "9q8zke"
        string_val: "9q9m2r"
        string_val: "9q9pwx"
        string_val: "9q9nnd"
        string_val: "9q99t9"
        string_val: "9q9wkw"
        string_val: "9q9z1h"
        string_val: "9qc0je"
        string_val: "9q9khc"
        string_val: "9qbesn"
        string_val: "9q95z6"
        string_val: "9q9p3u"
        string_val: "9q9zbf"
        string_val: "9q9py9"
        string_val: "9q9py7"
        string_val: "9q9pwk"
        string_val: "9q9p64"
        string_val: "9qbeum"
        string_val: "9r4bfy"
        string_val: "9q9ngd"
        string_val: "9q9ycp"
        string_val: "9q9nq9"
        string_val: "9qcgbm"
        string_val: "9q9j5e"
        string_val: "9q9yq5"
        string_val: "9q9j3j"
        string_val: "9q8yy0"
        string_val: "9qbdy9"
        string_val: "9q9kec"
        string_val: "9qcgbk"
        string_val: "9q9nqh"
        string_val: "9q9xxs"
        string_val: "9q9nmn"
        string_val: "9q8zfz"
        string_val: "9q7nt0"
        string_val: "9q9nkw"
        string_val: "9qc7qm"
        string_val: "9q97g6"
        string_val: "9q9k77"
        string_val: "9qcbbe"
        string_val: "9q9pq7"
        string_val: "9qdngq"
        string_val: "9q9pxt"
        string_val: "9q9rym"
        string_val: "9q9hqj"
        string_val: "9q9ngg"
        string_val: "9q9keb"
        string_val: "9q9ng6"
        string_val: "9q9k89"
        string_val: "9q9j8k"
        string_val: "drdv4q"
        string_val: "9q97bx"
        string_val: "9qcu18"
        string_val: "9q8yyz"
        string_val: "dqcter"
        string_val: "9q9k4r"
        string_val: "dqctfd"
        string_val: "9q8ykv"
        string_val: "9q9p1m"
        string_val: "9q9k3f"
        string_val: "9q8yuu"
        string_val: "9qbs8t"
        string_val: "9q8zt6"
        string_val: "9q9jxc"
        string_val: "9q9pqh"
        string_val: "9q9p33"
        string_val: "9q9ycg"
        string_val: "9q9kku"
        string_val: "9q8yv9"
        string_val: "9q9keh"
        string_val: "9q9k54"
        string_val: "9q9jw9"
        string_val: "9qbb4v"
        string_val: "9q8zn0"
        string_val: "9q9xp9"
        string_val: "9q9r09"
        string_val: "9qc0pb"
        string_val: "9q8zze"
        string_val: "9q9p4h"
        string_val: "9q8yyu"
        string_val: "9qbfuz"
        string_val: "9qc8pc"
        string_val: "9q9nq5"
        string_val: "9qc2j2"
        string_val: "9q9p4s"
        string_val: "9qc00b"
        string_val: "9q9rut"
        string_val: "9qc03b"
        string_val: "9q9pwc"
        string_val: "9q9hpe"
        string_val: "9q8yuv"
        string_val: "9q9yxg"
        string_val: "9q94rd"
        string_val: "9q9j4n"
        string_val: "9q5bc3"
        string_val: "dp4d1d"
        string_val: "9q9kev"
        string_val: "9q9k4s"
        string_val: "9q9khc"
        string_val: "9qc8qv"
        string_val: "9q9htx"
        string_val: "9q9yxd"
        string_val: "9q9jyf"
        string_val: "9qc1kq"
        string_val: "9qcemh"
        string_val: "9q9q69"
        string_val: "9q8yxk"
        string_val: "9q9x8f"
        string_val: "9q9hsy"
        string_val: "9q9p6s"
        string_val: "9r4bgw"
        string_val: "9q9ynb"
        string_val: "9q9kb8"
        string_val: "9qc9p6"
        string_val: "9qc0hg"
        string_val: "9q9ke3"
        string_val: "9qc3q2"
        string_val: "9q9pys"
        string_val: "9q97v0"
        string_val: "9q5bd5"
        string_val: "9qc8zy"
        string_val: "9q8ytp"
        string_val: "9rcf8s"
        string_val: "9q99tg"
        string_val: "9qc0fr"
        string_val: "9qcet1"
        string_val: "9rcfb3"
        string_val: "9q8vyw"
        string_val: "9q9k1c"
        string_val: "9q9r0r"
        string_val: "9qcubm"
        string_val: "9q9hvf"
        string_val: "9q962q"
        string_val: "9qc012"
        string_val: "9q5bce"
        string_val: "9q9p95"
        string_val: "9q9hvc"
        string_val: "9q9pw0"
        string_val: "9q9r0j"
        string_val: "9q8ymn"
        string_val: "9q9wev"
        string_val: "9q9yn5"
        string_val: "9q8yyx"
        string_val: "9q9x8s"
        string_val: "9q9nkf"
        string_val: "9qbbpb"
        string_val: "9qc3nm"
        string_val: "9qcv15"
        string_val: "9q8zsp"
        string_val: "9q7nwj"
        string_val: "9q9hpn"
        string_val: "9qc11v"
        string_val: "9qc0n1"
        string_val: "9q9pqw"
        string_val: "9qc60z"
        string_val: "9q8zn3"
        string_val: "9q9nmm"
        string_val: "9q94qc"
        string_val: "9qceth"
        string_val: "9qc004"
        string_val: "9q94qd"
        string_val: "9q9p6g"
        string_val: "9q9hfp"
        string_val: "9q9pw3"
        string_val: "9q9yxe"
        string_val: "9q5b9v"
        string_val: "9q97bp"
        string_val: "9qc8qx"
        string_val: "9q9yg9"
        string_val: "9q9ney"
        string_val: "9q9kgh"
        string_val: "9q97gy"
        string_val: "9q9p37"
        string_val: "9qc01d"
        string_val: "9qc829"
        string_val: "9q9r0e"
        string_val: "9q9z20"
        string_val: "9q9p45"
        string_val: "9qc60u"
        string_val: "9q95zv"
        string_val: "9q9ypp"
        string_val: "9q9xzw"
        string_val: "9qbe4c"
        string_val: "9q5bc8"
        string_val: "9q9nft"
        string_val: "9q9nu7"
        string_val: "9qcgb7"
        string_val: "9q99tc"
        string_val: "9qc01r"
        string_val: "9q9kj3"
        string_val: "9q9nkx"
        string_val: "9q9hvf"
        string_val: "9q9ynz"
        string_val: "9qc60y"
        string_val: "9q9nje"
        string_val: "9q8zxu"
        string_val: "9q9ngd"
        string_val: "9qc24s"
        string_val: "9qc004"
        string_val: "9qbdwk"
        string_val: "9q9k1w"
        string_val: "9q9kdv"
        string_val: "9q9nm7"
        string_val: "9qbdwu"
        string_val: "9qbghz"
        string_val: "9q9rvr"
        string_val: "9qc6g2"
        string_val: "9qc8pc"
        string_val: "9q8yy6"
        string_val: "9q963e"
        string_val: "dp4d5p"
        string_val: "9q8yt3"
        string_val: "9qc0pc"
        string_val: "9q8yvf"
        string_val: "9q9hv8"
        string_val: "dp4d44"
        string_val: "9q9pxq"
        string_val: "9q9jxb"
        string_val: "9q9k30"
        string_val: "9q9hxf"
        string_val: "9q8ywk"
        string_val: "9qc9xd"
        string_val: "9q9k3p"
        string_val: "9q99r4"
        string_val: "9q9jy0"
        string_val: "9rcdxv"
        string_val: "9q8ytj"
        string_val: "9q9ycs"
        string_val: "9q9nkd"
        string_val: "9q8zzv"
        string_val: "9qc147"
        string_val: "9q8zgs"
        string_val: "9q9j51"
        string_val: "9q9py9"
        string_val: "9q8yjj"
        string_val: "9q9wt3"
        string_val: "9q8yyp"
        string_val: "9q9hrr"
        string_val: "9q9p19"
        string_val: "9q9pmz"
        string_val: "9q9p1m"
        string_val: "9q8ytu"
        string_val: "9qcv0f"
        string_val: "9q9qce"
        string_val: "9qbesn"
        string_val: "9q8yy5"
        string_val: "9q94qd"
        string_val: "9qc0n5"
        string_val: "9q9x8x"
        string_val: "9q9qce"
        string_val: "9rcdzg"
        string_val: "9q8zec"
        string_val: "9q9m8b"
        string_val: "9qc0jh"
        string_val: "9rcfb9"
        string_val: "9qc8rd"
        string_val: "9q9wsf"
        string_val: "9q9rvn"
        string_val: "9qbf8n"
        string_val: "9q8zmm"
        string_val: "9qcgcw"
        string_val: "9q9k1c"
        string_val: "9q9qcs"
        string_val: "9q9d8f"
        string_val: "9qc7md"
        string_val: "9qbhgb"
        string_val: "9qc8zf"
        string_val: "9qcgbg"
        string_val: "9q9r23"
        string_val: "9qbtxz"
        string_val: "9q9ngb"
        string_val: "9q9qcu"
        string_val: "9q9htx"
        string_val: "9q9k65"
        string_val: "9q9wkw"
        string_val: "9qbdwe"
        string_val: "9q8yqq"
        string_val: "9q9ws6"
        string_val: "9rcfb8"
        string_val: "9q9d2z"
        string_val: "9q9rc3"
        string_val: "9qbfds"
        string_val: "9q9j5n"
        string_val: "9r4bfz"
        string_val: "9q8znd"
        string_val: "9q9k4j"
        string_val: "dp4d1c"
        string_val: "9qc2hn"
        string_val: "9q8yyv"
        string_val: "9q9huq"
        string_val: "9q8yvs"
        string_val: "9q9x8t"
        string_val: "9q9hrb"
        string_val: "9q8zzv"
        string_val: "9q9wt0"
        string_val: "9q9k89"
        string_val: "9q8yyp"
        string_val: "9q8zgf"
        string_val: "9qc261"
        string_val: "9q8ytz"
        string_val: "9q97g5"
        string_val: "9q9p3c"
        string_val: "9q9k3c"
        string_val: "9q8yyx"
        string_val: "9qc24v"
        string_val: "9qc0ju"
        string_val: "9q9k5h"
        string_val: "9q9huw"
        string_val: "9q9hfv"
        string_val: "9qbc3q"
        string_val: "9q9nme"
        string_val: "9q9pb8"
        string_val: "9qc8nr"
        string_val: "9q9pzd"
        string_val: "9q8yu8"
        string_val: "9rcf8s"
        string_val: "9qc11v"
        string_val: "9q8uvz"
        string_val: "9q8yyk"
        string_val: "9q9ych"
        string_val: "9qctr5"
        string_val: "9q99tc"
        string_val: "9q8yyy"
        string_val: "9qbfde"
        string_val: "9q9wsy"
        string_val: "9qbf8k"
        string_val: "9qbfds"
        string_val: "9q963e"
        string_val: "9q9qcj"
        string_val: "9q9p4s"
        string_val: "9q5b9x"
        string_val: "9q9kew"
        string_val: "9q9nsv"
        string_val: "9q9xzz"
        string_val: "9q9hrr"
        string_val: "9q95zu"
        string_val: "9q9hxk"
        string_val: "9q9kdu"
        string_val: "9q9k24"
        string_val: "9q9hw6"
        string_val: "9q9r1t"
        string_val: "9qc0jf"
        string_val: "9qc61k"
        string_val: "9q9k52"
        string_val: "9q9j8d"
        string_val: "9q963k"
        string_val: "9q8yyh"
        string_val: "9q9k28"
        string_val: "9q8yyc"
        string_val: "9q9prh"
        string_val: "9q9pbz"
        string_val: "9q9jy4"
        string_val: "9q8yvz"
        string_val: "9q8yhy"
        string_val: "dp4d44"
        string_val: "9q9x8x"
        string_val: "9qbc9m"
        string_val: "9q9nsk"
        string_val: "9q9jz1"
        string_val: "9q9kk7"
        string_val: "9q9kfs"
        string_val: "9q9ycu"
        string_val: "9qcufj"
        string_val: "9q9nn5"
        string_val: "9q9hp2"
        string_val: "9qc611"
        string_val: "9q9k3q"
        string_val: "9q9z1r"
        string_val: "9q97fc"
        string_val: "9qc2hc"
        string_val: "9q6mt6"
        string_val: "9q9pmz"
        string_val: "9q9wsg"
        string_val: "9q8yyk"
        string_val: "9q8zmw"
        string_val: "9qc257"
        string_val: "9q8yyu"
        string_val: "9qc0fx"
        string_val: "dp4d42"
        string_val: "9qb6r7"
        string_val: "9q9ps3"
        string_val: "9qc01j"
        string_val: "9q9hfv"
        string_val: "9q9ndp"
        string_val: "9q9kdm"
        string_val: "9q9xpe"
        string_val: "9q97f8"
        string_val: "9qdnfe"
        string_val: "9qb6pf"
        string_val: "9q9j55"
        string_val: "dp4d4r"
        string_val: "9qbcd4"
        string_val: "9qc8nk"
        string_val: "9q9rc7"
        string_val: "9q9d8f"
        string_val: "9qc1xj"
        string_val: "9q9hrx"
        string_val: "9r4c4b"
        string_val: "9q7nt8"
        string_val: "9qcemh"
        string_val: "dp4d4r"
        string_val: "9q8yx4"
        string_val: "9q979z"
        string_val: "9q9prj"
        string_val: "9qbdyv"
        string_val: "9q9vyt"
        string_val: "9qc8p1"
        string_val: "9qc7mg"
        string_val: "9qc8pj"
        string_val: "dp4d6s"
        string_val: "9q9p1c"
        string_val: "9q9pw7"
        string_val: "9q9r00"
        string_val: "9q9d8c"
        string_val: "9q9x8x"
        string_val: "9q9zcj"
        string_val: "9qbesn"
        string_val: "9qcc74"
        string_val: "9q9p4h"
        string_val: "9q9r42"
        string_val: "9q9d9h"
        string_val: "9q9nqm"
        string_val: "dqctep"
        string_val: "9qc8r6"
        string_val: "9q9k3t"
        string_val: "9q9j1t"
        string_val: "9qcemr"
        string_val: "9q8ynr"
        string_val: "9q9jhn"
        string_val: "9q8zee"
        string_val: "9q8yyu"
        string_val: "9q8yyz"
        string_val: "9q8zgh"
        string_val: "9q97pw"
        string_val: "9q7nv8"
        string_val: "9qbb4m"
        string_val: "9qc008"
        string_val: "9q9p3q"
        string_val: "9q9k5s"
        string_val: "9q9yrg"
        string_val: "9q9j5v"
        string_val: "9q9wt4"
        string_val: "9q8yyt"
        string_val: "9q9ryr"
        string_val: "9qc256"
        string_val: "9q9ker"
        string_val: "9q9hxk"
        string_val: "9qcgbs"
        string_val: "dqcter"
        string_val: "9q9pyn"
        string_val: "9qc9zc"
        string_val: "9qdncc"
        string_val: "9q8yyy"
        string_val: "9rcfb3"
        string_val: "9qcu00"
        string_val: "9qc0gn"
        string_val: "9qc7m1"
        string_val: "9q9pr2"
        string_val: "9qbc8b"
        string_val: "9qbfbj"
        string_val: "9q9k3g"
        string_val: "9q9jh3"
        string_val: "9qc4pt"
        string_val: "9qbess"
        string_val: "9q9pt3"
        string_val: "9qcv0g"
        string_val: "9qc2hu"
        string_val: "9qdncu"
        string_val: "9q9qw5"
        string_val: "9rcfb9"
        string_val: "9q9pbz"
        string_val: "9qc60n"
        string_val: "9q8zu0"
        string_val: "9q9k3q"
        string_val: "9q8ytn"
        string_val: "9q8yy3"
        string_val: "9q8yyu"
        string_val: "9qc7r1"
        string_val: "9q9xzz"
        string_val: "9q9kds"
        string_val: "9q9ngr"
        string_val: "9qc1k9"
        string_val: "9q9ngg"
        string_val: "9qc20r"
        string_val: "9q7nw3"
        string_val: "9q9p61"
        string_val: "9q8ytt"
        string_val: "9q9rbk"
        string_val: "9q97cj"
        string_val: "9q94r3"
        string_val: "9q9z44"
        string_val: "9q93gb"
        string_val: "9q9vzy"
        string_val: "9qc0f2"
        string_val: "9q9d97"
        string_val: "9q9hen"
        string_val: "9q9kdw"
        string_val: "9q9pq7"
        string_val: "9q966c"
        string_val: "9q8zsy"
        string_val: "9q95zu"
        string_val: "9qdnfj"
        string_val: "9qbs8w"
        string_val: "9q9kbb"
        string_val: "9qc01r"
        string_val: "9q9qhh"
        string_val: "9q9k2s"
        string_val: "9q9hpg"
        string_val: "9qdn21"
        string_val: "9q9jhm"
        string_val: "9q9rvx"
        string_val: "9q9qh7"
        string_val: "9q8zgn"
        string_val: "9qc62k"
        string_val: "9q9k88"
        string_val: "9q9ndk"
        string_val: "9q9x8g"
        string_val: "9q9jvf"
        string_val: "9q5bcc"
        string_val: "9q9wsp"
        string_val: "9q9rwn"
        string_val: "9qc60m"
        string_val: "9q9rbq"
        string_val: "9qc8zt"
        string_val: "9q94wp"
        string_val: "9q9p3n"
        string_val: "9q9jyj"
        string_val: "9q9rbf"
        string_val: "9qc70t"
        string_val: "9q9pqh"
        string_val: "9qc70q"
        string_val: "9q8yyt"
        string_val: "9qcufk"
        string_val: "9q9nu2"
        string_val: "9qc0dm"
        string_val: "9q9z0g"
        string_val: "9q5bcd"
        string_val: "9q9qw4"
        string_val: "9q8yyy"
        string_val: "9q9zbh"
        string_val: "9qc60d"
        string_val: "9qc0dx"
        string_val: "9q9p6u"
        string_val: "9q9x8d"
        string_val: "9q99tt"
        string_val: "9q9kd0"
        string_val: "9q9pec"
        string_val: "9qc0jp"
        string_val: "9qc60m"
        string_val: "9qbdx0"
        string_val: "9q9rcj"
        string_val: "9q8ywq"
        string_val: "9q9rrv"
        string_val: "9q5bc8"
        string_val: "9q9z0n"
        string_val: "9q97c4"
        string_val: "9qb6zv"
        string_val: "9qbdby"
        string_val: "9q9p94"
        string_val: "9qcgbq"
        string_val: "9qbc3z"
        string_val: "9q9xpd"
        string_val: "9q97up"
        string_val: "9qdncb"
        string_val: "9q9r47"
        string_val: "9q5bf4"
        string_val: "9q9pzw"
        string_val: "9q9j4k"
        string_val: "9q9k29"
        string_val: "9qbf13"
        string_val: "9q9xxs"
        string_val: "9q8yyy"
        string_val: "9qcezf"
        string_val: "9q9p73"
        string_val: "9q9z8w"
        string_val: "9q8vxe"
        string_val: "9q9m89"
        string_val: "9q9p3h"
        string_val: "9q9k3e"
        string_val: "9q9ht6"
        string_val: "9q9k6t"
        string_val: "9q9ng6"
        string_val: "9q9nsg"
        string_val: "9q9yew"
        string_val: "dp4d65"
        string_val: "9q99t7"
        string_val: "9q9jz0"
        string_val: "9q9j61"
        string_val: "9q9p4d"
        string_val: "9q9qhy"
        string_val: "9q9q6g"
        string_val: "dqctfe"
        string_val: "9qc1hx"
        string_val: "9q9pbp"
        string_val: "9q9nst"
        string_val: "9q9nse"
        string_val: "9qc616"
        string_val: "dqctew"
        string_val: "9qc8qv"
        string_val: "9q8ynh"
        string_val: "9qc8zb"
        string_val: "9qbdwk"
        string_val: "9q9x8v"
        string_val: "9qcu0c"
        string_val: "9q9kj0"
        string_val: "dp4d6s"
        string_val: "9qbb5j"
        string_val: "9qc2j2"
        string_val: "9q94qc"
        string_val: "9q9pqu"
        string_val: "9q9nmy"
        string_val: "9qc261"
        string_val: "dp4d46"
        string_val: "9q8zn2"
        string_val: "9q8zg8"
        string_val: "9q9k7n"
        string_val: "9qc61n"
        string_val: "9q9p9t"
        string_val: "9rcfb9"
        string_val: "9qc8rd"
        string_val: "dqctep"
        string_val: "9q9ry9"
        string_val: "9q8yvu"
        string_val: "9q8yyv"
        string_val: "9qdngj"
        string_val: "9qc8zu"
        string_val: "9q9jzf"
        string_val: "9qcgcz"
        string_val: "9q99ck"
        string_val: "9q9qk6"
        string_val: "9q9m19"
        string_val: "9rcdz6"
        string_val: "9q9rbu"
        string_val: "9qc204"
        string_val: "9q8yt6"
        string_val: "9q9p1c"
        string_val: "9qc7kf"
        string_val: "9q9j3p"
        string_val: "9q9nsj"
        string_val: "dp4d69"
        string_val: "9q8yyv"
        string_val: "9q9p0g"
        string_val: "9q9k1d"
        string_val: "9q8yyy"
        string_val: "9q9p90"
        string_val: "9qc2he"
        string_val: "9qc0en"
        string_val: "9q8zzf"
        string_val: "9q8vyb"
        string_val: "9q9xxz"
        string_val: "9q9qq6"
        string_val: "9q9nnc"
        string_val: "9q9jb3"
        string_val: "9q8ykg"
        string_val: "9q9x85"
        string_val: "9q9njm"
        string_val: "9q9j3u"
        string_val: "9q9ws5"
        string_val: "9q9p33"
        string_val: "9q9qmu"
        string_val: "9q9x8g"
        string_val: "9q9m89"
        string_val: "9q5bc8"
        string_val: "9qc8n2"
        string_val: "9qbsb6"
        string_val: "9qccb0"
        string_val: "9qcc0m"
        string_val: "9q9k6j"
        string_val: "9q9k0d"
        string_val: "9q9ken"
        string_val: "9q96j4"
        string_val: "9q8vjw"
        string_val: "9q9625"
        string_val: "9qcezt"
        string_val: "9q99sv"
        string_val: "dp4d1h"
        string_val: "9qbf78"
        string_val: "9q9r08"
        string_val: "9qc1wj"
        string_val: "9qbb49"
        string_val: "9q9kk2"
        string_val: "9qc0fe"
        string_val: "9q9rw5"
        string_val: "9q9jyg"
        string_val: "9q9jhs"
        string_val: "9q9pwf"
        string_val: "9q9j5c"
        string_val: "9q8zzf"
        string_val: "9qbb48"
        string_val: "9q9k43"
        string_val: "9q5bcd"
        string_val: "9q9jdh"
        string_val: "9q8zke"
        string_val: "9q9q2x"
        string_val: "9q9r0y"
        string_val: "9q9pbc"
        string_val: "9qbdbs"
        string_val: "9r4bgz"
        string_val: "9qbcd4"
        string_val: "9q8vxx"
        string_val: "9qc8rf"
        string_val: "9q8zgw"
        string_val: "9q8zmr"
        string_val: "9q8yyz"
        string_val: "9q94rc"
        string_val: "9qcet6"
        string_val: "9q7nt1"
        string_val: "9qbf22"
        string_val: "9q9623"
        string_val: "9q9e22"
        string_val: "9q964w"
        string_val: "9q9k08"
        string_val: "9q9j57"
        string_val: "9q9qq4"
        string_val: "9q9m3k"
        string_val: "9q6mt3"
        string_val: "9q9x8f"
        string_val: "9q9jwy"
        string_val: "9q9j8k"
        string_val: "9q8zzc"
        string_val: "9q9jwz"
        string_val: "9qc147"
        string_val: "9q9k2g"
        string_val: "9q97bw"
        string_val: "9q9nfw"
        string_val: "9q99td"
        string_val: "9q9pbm"
        string_val: "9q9x94"
        string_val: "9q9hkr"
        string_val: "9qcbbn"
        string_val: "9q8yw5"
        string_val: "9q7ntd"
        string_val: "9qbs8w"
        string_val: "9q9j51"
        string_val: "9q9qbx"
        string_val: "9q8yu3"
        string_val: "9qcbbp"
        string_val: "9q9hrq"
        string_val: "9qcc2m"
        string_val: "9q9d94"
        string_val: "9qc60v"
        string_val: "9q8zn2"
        string_val: "9qc8nf"
        string_val: "9qcetf"
        string_val: "9qbc91"
        string_val: "9qc9x3"
        string_val: "9q9nsq"
        string_val: "drdv4t"
        string_val: "9q8yw5"
        string_val: "9q9pkr"
        string_val: "9qc0n5"
        string_val: "9q9jy3"
        string_val: "9q9nnq"
        string_val: "9q9qf5"
        string_val: "9qc1hs"
        string_val: "9q96j9"
        string_val: "9q9rvq"
        string_val: "9q9keh"
        string_val: "9q9r42"
        string_val: "9q9j33"
        string_val: "9qc60g"
        string_val: "9qctpd"
        string_val: "9q9d8b"
        string_val: "9q8ykv"
        string_val: "9qc239"
        string_val: "9qc0hy"
        string_val: "9q9pyh"
        string_val: "9q8zgt"
        string_val: "9q97ck"
        string_val: "9q97b6"
        string_val: "9qc148"
        string_val: "9q9kt1"
        string_val: "9qcbbn"
        string_val: "9qc0g1"
        string_val: "9q9nn3"
        string_val: "9q9nfr"
        string_val: "9qbc3y"
        string_val: "9q9k39"
        string_val: "9q8yyy"
        string_val: "9q8yv0"
        string_val: "9q9p31"
        string_val: "9q9j5u"
        string_val: "9q9k1t"
        string_val: "9qc0pd"
        string_val: "9q9wt6"
        string_val: "9qbe51"
        string_val: "9q9ruz"
        string_val: "9qcemh"
        string_val: "9q9wez"
        string_val: "9qcu03"
        string_val: "9q8zzd"
        string_val: "9q9pmy"
        string_val: "dp4d3f"
        string_val: "9q9zcr"
        string_val: "9qc266"
        string_val: "dp4d4n"
        string_val: "9q964w"
        string_val: "9q97fj"
        string_val: "9qc2hq"
        string_val: "9qbfc6"
        string_val: "9qc3bs"
        string_val: "9q8yjs"
        string_val: "9q9rwz"
        string_val: "9q9vyp"
        string_val: "9qc8n6"
        string_val: "9q9pbq"
        string_val: "9q9pjp"
        string_val: "9qbc3t"
        string_val: "9q9yxc"
        string_val: "9q5bc8"
        string_val: "9q7nw5"
        string_val: "9qcu1c"
        string_val: "9q95zv"
        string_val: "9q9ynz"
        string_val: "9q8zmm"
        string_val: "dqctem"
        string_val: "9q9nnx"
        string_val: "9q9j9k"
        string_val: "9qc1cq"
        string_val: "9qbeey"
        string_val: "9q9k8d"
        string_val: "9q9rcj"
        string_val: "9q9zby"
        string_val: "9q9p6d"
        string_val: "9q97b8"
        string_val: "9q9j8q"
        string_val: "9qc24n"
        string_val: "9q9xx5"
        string_val: "9q9nes"
        string_val: "9qbfc5"
        string_val: "9q9pq5"
        string_val: "9q8zex"
        string_val: "9q9p69"
        string_val: "9qbg6v"
        string_val: "9q8zn3"
        string_val: "9q964w"
        string_val: "9q9jx7"
        string_val: "9q8yyh"
        string_val: "9qc0j2"
        string_val: "9q8yyr"
        string_val: "9q9pv9"
        string_val: "9qbbpb"
        string_val: "9q9jhg"
        string_val: "9qc2h4"
        string_val: "9q9xxe"
        string_val: "9q9ngx"
        string_val: "9q9pw3"
        string_val: "9q9pwk"
        string_val: "9qc627"
        string_val: "9q9p0f"
        string_val: "9q9j5k"
        string_val: "9qc1xs"
        string_val: "9qbesj"
        string_val: "9q8zfz"
        string_val: "9q5b9x"
        string_val: "9qc60k"
        string_val: "9qcgb5"
        string_val: "9qctp7"
        string_val: "9qbgmx"
        string_val: "9q9nx1"
        string_val: "9q5bcd"
        string_val: "9qc0n1"
        string_val: "9q9jyh"
        string_val: "9qc07n"
        string_val: "9qc142"
        string_val: "9q9nnf"
        string_val: "9q99tc"
        string_val: "9q8ywm"
        string_val: "9qc1bd"
        string_val: "9q8zkf"
        string_val: "9qbgj5"
        string_val: "9q9e2f"
        string_val: "9q9p1k"
        string_val: "9q9net"
        string_val: "9q9kk9"
        string_val: "9qc2h5"
        string_val: "9qc0en"
        string_val: "9q8yvb"
        string_val: "9q9xxz"
        string_val: "9qbsb9"
        string_val: "9q97ge"
        string_val: "9q8zgn"
        string_val: "9q96jb"
        string_val: "9q9p1c"
        string_val: "9q8ym8"
        string_val: "9r4bft"
        string_val: "9q9j9n"
        string_val: "9q9kdj"
        string_val: "9qc0fu"
        string_val: "9qc1y0"
        string_val: "9q8yyr"
        string_val: "9q9r45"
        string_val: "9q8ytz"
        string_val: "9q9njc"
        string_val: "9q5bd5"
        string_val: "9q9e2f"
        string_val: "9qc8qb"
        string_val: "9q9ryq"
        string_val: "9q8yyp"
        string_val: "9q9k8c"
        string_val: "9q7nv9"
        string_val: "9q9nks"
        string_val: "9q8vz6"
        string_val: "9q8yt4"
        string_val: "9q9nqh"
        string_val: "9q8yvc"
        string_val: "9q9net"
        string_val: "9q9k65"
        string_val: "9q8ykf"
        string_val: "9qc8zf"
        string_val: "9q7nt1"
        string_val: "9q9xyv"
        string_val: "9qcezc"
        string_val: "9q7ntg"
        string_val: "9qbeev"
        string_val: "9q8yyw"
        string_val: "9qc0fe"
        string_val: "9qc0ds"
        string_val: "9q94zd"
        string_val: "9q9hum"
        string_val: "9q9k1s"
        string_val: "9q9xzt"
        string_val: "9qbf8m"
        string_val: "9qbcuw"
        string_val: "9q9z1h"
        string_val: "9q9k7r"
        string_val: "9q99tk"
        string_val: "9q9p37"
        string_val: "9q6msu"
        string_val: "9q8zxy"
        string_val: "9qcezc"
        string_val: "9qc0pd"
        string_val: "9q9pb0"
        string_val: "9qc0jm"
        string_val: "9qbdz9"
        string_val: "9qcgbj"
        string_val: "9q9e23"
        string_val: "9qbdxh"
        string_val: "9q9k3m"
        string_val: "9q96jc"
        string_val: "9qbsb3"
        string_val: "9q9pyv"
        string_val: "9qc2nf"
        string_val: "9qdncd"
        string_val: "9q5bcb"
        string_val: "9q99tj"
        string_val: "9qbfd7"
        string_val: "9qc8zr"
        string_val: "9qcezx"
        string_val: "9q97fq"
        string_val: "9qc7q6"
        string_val: "9qc7q4"
        string_val: "9q9yn3"
        string_val: "9q6mt1"
        string_val: "9q9qc5"
        string_val: "9q97v6"
        string_val: "9q9p38"
        string_val: "9q8yty"
        string_val: "9q7nw3"
        string_val: "9qc0ju"
        string_val: "9q8yy0"
        string_val: "9q9hxk"
        string_val: "9qbdch"
        string_val: "dqctf2"
        string_val: "9q9nqg"
        string_val: "9qc8pt"
        string_val: "9q8ze9"
        string_val: "9qc0eu"
        string_val: "9qc8nu"
        string_val: "9qc259"
        string_val: "9q9ycs"
        string_val: "9q8yts"
        string_val: "9qbsb8"
        string_val: "9q9r06"
        string_val: "9q9yqb"
        string_val: "9q9m8t"
        string_val: "9q9k7w"
        string_val: "9q9p3g"
        string_val: "9q99qe"
        string_val: "9q8yyz"
        string_val: "9q9m8k"
        string_val: "9q6mt5"
        string_val: "9q93qj"
        string_val: "9q9prs"
        string_val: "9q9yez"
        string_val: "9q9k4r"
        string_val: "9qc0f7"
        string_val: "9q9p19"
        string_val: "9q9jx5"
        string_val: "9qcgct"
        string_val: "9qbdpz"
        string_val: "9qc8pn"
        string_val: "9q9p55"
        string_val: "9q9hv8"
        string_val: "9q9jd5"
        string_val: "9q9pvm"
        string_val: "9q8uyp"
        string_val: "9qc0dr"
        string_val: "9q8ysw"
        string_val: "9q9xzr"
        string_val: "9q9ndj"
        string_val: "9qcu0d"
        string_val: "9qc0gj"
        string_val: "9q9hud"
        string_val: "9q9p6c"
        string_val: "9qcezw"
        string_val: "9q8yy5"
        string_val: "9q9hz3"
        string_val: "9r4c48"
        string_val: "9q9q6u"
        string_val: "9qbcst"
        string_val: "9q9ryu"
        string_val: "9q8yw9"
        string_val: "9q8yv9"
        string_val: "9qc11c"
        string_val: "9q6mtk"
        string_val: "9q9pe3"
        string_val: "9q9njt"
        string_val: "9qc8ny"
        string_val: "9q9hsb"
        string_val: "9q9k53"
        string_val: "9q9pyj"
        string_val: "9q9ng8"
        string_val: "9q9m3m"
        string_val: "9q5bc7"
        string_val: "9q9q6c"
        string_val: "9q9pvx"
        string_val: "9qc1xq"
        string_val: "9q9k7q"
        string_val: "9q9p18"
        string_val: "9q9ndk"
        string_val: "9qc6eu"
        string_val: "9q9nms"
        string_val: "9q9qbx"
        string_val: "9q9nm7"
        string_val: "9q9py8"
        string_val: "9q9nw2"
        string_val: "9q9jwp"
        string_val: "9q9ng7"
        string_val: "9qcb25"
        string_val: "9qc1br"
        string_val: "9q8yyu"
        string_val: "9qc15f"
        string_val: "9q9k48"
        string_val: "9q5bcd"
        string_val: "9q8yvb"
        string_val: "9q97r8"
        string_val: "9q9wsg"
        string_val: "9q99qj"
        string_val: "9r4bgn"
        string_val: "9q9p9h"
        string_val: "9q8zmq"
        string_val: "9q9pxh"
        string_val: "9q5bdh"
        string_val: "9q9xyr"
        string_val: "9qc8pu"
        string_val: "9qceth"
        string_val: "9q8zzt"
        string_val: "9q9hqw"
        string_val: "9qc00z"
        string_val: "9q5b9x"
        string_val: "9q9p70"
        string_val: "9q5b9u"
        string_val: "9q9k59"
        string_val: "9qc8qz"
        string_val: "9qc1xk"
        string_val: "9q9k1n"
        string_val: "9q9pt6"
        string_val: "9qc1wm"
        string_val: "9q8yyu"
        string_val: "9q5bc6"
        string_val: "9q9hfp"
        string_val: "9q9yn3"
        string_val: "9q9k4n"
        string_val: "9qc00u"
        string_val: "9qc8rc"
        string_val: "9qbv97"
        string_val: "dqctep"
        string_val: "9qc9pd"
        string_val: "9q5bc7"
        string_val: "dp4d1n"
        string_val: "9qc1k8"
        string_val: "9q9pb7"
        string_val: "9q5bc9"
        string_val: "9q9qbv"
        string_val: "9q9p1k"
        string_val: "9rcfb5"
        string_val: "9q9d97"
        string_val: "9q6mtt"
        string_val: "9q9yxg"
        string_val: "dp4d60"
        string_val: "dp4d44"
        string_val: "9q9p8y"
        string_val: "9q9rbv"
        string_val: "9q8yyp"
        string_val: "9q8zzk"
        string_val: "9q96hb"
        string_val: "9qdn20"
        string_val: "9q97pt"
        string_val: "9q9p48"
        string_val: "9qceze"
        string_val: "9q9xpd"
        string_val: "9q9nck"
        string_val: "9q8ytx"
        string_val: "9q8yqq"
        string_val: "9q9hxd"
        string_val: "9qc38j"
        string_val: "9q9pw3"
        string_val: "9q9pd0"
        string_val: "9qc0ff"
        string_val: "9qc1xw"
        string_val: "9q8ytc"
        string_val: "9q9qch"
        string_val: "9qc0s0"
        string_val: "9q9q45"
        string_val: "9qdngn"
        string_val: "9q9jx0"
        string_val: "9q9hwu"
        string_val: "9q8yv0"
        string_val: "9q9kde"
        string_val: "9q8ytt"
        string_val: "9r4c5b"
        string_val: "9qbesk"
        string_val: "9q9nqv"
        string_val: "9q9ycu"
        string_val: "9q9k40"
        string_val: "9qcgcz"
        string_val: "9q9k4j"
        string_val: "9qc8n7"
        string_val: "9q8zek"
        string_val: "9q9q6f"
        string_val: "9q9jwm"
        string_val: "9qc8pn"
        string_val: "dqctdn"
        string_val: "9qc24m"
        string_val: "9qcc62"
        string_val: "9rcfb5"
        string_val: "9rcdxf"
        string_val: "9r4c46"
        string_val: "9q9pqq"
        string_val: "9q8ywr"
        string_val: "9q9d9k"
        string_val: "9qc7m8"
        string_val: "9q9pyv"
        string_val: "9qc0ng"
        string_val: "9q9ng6"
        string_val: "9q9nfs"
        string_val: "9q9nms"
        string_val: "drdv4t"
        string_val: "9q9ycx"
        string_val: "9q9k54"
        string_val: "9q8yy1"
        string_val: "9q9nfd"
        string_val: "9q9yxe"
        string_val: "9qc2hb"
        string_val: "9qc8p9"
        string_val: "9q8yy5"
        string_val: "9q9j50"
        string_val: "9q9pqd"
        string_val: "9q9j4z"
        string_val: "9q9jhn"
        string_val: "9q9p33"
        string_val: "9q8yu2"
        string_val: "9qbesn"
        string_val: "9qbsb9"
        string_val: "9qc82k"
        string_val: "9qcb00"
        string_val: "9q9yxu"
        string_val: "9qc8qk"
        string_val: "9rcdz7"
        string_val: "9q9prd"
        string_val: "9q9k6k"
        string_val: "9q9kf5"
        string_val: "9q9hux"
        string_val: "9qc8n7"
        string_val: "9q9p1e"
        string_val: "9r4bfx"
        string_val: "9q9k7b"
        string_val: "9qbv9x"
        string_val: "9q9k1r"
        string_val: "9qcet0"
        string_val: "9q964w"
        string_val: "9q9p1u"
        string_val: "9q9p1v"
        string_val: "9q8yjw"
        string_val: "9q8yy2"
        string_val: "9q9p65"
        string_val: "9q8yyu"
        string_val: "9q9pb4"
        string_val: "9qc1y4"
        string_val: "9qc1x9"
        string_val: "9q9r40"
        string_val: "dp4d13"
        string_val: "9q9j5h"
        string_val: "9q8ytv"
        string_val: "9q9hvq"
        string_val: "9q94r4"
        string_val: "9qc1wp"
        string_val: "9q8zeh"
        string_val: "9q8ytt"
        string_val: "9q8ysx"
        string_val: "9qcu40"
        string_val: "9q8ywg"
        string_val: "9qc01k"
        string_val: "9q9p50"
        string_val: "9qc269"
        string_val: "9q9m3x"
        string_val: "9q9m3j"
        string_val: "9q9ke6"
        string_val: "9q9vyj"
        string_val: "9q9yyw"
        string_val: "9q9ngv"
        string_val: "9q9qcv"
        string_val: "9q9k8b"
        string_val: "9q9z1m"
        string_val: "9qc1bv"
        string_val: "drdv4q"
        string_val: "9q9r18"
        string_val: "9q9m2x"
        string_val: "9qc8rr"
        string_val: "9qc2h3"
        string_val: "9q9xzn"
        string_val: "dp4d46"
        string_val: "9qdncf"
        string_val: "9q9pb7"
        string_val: "9q9hrc"
        string_val: "9q7ntf"
        string_val: "9q8vye"
        string_val: "9qc25u"
        string_val: "9qcsp8"
        string_val: "9q9pc0"
        string_val: "9qc7qb"
        string_val: "9qc8zv"
        string_val: "9qbb1b"
        string_val: "9q9p5b"
        string_val: "dp4d60"
        string_val: "9qc01x"
        string_val: "9q97fr"
        string_val: "9qc8nt"
        string_val: "9qc0j7"
        string_val: "9qc1bn"
        string_val: "9q8yyy"
        string_val: "9qdn85"
        string_val: "9qcu11"
        string_val: "dqcten"
        string_val: "9q9p1f"
        string_val: "9q5bc6"
        string_val: "9q8zxv"
        string_val: "9q97gu"
        string_val: "9q9hz3"
        string_val: "9q9qmm"
        string_val: "9qcb20"
        string_val: "9qc8n0"
        string_val: "9q9pwz"
        string_val: "9q9yg9"
        string_val: "9q9pmy"
        string_val: "9q9p9b"
        string_val: "9q9kb0"
        string_val: "9q9kf2"
        string_val: "9q9xxz"
        string_val: "9qcgb3"
        string_val: "9qc3bs"
        string_val: "9qc001"
        string_val: "9q9prb"
        string_val: "9qbhg8"
        string_val: "9q9jxm"
        string_val: "9q9pzz"
        string_val: "9qc0fb"
        string_val: "9qc0fm"
        string_val: "9q9r4k"
        string_val: "9q9znc"
        string_val: "9q97fm"
        string_val: "9q8yyv"
        string_val: "9q9r0z"
        string_val: "9q8ytj"
        string_val: "9qc7kf"
        string_val: "9q8yyu"
        string_val: "9q8yyw"
        string_val: "9q9pvq"
        string_val: "9q8yxk"
        string_val: "9qbdzc"
        string_val: "9q9hgp"
        string_val: "9q9nur"
        string_val: "9q9pb5"
        string_val: "9qc04n"
        string_val: "9qc62b"
        string_val: "9q9jyb"
        string_val: "9q8yyh"
        string_val: "9q5bcc"
        string_val: "9q8ysv"
        string_val: "9q9d8t"
        string_val: "9q9kcw"
        string_val: "9q9pbj"
        string_val: "9q9z1q"
        string_val: "9q8ytj"
        string_val: "9qbb4d"
        string_val: "9q9k6e"
        string_val: "9qcetj"
        string_val: "9qc8n7"
        string_val: "9q9ryr"
        string_val: "9qc8zz"
        string_val: "9q9ry6"
        string_val: "9q9z1d"
        string_val: "9q9z1m"
        string_val: "9q9pyw"
        string_val: "9q9htz"
        string_val: "dqctep"
        string_val: "9q5b9u"
        string_val: "9qbf6t"
        string_val: "9qbfdj"
        string_val: "9q9d8e"
        string_val: "9q9kew"
        string_val: "9q9k3f"
        string_val: "9qc2hw"
        string_val: "9q9rbk"
        string_val: "9q9kf3"
        string_val: "9q9rty"
        string_val: "9q9p15"
        string_val: "dp4d64"
        string_val: "9q9kf1"
        string_val: "9q9k10"
        string_val: "9q9m8f"
        string_val: "9q9key"
        string_val: "9q9x8g"
        string_val: "9q9prc"
        string_val: "9q9qk8"
        string_val: "9qc1we"
        string_val: "9q9pbz"
        string_val: "9q9xyz"
        string_val: "9qcesg"
        string_val: "9q9p4j"
        string_val: "dqctex"
        string_val: "9q9hw0"
        string_val: "9r4bfx"
        string_val: "9q8ysy"
        string_val: "9qc0dz"
        string_val: "9q9qks"
        string_val: "9q9nf0"
        string_val: "9q9kk1"
        string_val: "9q9k2f"
        string_val: "9q8yvh"
        string_val: "9q9ycx"
        string_val: "9q8z7z"
        string_val: "9q9jwg"
        string_val: "9qbf0h"
        string_val: "9qc01r"
        string_val: "9q9r01"
        string_val: "9qc384"
        string_val: "9q9z1p"
        string_val: "9qc9pd"
        string_val: "9q9p1v"
        string_val: "9qc7ms"
        string_val: "9q8yvb"
        string_val: "9qc0pn"
        string_val: "9q9k2r"
        string_val: "9q9p36"
        string_val: "9q8yyv"
        string_val: "9q8yvu"
        string_val: "9qc2hm"
        string_val: "9qc9pd"
        string_val: "9q9661"
        string_val: "9qc11y"
        string_val: "9q9k5g"
        string_val: "9q9jy2"
        string_val: "9q9ynh"
        string_val: "9q9k4e"
        string_val: "9q9kkr"
        string_val: "9qc60e"
        string_val: "9rcdzg"
        string_val: "9q9ngb"
        string_val: "9q9pse"
        string_val: "9q8yyx"
        string_val: "9q9hz8"
        string_val: "9q9ypq"
        string_val: "9q9p4t"
        string_val: "9q9j5s"
        string_val: "9qc8zv"
        string_val: "9qc8qz"
        string_val: "9q8z7r"
        string_val: "9q9net"
        string_val: "9q9j9g"
        string_val: "9q7nv9"
        string_val: "9qbeu0"
        string_val: "9q8vxe"
        string_val: "9q8yyz"
        string_val: "9q9p8j"
        string_val: "9q97un"
        string_val: "9q9wu9"
        string_val: "9q9z0j"
        string_val: "9q9wef"
        string_val: "9q9z16"
        string_val: "9q9qcg"
        string_val: "9q9kdz"
        string_val: "9qcet7"
        string_val: "9r4c5c"
        string_val: "9q97v1"
        string_val: "9qc8qq"
        string_val: "9q7nmq"
        string_val: "9qc8qu"
        string_val: "9q8zz2"
        string_val: "9q8yyv"
        string_val: "dqcteq"
        string_val: "9q7nt7"
        string_val: "9qc8zz"
        string_val: "9qc8n0"
        string_val: "9q9k7f"
        string_val: "9q9627"
        string_val: "9q9pyg"
        string_val: "9q9p5n"
        string_val: "9q9k4q"
        string_val: "9q9p1u"
        string_val: "9q6mt4"
        string_val: "9q9p3n"
        string_val: "9q93gb"
        string_val: "9qc9xz"
        string_val: "9q9k7q"
        string_val: "9qbf8m"
        string_val: "9q5bf0"
        string_val: "9q9ke5"
        string_val: "9q8ykw"
        string_val: "9qc0pu"
        string_val: "9q97uk"
        string_val: "9q8zyb"
        string_val: "9qc2hq"
        string_val: "9q978r"
        string_val: "9q9ycu"
        string_val: "9q8yy1"
        string_val: "9qdn26"
        string_val: "9q9r1e"
        string_val: "9qc8nc"
        string_val: "9q9ng9"
        string_val: "9q8zgt"
        string_val: "9q9k2v"
        string_val: "9qbb49"
        string_val: "9q9k6g"
        string_val: "9q9k77"
        string_val: "9q99qj"
        string_val: "9qbb48"
        string_val: "9q8yw5"
        string_val: "9q9kc8"
        string_val: "9q9zc4"
        string_val: "9q8yyu"
        string_val: "dp4d4n"
        string_val: "9q8zeu"
        string_val: "9q9j4f"
        string_val: "9q9d95"
        string_val: "9q9hvd"
        string_val: "9q8yyq"
        string_val: "9q9r4k"
        string_val: "9q97bg"
        string_val: "9q9rz0"
        string_val: "9rcfb4"
        string_val: "9q9nf5"
        string_val: "9q9p1w"
        string_val: "9qcu0e"
        string_val: "9qc8p8"
        string_val: "9q9jyb"
        string_val: "9q9nf4"
        string_val: "dp4d4z"
        string_val: "9q9p8r"
        string_val: "9q9ynv"
        string_val: "9rcfbh"
        string_val: "9q9qcv"
        string_val: "9q9pd1"
        string_val: "9q9k7j"
        string_val: "9q97fg"
        string_val: "9q9pw0"
        string_val: "9q7ny0"
        string_val: "9qc11v"
        string_val: "9q9ycr"
        string_val: "9q9r19"
        string_val: "9qcugg"
        string_val: "9qc3bs"
        string_val: "9q9jdn"
        string_val: "9q9k8z"
        string_val: "9q9p4j"
        string_val: "dqct9v"
        string_val: "9q9r42"
        string_val: "9q9pyg"
        string_val: "9q9jrx"
        string_val: "9q9kke"
        string_val: "9q9num"
        string_val: "9rcdxu"
        string_val: "9q9m41"
        string_val: "9qc202"
        string_val: "9q9p5t"
        string_val: "9q9x8u"
        string_val: "9q7ntb"
        string_val: "9qc0hu"
        string_val: "9qc0s0"
        string_val: "9q8yyy"
        string_val: "9q97bk"
        string_val: "9q8yyy"
        string_val: "9qc8zf"
        string_val: "drdv4m"
        string_val: "9q9xp9"
        string_val: "9q9wep"
        string_val: "9q8vjg"
        string_val: "9q8yyk"
        string_val: "9q9666"
        string_val: "9q9k72"
        string_val: "dqct9t"
        string_val: "9qc8nc"
        string_val: "9q9ng7"
        string_val: "9qbdxz"
        string_val: "9qcb02"
        string_val: "9q9nmj"
        string_val: "9q9z17"
        string_val: "9qc8qt"
        string_val: "9qbf5z"
        string_val: "9q9ps5"
        string_val: "9r4c51"
        string_val: "9qc7mk"
        string_val: "9q8yy4"
        string_val: "9qc9xk"
        string_val: "9q9xyx"
        string_val: "9q9r1j"
        string_val: "9q9qbx"
        string_val: "9q9k64"
        string_val: "dqctg2"
        string_val: "9qbep3"
        string_val: "9qc3nr"
        string_val: "9q9nsn"
        string_val: "9q9jyg"
        string_val: "9q9rbx"
        string_val: "9q9p94"
        string_val: "9q7nv8"
        string_val: "9q9z8z"
        string_val: "9q9zc7"
        string_val: "9qbf9y"
        string_val: "9q9k9c"
        string_val: "dqctex"
        string_val: "9q9khf"
        string_val: "dp4d4q"
        string_val: "9q9vzy"
        string_val: "9q9k2s"
      }
    }
  }
}
node {
  name: "SparseTensor/dense_shape"
  op: "Const"
  attr {
    key: "_output_shapes"
    value {
      list {
        shape {
          dim {
            size: 2
          }
        }
      }
    }
  }
  attr {
    key: "dtype"
    value {
      type: DT_INT64
    }
  }
  attr {
    key: "value"
    value {
      tensor {
        dtype: DT_INT64
        tensor_shape {
          dim {
            size: 2
          }
        }
        tensor_content: "\314\t\000\000\000\000\000\000\001\000\000\000\000\000\000\000"
      }
    }
  }
}
node {
  name: "SparseTensor_1/indices"
  op: "Const"
  attr {
    key: "_output_shapes"
    value {
      list {
        shape {
          dim {
            size: 2508
          }
          dim {
            size: 2
          }
        }
      }
    }
  }
  attr {
    key: "dtype"
    value {
      type: DT_INT64
    }
  }
  attr {
    key: "value"
    value {
      tensor {
        dtype: DT_INT64
        tensor_shape {
          dim {
            size: 2508
          }
          dim {
            size: 2
          }
        }
        tensor_content: "…"
      }
    }
  }
}
node {
  name: "SparseTensor_1/values"
  op: "Const"
  attr {
    key: "_output_shapes"
    value {
      list {
        shape {
          dim {
            size: 2508
          }
        }
      }
    }
  }
  attr {
    key: "dtype"
    value {
      type: DT_STRING
    }
  }
  attr {
    key: "value"
    value {
      tensor {
        dtype: DT_STRING
        tensor_shape {
          dim {
            size: 2508
          }
        }
        string_val: "Single Family"
        string_val: "Single Family"
        string_val: "Single Family"
        string_val: "Single Family"
        string_val: "Single Family"
        string_val: "Condo"
        string_val: "Single Family"
        string_val: "Single Family"
        string_val: "Single Family"
        string_val: "Single Family"
        string_val: "Single Family"
        string_val: "Single Family"
        string_val: "Condo"
        string_val: "Single Family"
        string_val: "Single Family"
        string_val: "Single Family"
        string_val: "Single Family"
        string_val: "Condo"
        string_val: "Single Family"
        string_val: "Single Family"
        string_val: "Single Family"
        string_val: "Single Family"
        string_val: "Single Family"
        string_val: "Single Family"
        string_val: "Single Family"
        string_val: "Single Family"
        string_val: "Single Family"
        string_val: "Condo"
        string_val: "Single Family"
        string_val: "Single Family"
        string_val: "Condo"
        string_val: "Single Family"
        string_val: "Single Family"
        string_val: "Condo"
        string_val: "Single Family"
        string_val: "Single Family"
        string_val: "Single Family"
        string_val: "Single Family"
        string_val: "Single Family"
        string_val: "Single Family"
        string_val: "Single Family"
        string_val: "Single Family"
        string_val: "Single Family"
        string_val: "Single Family"
        string_val: "Single Family"
        string_val: "Single Family"
        string_val: "Single Family"
        string_val: "Single Family"
        string_val: "Single Family"
        string_val: "Single Family"
        string_val: "Single Family"
        string_val: "Single Family"
        string_val: "Single Family"
        string_val: "Townhouse"
        string_val: "Single Family"
        string_val: "Single Family"
        string_val: "Single Family"
        string_val: "Single Family"
        string_val: "Single Family"
        string_val: "Single Family"
        string_val: "Single Family"
        string_val: "Single Family"
        string_val: "Single Family"
        string_val: "Single Family"
        string_val: "Single Family"
        string_val: "Townhouse"
        string_val: "Single Family"
        string_val: "Single Family"
        string_val: "Single Family"
        string_val: "Single Family"
        string_val: "Single Family"
        string_val: "Single Family"
        string_val: "Single Family"
        string_val: "Single Family"
        string_val: "Single Family"
        string_val: "Condo"
        string_val: "Single Family"
        string_val: "Condo"
        string_val: "Single Family"
        string_val: "Single Family"
        string_val: "Condo"
        string_val: "Single Family"
        string_val: "Single Family"
        string_val: "Townhouse"
        string_val: "Single Family"
        string_val: "Condo"
        string_val: "Single Family"
        string_val: "Single Family"
        string_val: "Single Family"
        string_val: "Condo"
        string_val: "Single Family"
        string_val: "Single Family"
        string_val: "Single Family"
        string_val: "Single Family"
        string_val: "Single Family"
        string_val: "Single Family"
        string_val: "Single Family"
        string_val: "Single Family"
        string_val: "Single Family"
        string_val: "Single Family"
        string_val: "Single Family"
        string_val: "Single Family"
        string_val: "Single Family"
        string_val: "Single Family"
        string_val: "Single Family"
        string_val: "Single Family"
        string_val: "Condo"
        string_val: "Single Family"
        string_val: "Single Family"
        string_val: "Condo"
        string_val: "Single Family"
        string_val: "Single Family"
        string_val: "Single Family"
        string_val: "Single Family"
        string_val: "Townhouse"
        string_val: "Single Family"
        string_val: "Single Family"
        string_val: "Single Family"
        string_val: "Condo"
        string_val: "Single Family"
        string_val: "Condo"
        string_val: "Single Family"
        string_val: "Townhouse"
        string_val: "Single Family"
        string_val: "Single Family"
        string_val: "Single Family"
        string_val: "Single Family"
        string_val: "Single Family"
        string_val: "Single Family"
        string_val: "Single Family"
        string_val: "Single Family"
        string_val: "Single Family"
        string_val: "Single Family"
        string_val: "Single Family"
        string_val: "Single Family"
        string_val: "Single Family"
        string_val: "Single Family"
        string_val: "Single Family"
        string_val: "Single Family"
        string_val: "Single Family"
        string_val: "Single Family"
        string_val: "Single Family"
        string_val: "Condo"
        string_val: "Single Family"
        string_val: "Single Family"
        string_val: "Single Family"
        string_val: "Single Family"
        string_val: "Single Family"
        string_val: "Single Family"
        string_val: "Single Family"
        string_val: "Single Family"
        string_val: "Condo"
        string_val: "Single Family"
        string_val: "Condo"
        string_val: "Single Family"
        string_val: "Single Family"
        string_val: "Single Family"
        string_val: "Single Family"
        string_val: "Condo"
        string_val: "Single Family"
        string_val: "Townhouse"
        string_val: "Single Family"
        string_val: "Single Family"
        string_val: "Single Family"
        string_val: "Single Family"
        string_val: "Single Family"
        string_val: "Condo"
        string_val: "Single Family"
        string_val: "Single Family"
        string_val: "Single Family"
        string_val: "Condo"
        string_val: "Single Family"
        string_val: "Single Family"
        string_val: "Single Family"
        string_val: "Single Family"
        string_val: "Single Family"
        string_val: "Single Family"
        string_val: "Single Family"
        string_val: "Single Family"
        string_val: "Single Family"
        string_val: "Single Family"
        string_val: "Condo"
        string_val: "Condo"
        string_val: "Condo"
        string_val: "Single Family"
        string_val: "Condo"
        string_val: "Condo"
        string_val: "Single Family"
        string_val: "Condo"
        string_val: "Condo"
        string_val: "Single Family"
        string_val: "Condo"
        string_val: "Condo"
        string_val: "Single Family"
        string_val: "Single Family"
        string_val: "Single Family"
        string_val: "Single Family"
        string_val: "Single Family"
        string_val: "Single Family"
        string_val: "Single Family"
        string_val: "Single Family"
        string_val: "Single Family"
        string_val: "Condo"
        string_val: "Townhouse"
        string_val: "Single Family"
        string_val: "Townhouse"
        string_val: "Single Family"
        string_val: "Townhouse"
        string_val: "Single Family"
        string_val: "Single Family"
        string_val: "Single Family"
        string_val: "Single Family"
        string_val: "Single Family"
        string_val: "Single Family"
        string_val: "Single Family"
        string_val: "Single Family"
        string_val: "Single Family"
        string_val: "Single Family"
        string_val: "Single Family"
        string_val: "Single Family"
        string_val: "Single Family"
        string_val: "Single Family"
        string_val: "Single Family"
        string_val: "Single Family"
        string_val: "Single Family"
        string_val: "Single Family"
        string_val: "Single Family"
        string_val: "Single Family"
        string_val: "Single Family"
        string_val: "Single Family"
        string_val: "Single Family"
        string_val: "Single Family"
        string_val: "Single Family"
        string_val: "Single Family"
        string_val: "Single Family"
        string_val: "Single Family"
        string_val: "Single Family"
        string_val: "Single Family"
        string_val: "Townhouse"
        string_val: "Single Family"
        string_val: "Condo"
        string_val: "Single Family"
        string_val: "Single Family"
        string_val: "Single Family"
        string_val: "Townhouse"
        string_val: "Single Family"
        string_val: "Single Family"
        string_val: "Single Family"
        string_val: "Single Family"
        string_val: "Single Family"
        string_val: "Single Family"
        string_val: "Single Family"
        string_val: "Single Family"
        string_val: "Single Family"
        string_val: "Single Family"
        string_val: "Single Family"
        string_val: "Single Family"
        string_val: "Single Family"
        string_val: "Single Family"
        string_val: "Condo"
        string_val: "Single Family"
        string_val: "Condo"
        string_val: "Single Family"
        string_val: "Single Family"
        string_val: "Single Family"
        string_val: "Single Family"
        string_val: "Single Family"
        string_val: "Single Family"
        string_val: "Single Family"
        string_val: "Single Family"
        string_val: "Condo"
        string_val: "Single Family"
        string_val: "Condo"
        string_val: "Single Family"
        string_val: "Single Family"
        string_val: "Single Family"
        string_val: "Single Family"
        string_val: "Single Family"
        string_val: "Single Family"
        string_val: "Single Family"
        string_val: "Single Family"
        string_val: "Single Family"
        string_val: "Single Family"
        string_val: "Single Family"
        string_val: "Single Family"
        string_val: "Single Family"
        string_val: "Single Family"
        string_val: "Single Family"
        string_val: "Condo"
        string_val: "Single Family"
        string_val: "Single Family"
        string_val: "Single Family"
        string_val: "Single Family"
        string_val: "Single Family"
        string_val: "Condo"
        string_val: "Single Family"
        string_val: "Condo"
        string_val: "Multi Family"
        string_val: "Single Family"
        string_val: "Single Family"
        string_val: "Single Family"
        string_val: "Single Family"
        string_val: "Single Family"
        string_val: "Townhouse"
        string_val: "Single Family"
        string_val: "Single Family"
        string_val: "Single Family"
        string_val: "Single Family"
        string_val: "Single Family"
        string_val: "Single Family"
        string_val: "Single Family"
        string_val: "Single Family"
        string_val: "Single Family"
        string_val: "Single Family"
        string_val: "Single Family"
        string_val: "Townhouse"
        string_val: "Single Family"
        string_val: "Single Family"
        string_val: "Townhouse"
        string_val: "Single Family"
        string_val: "Single Family"
        string_val: "Condo"
        string_val: "Single Family"
        string_val: "Single Family"
        string_val: "Single Family"
        string_val: "Condo"
        string_val: "Single Family"
        string_val: "Single Family"
        string_val: "Single Family"
        string_val: "Single Family"
        string_val: "Single Family"
        string_val: "Single Family"
        string_val: "Single Family"
        string_val: "Single Family"
        string_val: "Single Family"
        string_val: "Condo"
        string_val: "Condo"
        string_val: "Single Family"
        string_val: "Single Family"
        string_val: "Single Family"
        string_val: "Single Family"
        string_val: "Condo"
        string_val: "Single Family"
        string_val: "Single Family"
        string_val: "Single Family"
        string_val: "Single Family"
        string_val: "Single Family"
        string_val: "Single Family"
        string_val: "Single Family"
        string_val: "Single Family"
        string_val: "Single Family"
        string_val: "Single Family"
        string_val: "Single Family"
        string_val: "Single Family"
        string_val: "Single Family"
        string_val: "Single Family"
        string_val: "Single Family"
        string_val: "Single Family"
        string_val: "Single Family"
        string_val: "Single Family"
        string_val: "Single Family"
        string_val: "Single Family"
        string_val: "Single Family"
        string_val: "Townhouse"
        string_val: "Single Family"
        string_val: "Single Family"
        string_val: "Single Family"
        string_val: "Single Family"
        string_val: "Single Family"
        string_val: "Single Family"
        string_val: "Single Family"
        string_val: "Condo"
        string_val: "Single Family"
        string_val: "Condo"
        string_val: "Single Family"
        string_val: "Single Family"
        string_val: "Single Family"
        string_val: "Single Family"
        string_val: "Condo"
        string_val: "Single Family"
        string_val: "Single Family"
        string_val: "Single Family"
        string_val: "Single Family"
        string_val: "Single Family"
        string_val: "Townhouse"
        string_val: "Single Family"
        string_val: "Single Family"
        string_val: "Single Family"
        string_val: "Single Family"
        string_val: "Single Family"
        string_val: "Single Family"
        string_val: "Single Family"
        string_val: "Single Family"
        string_val: "Single Family"
        string_val: "Condo"
        string_val: "Single Family"
        string_val: "Single Family"
        string_val: "Single Family"
        string_val: "Single Family"
        string_val: "Single Family"
        string_val: "Single Family"
        string_val: "Condo"
        string_val: "Single Family"
        string_val: "Single Family"
        string_val: "Single Family"
        string_val: "Condo"
        string_val: "Single Family"
        string_val: "Single Family"
        string_val: "Single Family"
        string_val: "Single Family"
        string_val: "Single Family"
        string_val: "Single Family"
        string_val: "Single Family"
        string_val: "Single Family"
        string_val: "Single Family"
        string_val: "Condo"
        string_val: "Condo"
        string_val: "Single Family"
        string_val: "Single Family"
        string_val: "Single Family"
        string_val: "Single Family"
        string_val: "Single Family"
        string_val: "Single Family"
        string_val: "Single Family"
        string_val: "Condo"
        string_val: "Single Family"
        string_val: "Condo"
        string_val: "Single Family"
        string_val: "Single Family"
        string_val: "Single Family"
        string_val: "Single Family"
        string_val: "Single Family"
        string_val: "Single Family"
        string_val: "Single Family"
        string_val: "Single Family"
        string_val: "Single Family"
        string_val: "Condo"
        string_val: "Single Family"
        string_val: "Single Family"
        string_val: "Single Family"
        string_val: "Single Family"
        string_val: "Single Family"
        string_val: "Single Family"
        string_val: "Single Family"
        string_val: "Single Family"
        string_val: "Single Family"
        string_val: "Condo"
        string_val: "Single Family"
        string_val: "Single Family"
        string_val: "Single Family"
        string_val: "Single Family"
        string_val: "Single Family"
        string_val: "Condo"
        string_val: "Single Family"
        string_val: "Townhouse"
        string_val: "Single Family"
        string_val: "Multi Family"
        string_val: "Single Family"
        string_val: "Single Family"
        string_val: "Single Family"
        string_val: "Condo"
        string_val: "Single Family"
        string_val: "Single Family"
        string_val: "Single Family"
        string_val: "Single Family"
        string_val: "Single Family"
        string_val: "Condo"
        string_val: "Single Family"
        string_val: "Single Family"
        string_val: "Single Family"
        string_val: "Single Family"
        string_val: "Single Family"
        string_val: "Single Family"
        string_val: "Single Family"
        string_val: "Single Family"
        string_val: "Single Family"
        string_val: "Single Family"
        string_val: "Condo"
        string_val: "Single Family"
        string_val: "Single Family"
        string_val: "Single Family"
        string_val: "Single Family"
        string_val: "Single Family"
        string_val: "Single Family"
        string_val: "Single Family"
        string_val: "Single Family"
        string_val: "Single Family"
        string_val: "Single Family"
        string_val: "Single Family"
        string_val: "Single Family"
        string_val: "Single Family"
        string_val: "Condo"
        string_val: "Single Family"
        string_val: "Single Family"
        string_val: "Single Family"
        string_val: "Single Family"
        string_val: "Single Family"
        string_val: "Single Family"
        string_val: "Single Family"
        string_val: "Single Family"
        string_val: "Single Family"
        string_val: "Condo"
        string_val: "Single Family"
        string_val: "Condo"
        string_val: "Single Family"
        string_val: "Townhouse"
        string_val: "Single Family"
        string_val: "Single Family"
        string_val: "Single Family"
        string_val: "Single Family"
        string_val: "Single Family"
        string_val: "Single Family"
        string_val: "Single Family"
        string_val: "Condo"
        string_val: "Single Family"
        string_val: "Single Family"
        string_val: "Condo"
        string_val: "Single Family"
        string_val: "Single Family"
        string_val: "Single Family"
        string_val: "Single Family"
        string_val: "Single Family"
        string_val: "Condo"
        string_val: "Single Family"
        string_val: "Condo"
        string_val: "Townhouse"
        string_val: "Single Family"
        string_val: "Single Family"
        string_val: "Single Family"
        string_val: "Single Family"
        string_val: "Single Family"
        string_val: "Townhouse"
        string_val: "Single Family"
        string_val: "Single Family"
        string_val: "Single Family"
        string_val: "Condo"
        string_val: "Single Family"
        string_val: "Single Family"
        string_val: "Single Family"
        string_val: "Single Family"
        string_val: "Single Family"
        string_val: "Single Family"
        string_val: "Single Family"
        string_val: "Single Family"
        string_val: "Single Family"
        string_val: "Townhouse"
        string_val: "Townhouse"
        string_val: "Townhouse"
        string_val: "Single Family"
        string_val: "Single Family"
        string_val: "Single Family"
        string_val: "Single Family"
        string_val: "Single Family"
        string_val: "Single Family"
        string_val: "Single Family"
        string_val: "Single Family"
        string_val: "Condo"
        string_val: "Single Family"
        string_val: "Single Family"
        string_val: "Single Family"
        string_val: "Single Family"
        string_val: "Single Family"
        string_val: "Single Family"
        string_val: "Single Family"
        string_val: "Single Family"
        string_val: "Condo"
        string_val: "Single Family"
        string_val: "Single Family"
        string_val: "Single Family"
        string_val: "Single Family"
        string_val: "Single Family"
        string_val: "Single Family"
        string_val: "Single Family"
        string_val: "Condo"
        string_val: "Single Family"
        string_val: "Single Family"
        string_val: "Single Family"
        string_val: "Single Family"
        string_val: "Single Family"
        string_val: "Single Family"
        string_val: "Single Family"
        string_val: "Single Family"
        string_val: "Single Family"
        string_val: "Townhouse"
        string_val: "Single Family"
        string_val: "Single Family"
        string_val: "Single Family"
        string_val: "Single Family"
        string_val: "Single Family"
        string_val: "Single Family"
        string_val: "Single Family"
        string_val: "Single Family"
        string_val: "Single Family"
        string_val: "Condo"
        string_val: "Single Family"
        string_val: "Condo"
        string_val: "Single Family"
        string_val: "Condo"
        string_val: "Single Family"
        string_val: "Single Family"
        string_val: "Single Family"
        string_val: "Single Family"
        string_val: "Single Family"
        string_val: "Single Family"
        string_val: "Townhouse"
        string_val: "Single Family"
        string_val: "Single Family"
        string_val: "Single Family"
        string_val: "Single Family"
        string_val: "Single Family"
        string_val: "Single Family"
        string_val: "Single Family"
        string_val: "Single Family"
        string_val: "Condo"
        string_val: "Condo"
        string_val: "Single Family"
        string_val: "Condo"
        string_val: "Single Family"
        string_val: "Single Family"
        string_val: "Single Family"
        string_val: "Single Family"
        string_val: "Single Family"
        string_val: "Single Family"
        string_val: "Single Family"
        string_val: "Single Family"
        string_val: "Single Family"
        string_val: "Single Family"
        string_val: "Single Family"
        string_val: "Single Family"
        string_val: "Townhouse"
        string_val: "Single Family"
        string_val: "Single Family"
        string_val: "Condo"
        string_val: "Townhouse"
        string_val: "Condo"
        string_val: "Single Family"
        string_val: "Condo"
        string_val: "Single Family"
        string_val: "Single Family"
        string_val: "Single Family"
        string_val: "Single Family"
        string_val: "Townhouse"
        string_val: "Single Family"
        string_val: "Single Family"
        string_val: "Single Family"
        string_val: "Single Family"
        string_val: "Single Family"
        string_val: "Condo"
        string_val: "Single Family"
        string_val: "Single Family"
        string_val: "Single Family"
        string_val: "Single Family"
        string_val: "Single Family"
        string_val: "Single Family"
        string_val: "Single Family"
        string_val: "Single Family"
        string_val: "Single Family"
        string_val: "Single Family"
        string_val: "Condo"
        string_val: "Condo"
        string_val: "Single Family"
        string_val: "Single Family"
        string_val: "Single Family"
        string_val: "Single Family"
        string_val: "Single Family"
        string_val: "Single Family"
        string_val: "Single Family"
        string_val: "Condo"
        string_val: "Single Family"
        string_val: "Single Family"
        string_val: "Single Family"
        string_val: "Single Family"
        string_val: "Single Family"
        string_val: "Single Family"
        string_val: "Single Family"
        string_val: "Condo"
        string_val: "Single Family"
        string_val: "Condo"
        string_val: "Single Family"
        string_val: "Single Family"
        string_val: "Single Family"
        string_val: "Single Family"
        string_val: "Condo"
        string_val: "Condo"
        string_val: "Single Family"
        string_val: "Condo"
        string_val: "Condo"
        string_val: "Single Family"
        string_val: "Single Family"
        string_val: "Condo"
        string_val: "Single Family"
        string_val: "Condo"
        string_val: "Single Family"
        string_val: "Single Family"
        string_val: "Single Family"
        string_val: "Single Family"
        string_val: "Single Family"
        string_val: "Condo"
        string_val: "Single Family"
        string_val: "Single Family"
        string_val: "Single Family"
        string_val: "Condo"
        string_val: "Single Family"
        string_val: "Single Family"
        string_val: "Single Family"
        string_val: "Single Family"
        string_val: "Single Family"
        string_val: "Single Family"
        string_val: "Single Family"
        string_val: "Condo"
        string_val: "Single Family"
        string_val: "Single Family"
        string_val: "Single Family"
        string_val: "Single Family"
        string_val: "Single Family"
        string_val: "Single Family"
        string_val: "Condo"
        string_val: "Single Family"
        string_val: "Single Family"
        string_val: "Single Family"
        string_val: "Single Family"
        string_val: "Single Family"
        string_val: "Single Family"
        string_val: "Single Family"
        string_val: "Single Family"
        string_val: "Single Family"
        string_val: "Condo"
        string_val: "Single Family"
        string_val: "Single Family"
        string_val: "Single Family"
        string_val: "Single Family"
        string_val: "Single Family"
        string_val: "Single Family"
        string_val: "Single Family"
        string_val: "Single Family"
        string_val: "Single Family"
        string_val: "Single Family"
        string_val: "Single Family"
        string_val: "Single Family"
        string_val: "Single Family"
        string_val: "Single Family"
        string_val: "Single Family"
        string_val: "Single Family"
        string_val: "Single Family"
        string_val: "Single Family"
        string_val: "Single Family"
        string_val: "Single Family"
        string_val: "Single Family"
        string_val: "Single Family"
        string_val: "Single Family"
        string_val: "Single Family"
        string_val: "Single Family"
        string_val: "Single Family"
        string_val: "Single Family"
        string_val: "Single Family"
        string_val: "Single Family"
        string_val: "Single Family"
        string_val: "Single Family"
        string_val: "Single Family"
        string_val: "Single Family"
        string_val: "Single Family"
        string_val: "Single Family"
        string_val: "Single Family"
        string_val: "Single Family"
        string_val: "Single Family"
        string_val: "Single Family"
        string_val: "Single Family"
        string_val: "Single Family"
        string_val: "Single Family"
        string_val: "Single Family"
        string_val: "Single Family"
        string_val: "Single Family"
        string_val: "Single Family"
        string_val: "Single Family"
        string_val: "Condo"
        string_val: "Single Family"
        string_val: "Single Family"
        string_val: "Condo"
        string_val: "Single Family"
        string_val: "Single Family"
        string_val: "Condo"
        string_val: "Single Family"
        string_val: "Single Family"
        string_val: "Single Family"
        string_val: "Single Family"
        string_val: "Single Family"
        string_val: "Single Family"
        string_val: "Multi Family"
        string_val: "Single Family"
        string_val: "Single Family"
        string_val: "Single Family"
        string_val: "Single Family"
        string_val: "Single Family"
        string_val: "Single Family"
        string_val: "Single Family"
        string_val: "Single Family"
        string_val: "Single Family"
        string_val: "Single Family"
        string_val: "Single Family"
        string_val: "Single Family"
        string_val: "Single Family"
        string_val: "Single Family"
        string_val: "Single Family"
        string_val: "Townhouse"
        string_val: "Condo"
        string_val: "Single Family"
        string_val: "Single Family"
        string_val: "Single Family"
        string_val: "Single Family"
        string_val: "Single Family"
        string_val: "Single Family"
        string_val: "Single Family"
        string_val: "Single Family"
        string_val: "Condo"
        string_val: "Condo"
        string_val: "Single Family"
        string_val: "Condo"
        string_val: "Condo"
        string_val: "Condo"
        string_val: "Single Family"
        string_val: "Single Family"
        string_val: "Single Family"
        string_val: "Single Family"
        string_val: "Single Family"
        string_val: "Single Family"
        string_val: "Single Family"
        string_val: "Single Family"
        string_val: "Single Family"
        string_val: "Single Family"
        string_val: "Single Family"
        string_val: "Condo"
        string_val: "Single Family"
        string_val: "Single Family"
        string_val: "Single Family"
        string_val: "Single Family"
        string_val: "Single Family"
        string_val: "Single Family"
        string_val: "Single Family"
        string_val: "Single Family"
        string_val: "Single Family"
        string_val: "Condo"
        string_val: "Single Family"
        string_val: "Single Family"
        string_val: "Single Family"
        string_val: "Condo"
        string_val: "Single Family"
        string_val: "Single Family"
        string_val: "Single Family"
        string_val: "Single Family"
        string_val: "Single Family"
        string_val: "Condo"
        string_val: "Condo"
        string_val: "Single Family"
        string_val: "Single Family"
        string_val: "Single Family"
        string_val: "Single Family"
        string_val: "Single Family"
        string_val: "Single Family"
        string_val: "Single Family"
        string_val: "Single Family"
        string_val: "Single Family"
        string_val: "Single Family"
        string_val: "Townhouse"
        string_val: "Single Family"
        string_val: "Single Family"
        string_val: "Single Family"
        string_val: "Single Family"
        string_val: "Single Family"
        string_val: "Single Family"
        string_val: "Single Family"
        string_val: "Single Family"
        string_val: "Single Family"
        string_val: "Single Family"
        string_val: "Single Family"
        string_val: "Single Family"
        string_val: "Single Family"
        string_val: "Single Family"
        string_val: "Single Family"
        string_val: "Townhouse"
        string_val: "Single Family"
        string_val: "Single Family"
        string_val: "Single Family"
        string_val: "Single Family"
        string_val: "Single Family"
        string_val: "Single Family"
        string_val: "Condo"
        string_val: "Single Family"
        string_val: "Single Family"
        string_val: "Single Family"
        string_val: "Single Family"
        string_val: "Single Family"
        string_val: "Single Family"
        string_val: "Townhouse"
        string_val: "Single Family"
        string_val: "Single Family"
        string_val: "Single Family"
        string_val: "Condo"
        string_val: "Single Family"
        string_val: "Single Family"
        string_val: "Single Family"
        string_val: "Single Family"
        string_val: "Single Family"
        string_val: "Single Family"
        string_val: "Single Family"
        string_val: "Single Family"
        string_val: "Single Family"
        string_val: "Single Family"
        string_val: "Single Family"
        string_val: "Single Family"
        string_val: "Single Family"
        string_val: "Condo"
        string_val: "Single Family"
        string_val: "Single Family"
        string_val: "Single Family"
        string_val: "Condo"
        string_val: "Single Family"
        string_val: "Condo"
        string_val: "Single Family"
        string_val: "Single Family"
        string_val: "Single Family"
        string_val: "Single Family"
        string_val: "Single Family"
        string_val: "Single Family"
        string_val: "Single Family"
        string_val: "Single Family"
        string_val: "Single Family"
        string_val: "Single Family"
        string_val: "Single Family"
        string_val: "Single Family"
        string_val: "Single Family"
        string_val: "Single Family"
        string_val: "Single Family"
        string_val: "Single Family"
        string_val: "Single Family"
        string_val: "Single Family"
        string_val: "Single Family"
        string_val: "Condo"
        string_val: "Condo"
        string_val: "Single Family"
        string_val: "Single Family"
        string_val: "Single Family"
        string_val: "Single Family"
        string_val: "Single Family"
        string_val: "Single Family"
        string_val: "Single Family"
        string_val: "Single Family"
        string_val: "Single Family"
        string_val: "Single Family"
        string_val: "Single Family"
        string_val: "Single Family"
        string_val: "Single Family"
        string_val: "Single Family"
        string_val: "Condo"
        string_val: "Single Family"
        string_val: "Single Family"
        string_val: "Single Family"
        string_val: "Condo"
        string_val: "Condo"
        string_val: "Townhouse"
        string_val: "Townhouse"
        string_val: "Condo"
        string_val: "Single Family"
        string_val: "Single Family"
        string_val: "Single Family"
        string_val: "Single Family"
        string_val: "Condo"
        string_val: "Single Family"
        string_val: "Single Family"
        string_val: "Single Family"
        string_val: "Single Family"
        string_val: "Single Family"
        string_val: "Single Family"
        string_val: "Single Family"
        string_val: "Single Family"
        string_val: "Condo"
        string_val: "Single Family"
        string_val: "Single Family"
        string_val: "Single Family"
        string_val: "Single Family"
        string_val: "Single Family"
        string_val: "Single Family"
        string_val: "Single Family"
        string_val: "Single Family"
        string_val: "Condo"
        string_val: "Single Family"
        string_val: "Condo"
        string_val: "Single Family"
        string_val: "Condo"
        string_val: "Single Family"
        string_val: "Single Family"
        string_val: "Single Family"
        string_val: "Single Family"
        string_val: "Single Family"
        string_val: "Single Family"
        string_val: "Single Family"
        string_val: "Single Family"
        string_val: "Single Family"
        string_val: "Single Family"
        string_val: "Condo"
        string_val: "Single Family"
        string_val: "Single Family"
        string_val: "Single Family"
        string_val: "Single Family"
        string_val: "Single Family"
        string_val: "Single Family"
        string_val: "Single Family"
        string_val: "Single Family"
        string_val: "Single Family"
        string_val: "Single Family"
        string_val: "Single Family"
        string_val: "Single Family"
        string_val: "Single Family"
        string_val: "Condo"
        string_val: "Single Family"
        string_val: "Single Family"
        string_val: "Single Family"
        string_val: "Single Family"
        string_val: "Single Family"
        string_val: "Single Family"
        string_val: "Single Family"
        string_val: "Townhouse"
        string_val: "Single Family"
        string_val: "Single Family"
        string_val: "Single Family"
        string_val: "Single Family"
        string_val: "Condo"
        string_val: "Single Family"
        string_val: "Single Family"
        string_val: "Condo"
        string_val: "Single Family"
        string_val: "Single Family"
        string_val: "Condo"
        string_val: "Condo"
        string_val: "Single Family"
        string_val: "Single Family"
        string_val: "Single Family"
        string_val: "Condo"
        string_val: "Multi Family"
        string_val: "Single Family"
        string_val: "Single Family"
        string_val: "Condo"
        string_val: "Townhouse"
        string_val: "Condo"
        string_val: "Single Family"
        string_val: "Single Family"
        string_val: "Multi Family"
        string_val: "Single Family"
        string_val: "Single Family"
        string_val: "Single Family"
        string_val: "Single Family"
        string_val: "Condo"
        string_val: "Condo"
        string_val: "Single Family"
        string_val: "Single Family"
        string_val: "Single Family"
        string_val: "Single Family"
        string_val: "Single Family"
        string_val: "Single Family"
        string_val: "Single Family"
        string_val: "Single Family"
        string_val: "Single Family"
        string_val: "Single Family"
        string_val: "Multi Family"
        string_val: "Single Family"
        string_val: "Townhouse"
        string_val: "Single Family"
        string_val: "Single Family"
        string_val: "Single Family"
        string_val: "Single Family"
        string_val: "Townhouse"
        string_val: "Single Family"
        string_val: "Single Family"
        string_val: "Condo"
        string_val: "Single Family"
        string_val: "Single Family"
        string_val: "Single Family"
        string_val: "Single Family"
        string_val: "Single Family"
        string_val: "Condo"
        string_val: "Single Family"
        string_val: "Single Family"
        string_val: "Single Family"
        string_val: "Single Family"
        string_val: "Single Family"
        string_val: "Single Family"
        string_val: "Single Family"
        string_val: "Single Family"
        string_val: "Condo"
        string_val: "Single Family"
        string_val: "Single Family"
        string_val: "Single Family"
        string_val: "Single Family"
        string_val: "Single Family"
        string_val: "Single Family"
        string_val: "Single Family"
        string_val: "Single Family"
        string_val: "Single Family"
        string_val: "Condo"
        string_val: "Single Family"
        string_val: "Single Family"
        string_val: "Single Family"
        string_val: "Single Family"
        string_val: "Single Family"
        string_val: "Single Family"
        string_val: "Single Family"
        string_val: "Single Family"
        string_val: "Single Family"
        string_val: "Single Family"
        string_val: "Single Family"
        string_val: "Single Family"
        string_val: "Single Family"
        string_val: "Single Family"
        string_val: "Single Family"
        string_val: "Single Family"
        string_val: "Condo"
        string_val: "Single Family"
        string_val: "Single Family"
        string_val: "Single Family"
        string_val: "Single Family"
        string_val: "Single Family"
        string_val: "Single Family"
        string_val: "Single Family"
        string_val: "Single Family"
        string_val: "Single Family"
        string_val: "Condo"
        string_val: "Single Family"
        string_val: "Single Family"
        string_val: "Condo"
        string_val: "Single Family"
        string_val: "Single Family"
        string_val: "Single Family"
        string_val: "Townhouse"
        string_val: "Single Family"
        string_val: "Condo"
        string_val: "Single Family"
        string_val: "Single Family"
        string_val: "Single Family"
        string_val: "Single Family"
        string_val: "Single Family"
        string_val: "Single Family"
        string_val: "Single Family"
        string_val: "Single Family"
        string_val: "Single Family"
        string_val: "Condo"
        string_val: "Single Family"
        string_val: "Single Family"
        string_val: "Single Family"
        string_val: "Single Family"
        string_val: "Single Family"
        string_val: "Single Family"
        string_val: "Single Family"
        string_val: "Single Family"
        string_val: "Single Family"
        string_val: "Single Family"
        string_val: "Single Family"
        string_val: "Townhouse"
        string_val: "Single Family"
        string_val: "Single Family"
        string_val: "Single Family"
        string_val: "Single Family"
        string_val: "Condo"
        string_val: "Single Family"
        string_val: "Single Family"
        string_val: "Townhouse"
        string_val: "Single Family"
        string_val: "Single Family"
        string_val: "Single Family"
        string_val: "Single Family"
        string_val: "Single Family"
        string_val: "Single Family"
        string_val: "Single Family"
        string_val: "Single Family"
        string_val: "Single Family"
        string_val: "Single Family"
        string_val: "Single Family"
        string_val: "Single Family"
        string_val: "Single Family"
        string_val: "Single Family"
        string_val: "Single Family"
        string_val: "Single Family"
        string_val: "Condo"
        string_val: "Single Family"
        string_val: "Single Family"
        string_val: "Single Family"
        string_val: "Single Family"
        string_val: "Single Family"
        string_val: "Condo"
        string_val: "Single Family"
        string_val: "Single Family"
        string_val: "Single Family"
        string_val: "Single Family"
        string_val: "Single Family"
        string_val: "Single Family"
        string_val: "Single Family"
        string_val: "Single Family"
        string_val: "Single Family"
        string_val: "Single Family"
        string_val: "Single Family"
        string_val: "Single Family"
        string_val: "Single Family"
        string_val: "Single Family"
        string_val: "Single Family"
        string_val: "Single Family"
        string_val: "Single Family"
        string_val: "Single Family"
        string_val: "Condo"
        string_val: "Single Family"
        string_val: "Single Family"
        string_val: "Condo"
        string_val: "Single Family"
        string_val: "Condo"
        string_val: "Condo"
        string_val: "Condo"
        string_val: "Single Family"
        string_val: "Single Family"
        string_val: "Single Family"
        string_val: "Single Family"
        string_val: "Condo"
        string_val: "Single Family"
        string_val: "Single Family"
        string_val: "Single Family"
        string_val: "Single Family"
        string_val: "Single Family"
        string_val: "Single Family"
        string_val: "Single Family"
        string_val: "Condo"
        string_val: "Single Family"
        string_val: "Single Family"
        string_val: "Single Family"
        string_val: "Single Family"
        string_val: "Single Family"
        string_val: "Single Family"
        string_val: "Single Family"
        string_val: "Single Family"
        string_val: "Townhouse"
        string_val: "Single Family"
        string_val: "Single Family"
        string_val: "Single Family"
        string_val: "Single Family"
        string_val: "Single Family"
        string_val: "Single Family"
        string_val: "Single Family"
        string_val: "Single Family"
        string_val: "Single Family"
        string_val: "Condo"
        string_val: "Condo"
        string_val: "Single Family"
        string_val: "Single Family"
        string_val: "Single Family"
        string_val: "Single Family"
        string_val: "Single Family"
        string_val: "Single Family"
        string_val: "Single Family"
        string_val: "Single Family"
        string_val: "Single Family"
        string_val: "Single Family"
        string_val: "Condo"
        string_val: "Single Family"
        string_val: "Single Family"
        string_val: "Single Family"
        string_val: "Condo"
        string_val: "Single Family"
        string_val: "Condo"
        string_val: "Single Family"
        string_val: "Single Family"
        string_val: "Single Family"
        string_val: "Single Family"
        string_val: "Condo"
        string_val: "Condo"
        string_val: "Single Family"
        string_val: "Single Family"
        string_val: "Single Family"
        string_val: "Single Family"
        string_val: "Single Family"
        string_val: "Condo"
        string_val: "Single Family"
        string_val: "Single Family"
        string_val: "Single Family"
        string_val: "Townhouse"
        string_val: "Single Family"
        string_val: "Condo"
        string_val: "Single Family"
        string_val: "Single Family"
        string_val: "Single Family"
        string_val: "Single Family"
        string_val: "Single Family"
        string_val: "Single Family"
        string_val: "Single Family"
        string_val: "Single Family"
        string_val: "Single Family"
        string_val: "Condo"
        string_val: "Single Family"
        string_val: "Single Family"
        string_val: "Single Family"
        string_val: "Condo"
        string_val: "Single Family"
        string_val: "Single Family"
        string_val: "Single Family"
        string_val: "Single Family"
        string_val: "Single Family"
        string_val: "Condo"
        string_val: "Single Family"
        string_val: "Townhouse"
        string_val: "Single Family"
        string_val: "Single Family"
        string_val: "Single Family"
        string_val: "Single Family"
        string_val: "Single Family"
        string_val: "Single Family"
        string_val: "Single Family"
        string_val: "Condo"
        string_val: "Single Family"
        string_val: "Single Family"
        string_val: "Single Family"
        string_val: "Single Family"
        string_val: "Townhouse"
        string_val: "Single Family"
        string_val: "Condo"
        string_val: "Condo"
        string_val: "Single Family"
        string_val: "Condo"
        string_val: "Single Family"
        string_val: "Single Family"
        string_val: "Single Family"
        string_val: "Single Family"
        string_val: "Single Family"
        string_val: "Single Family"
        string_val: "Single Family"
        string_val: "Single Family"
        string_val: "Townhouse"
        string_val: "Single Family"
        string_val: "Single Family"
        string_val: "Single Family"
        string_val: "Single Family"
        string_val: "Single Family"
        string_val: "Single Family"
        string_val: "Single Family"
        string_val: "Single Family"
        string_val: "Condo"
        string_val: "Single Family"
        string_val: "Single Family"
        string_val: "Single Family"
        string_val: "Single Family"
        string_val: "Condo"
        string_val: "Single Family"
        string_val: "Condo"
        string_val: "Single Family"
        string_val: "Single Family"
        string_val: "Condo"
        string_val: "Single Family"
        string_val: "Single Family"
        string_val: "Single Family"
        string_val: "Single Family"
        string_val: "Townhouse"
        string_val: "Condo"
        string_val: "Single Family"
        string_val: "Single Family"
        string_val: "Single Family"
        string_val: "Single Family"
        string_val: "Single Family"
        string_val: "Single Family"
        string_val: "Single Family"
        string_val: "Single Family"
        string_val: "Single Family"
        string_val: "Single Family"
        string_val: "Townhouse"
        string_val: "Single Family"
        string_val: "Single Family"
        string_val: "Single Family"
        string_val: "Single Family"
        string_val: "Single Family"
        string_val: "Single Family"
        string_val: "Single Family"
        string_val: "Condo"
        string_val: "Single Family"
        string_val: "Single Family"
        string_val: "Single Family"
        string_val: "Single Family"
        string_val: "Single Family"
        string_val: "Single Family"
        string_val: "Single Family"
        string_val: "Single Family"
        string_val: "Condo"
        string_val: "Condo"
        string_val: "Single Family"
        string_val: "Single Family"
        string_val: "Single Family"
        string_val: "Single Family"
        string_val: "Single Family"
        string_val: "Single Family"
        string_val: "Multi Family"
        string_val: "Single Family"
        string_val: "Single Family"
        string_val: "Single Family"
        string_val: "Single Family"
        string_val: "Single Family"
        string_val: "Single Family"
        string_val: "Single Family"
        string_val: "Condo"
        string_val: "Single Family"
        string_val: "Single Family"
        string_val: "Single Family"
        string_val: "Condo"
        string_val: "Condo"
        string_val: "Single Family"
        string_val: "Single Family"
        string_val: "Single Family"
        string_val: "Single Family"
        string_val: "Single Family"
        string_val: "Single Family"
        string_val: "Condo"
        string_val: "Single Family"
        string_val: "Single Family"
        string_val: "Single Family"
        string_val: "Condo"
        string_val: "Single Family"
        string_val: "Single Family"
        string_val: "Single Family"
        string_val: "Single Family"
        string_val: "Single Family"
        string_val: "Townhouse"
        string_val: "Single Family"
        string_val: "Single Family"
        string_val: "Single Family"
        string_val: "Condo"
        string_val: "Single Family"
        string_val: "Single Family"
        string_val: "Single Family"
        string_val: "Single Family"
        string_val: "Single Family"
        string_val: "Single Family"
        string_val: "Single Family"
        string_val: "Single Family"
        string_val: "Single Family"
        string_val: "Single Family"
        string_val: "Single Family"
        string_val: "Single Family"
        string_val: "Single Family"
        string_val: "Single Family"
        string_val: "Single Family"
        string_val: "Single Family"
        string_val: "Single Family"
        string_val: "Single Family"
        string_val: "Single Family"
        string_val: "Single Family"
        string_val: "Single Family"
        string_val: "Single Family"
        string_val: "Multi Family"
        string_val: "Condo"
        string_val: "Single Family"
        string_val: "Single Family"
        string_val: "Single Family"
        string_val: "Single Family"
        string_val: "Single Family"
        string_val: "Single Family"
        string_val: "Single Family"
        string_val: "Single Family"
        string_val: "Single Family"
        string_val: "Single Family"
        string_val: "Townhouse"
        string_val: "Single Family"
        string_val: "Condo"
        string_val: "Single Family"
        string_val: "Condo"
        string_val: "Single Family"
        string_val: "Single Family"
        string_val: "Single Family"
        string_val: "Single Family"
        string_val: "Single Family"
        string_val: "Condo"
        string_val: "Single Family"
        string_val: "Single Family"
        string_val: "Single Family"
        string_val: "Single Family"
        string_val: "Single Family"
        string_val: "Single Family"
        string_val: "Condo"
        string_val: "Single Family"
        string_val: "Single Family"
        string_val: "Single Family"
        string_val: "Single Family"
        string_val: "Single Family"
        string_val: "Single Family"
        string_val: "Single Family"
        string_val: "Single Family"
        string_val: "Single Family"
        string_val: "Single Family"
        string_val: "Townhouse"
        string_val: "Single Family"
        string_val: "Single Family"
        string_val: "Single Family"
        string_val: "Single Family"
        string_val: "Single Family"
        string_val: "Single Family"
        string_val: "Single Family"
        string_val: "Single Family"
        string_val: "Single Family"
        string_val: "Single Family"
        string_val: "Condo"
        string_val: "Single Family"
        string_val: "Single Family"
        string_val: "Condo"
        string_val: "Single Family"
        string_val: "Condo"
        string_val: "Single Family"
        string_val: "Single Family"
        string_val: "Single Family"
        string_val: "Single Family"
        string_val: "Single Family"
        string_val: "Single Family"
        string_val: "Condo"
        string_val: "Single Family"
        string_val: "Single Family"
        string_val: "Single Family"
        string_val: "Single Family"
        string_val: "Single Family"
        string_val: "Single Family"
        string_val: "Single Family"
        string_val: "Single Family"
        string_val: "Single Family"
        string_val: "Single Family"
        string_val: "Single Family"
        string_val: "Single Family"
        string_val: "Single Family"
        string_val: "Single Family"
        string_val: "Single Family"
        string_val: "Single Family"
        string_val: "Single Family"
        string_val: "Single Family"
        string_val: "Single Family"
        string_val: "Single Family"
        string_val: "Condo"
        string_val: "Single Family"
        string_val: "Single Family"
        string_val: "Single Family"
        string_val: "Single Family"
        string_val: "Single Family"
        string_val: "Townhouse"
        string_val: "Single Family"
        string_val: "Single Family"
        string_val: "Condo"
        string_val: "Single Family"
        string_val: "Single Family"
        string_val: "Condo"
        string_val: "Single Family"
        string_val: "Single Family"
        string_val: "Single Family"
        string_val: "Single Family"
        string_val: "Single Family"
        string_val: "Condo"
        string_val: "Single Family"
        string_val: "Single Family"
        string_val: "Single Family"
        string_val: "Multi Family"
        string_val: "Single Family"
        string_val: "Single Family"
        string_val: "Single Family"
        string_val: "Single Family"
        string_val: "Single Family"
        string_val: "Single Family"
        string_val: "Single Family"
        string_val: "Single Family"
        string_val: "Single Family"
        string_val: "Condo"
        string_val: "Single Family"
        string_val: "Townhouse"
        string_val: "Single Family"
        string_val: "Single Family"
        string_val: "Single Family"
        string_val: "Single Family"
        string_val: "Single Family"
        string_val: "Single Family"
        string_val: "Single Family"
        string_val: "Single Family"
        string_val: "Single Family"
        string_val: "Single Family"
        string_val: "Single Family"
        string_val: "Single Family"
        string_val: "Single Family"
        string_val: "Single Family"
        string_val: "Single Family"
        string_val: "Single Family"
        string_val: "Townhouse"
        string_val: "Single Family"
        string_val: "Single Family"
        string_val: "Condo"
        string_val: "Single Family"
        string_val: "Single Family"
        string_val: "Single Family"
        string_val: "Single Family"
        string_val: "Single Family"
        string_val: "Single Family"
        string_val: "Single Family"
        string_val: "Single Family"
        string_val: "Condo"
        string_val: "Condo"
        string_val: "Single Family"
        string_val: "Single Family"
        string_val: "Single Family"
        string_val: "Single Family"
        string_val: "Single Family"
        string_val: "Single Family"
        string_val: "Townhouse"
        string_val: "Single Family"
        string_val: "Condo"
        string_val: "Single Family"
        string_val: "Single Family"
        string_val: "Condo"
        string_val: "Single Family"
        string_val: "Single Family"
        string_val: "Single Family"
        string_val: "Single Family"
        string_val: "Condo"
        string_val: "Single Family"
        string_val: "Single Family"
        string_val: "Condo"
        string_val: "Single Family"
        string_val: "Single Family"
        string_val: "Single Family"
        string_val: "Single Family"
        string_val: "Single Family"
        string_val: "Single Family"
        string_val: "Single Family"
        string_val: "Single Family"
        string_val: "Condo"
        string_val: "Condo"
        string_val: "Single Family"
        string_val: "Single Family"
        string_val: "Single Family"
        string_val: "Single Family"
        string_val: "Condo"
        string_val: "Single Family"
        string_val: "Single Family"
        string_val: "Single Family"
        string_val: "Single Family"
        string_val: "Single Family"
        string_val: "Single Family"
        string_val: "Single Family"
        string_val: "Single Family"
        string_val: "Condo"
        string_val: "Single Family"
        string_val: "Single Family"
        string_val: "Single Family"
        string_val: "Single Family"
        string_val: "Single Family"
        string_val: "Single Family"
        string_val: "Single Family"
        string_val: "Single Family"
        string_val: "Single Family"
        string_val: "Single Family"
        string_val: "Single Family"
        string_val: "Single Family"
        string_val: "Single Family"
        string_val: "Single Family"
        string_val: "Single Family"
        string_val: "Single Family"
        string_val: "Single Family"
        string_val: "Single Family"
        string_val: "Single Family"
        string_val: "Single Family"
        string_val: "Single Family"
        string_val: "Single Family"
        string_val: "Single Family"
        string_val: "Condo"
        string_val: "Single Family"
        string_val: "Single Family"
        string_val: "Single Family"
        string_val: "Single Family"
        string_val: "Single Family"
        string_val: "Single Family"
        string_val: "Single Family"
        string_val: "Single Family"
        string_val: "Single Family"
        string_val: "Single Family"
        string_val: "Single Family"
        string_val: "Condo"
        string_val: "Condo"
        string_val: "Condo"
        string_val: "Single Family"
        string_val: "Single Family"
        string_val: "Single Family"
        string_val: "Single Family"
        string_val: "Condo"
        string_val: "Townhouse"
        string_val: "Single Family"
        string_val: "Single Family"
        string_val: "Single Family"
        string_val: "Single Family"
        string_val: "Single Family"
        string_val: "Single Family"
        string_val: "Single Family"
        string_val: "Single Family"
        string_val: "Single Family"
        string_val: "Single Family"
        string_val: "Single Family"
        string_val: "Townhouse"
        string_val: "Single Family"
        string_val: "Single Family"
        string_val: "Single Family"
        string_val: "Single Family"
        string_val: "Single Family"
        string_val: "Single Family"
        string_val: "Single Family"
        string_val: "Single Family"
        string_val: "Single Family"
        string_val: "Single Family"
        string_val: "Townhouse"
        string_val: "Single Family"
        string_val: "Single Family"
        string_val: "Single Family"
        string_val: "Single Family"
        string_val: "Single Family"
        string_val: "Townhouse"
        string_val: "Condo"
        string_val: "Single Family"
        string_val: "Single Family"
        string_val: "Single Family"
        string_val: "Single Family"
        string_val: "Single Family"
        string_val: "Single Family"
        string_val: "Single Family"
        string_val: "Single Family"
        string_val: "Single Family"
        string_val: "Single Family"
        string_val: "Single Family"
        string_val: "Single Family"
        string_val: "Single Family"
        string_val: "Single Family"
        string_val: "Single Family"
        string_val: "Condo"
        string_val: "Single Family"
        string_val: "Condo"
        string_val: "Single Family"
        string_val: "Single Family"
        string_val: "Single Family"
        string_val: "Single Family"
        string_val: "Single Family"
        string_val: "Single Family"
        string_val: "Single Family"
        string_val: "Single Family"
        string_val: "Single Family"
        string_val: "Single Family"
        string_val: "Single Family"
        string_val: "Single Family"
        string_val: "Single Family"
        string_val: "Single Family"
        string_val: "Single Family"
        string_val: "Single Family"
        string_val: "Single Family"
        string_val: "Single Family"
        string_val: "Condo"
        string_val: "Single Family"
        string_val: "Condo"
        string_val: "Single Family"
        string_val: "Townhouse"
        string_val: "Single Family"
        string_val: "Single Family"
        string_val: "Single Family"
        string_val: "Single Family"
        string_val: "Townhouse"
        string_val: "Single Family"
        string_val: "Single Family"
        string_val: "Single Family"
        string_val: "Condo"
        string_val: "Single Family"
        string_val: "Single Family"
        string_val: "Single Family"
        string_val: "Single Family"
        string_val: "Condo"
        string_val: "Townhouse"
        string_val: "Single Family"
        string_val: "Single Family"
        string_val: "Single Family"
        string_val: "Condo"
        string_val: "Single Family"
        string_val: "Single Family"
        string_val: "Single Family"
        string_val: "Single Family"
        string_val: "Townhouse"
        string_val: "Single Family"
        string_val: "Single Family"
        string_val: "Single Family"
        string_val: "Single Family"
        string_val: "Single Family"
        string_val: "Single Family"
        string_val: "Single Family"
        string_val: "Single Family"
        string_val: "Condo"
        string_val: "Condo"
        string_val: "Condo"
        string_val: "Multi Family"
        string_val: "Single Family"
        string_val: "Townhouse"
        string_val: "Condo"
        string_val: "Single Family"
        string_val: "Single Family"
        string_val: "Single Family"
        string_val: "Condo"
        string_val: "Single Family"
        string_val: "Single Family"
        string_val: "Single Family"
        string_val: "Single Family"
        string_val: "Condo"
        string_val: "Single Family"
        string_val: "Single Family"
        string_val: "Single Family"
        string_val: "Condo"
        string_val: "Condo"
        string_val: "Single Family"
        string_val: "Condo"
        string_val: "Townhouse"
        string_val: "Condo"
        string_val: "Single Family"
        string_val: "Single Family"
        string_val: "Single Family"
        string_val: "Single Family"
        string_val: "Single Family"
        string_val: "Single Family"
        string_val: "Single Family"
        string_val: "Condo"
        string_val: "Single Family"
        string_val: "Single Family"
        string_val: "Single Family"
        string_val: "Single Family"
        string_val: "Single Family"
        string_val: "Single Family"
        string_val: "Single Family"
        string_val: "Single Family"
        string_val: "Single Family"
        string_val: "Single Family"
        string_val: "Single Family"
        string_val: "Single Family"
        string_val: "Single Family"
        string_val: "Condo"
        string_val: "Single Family"
        string_val: "Single Family"
        string_val: "Single Family"
        string_val: "Condo"
        string_val: "Single Family"
        string_val: "Single Family"
        string_val: "Single Family"
        string_val: "Single Family"
        string_val: "Single Family"
        string_val: "Single Family"
        string_val: "Condo"
        string_val: "Single Family"
        string_val: "Single Family"
        string_val: "Single Family"
        string_val: "Single Family"
        string_val: "Single Family"
        string_val: "Single Family"
        string_val: "Single Family"
        string_val: "Single Family"
        string_val: "Single Family"
        string_val: "Single Family"
        string_val: "Condo"
        string_val: "Single Family"
        string_val: "Single Family"
        string_val: "Single Family"
        string_val: "Townhouse"
        string_val: "Single Family"
        string_val: "Single Family"
        string_val: "Condo"
        string_val: "Single Family"
        string_val: "Single Family"
        string_val: "Single Family"
        string_val: "Single Family"
        string_val: "Single Family"
        string_val: "Single Family"
        string_val: "Single Family"
        string_val: "Single Family"
        string_val: "Single Family"
        string_val: "Single Family"
        string_val: "Condo"
        string_val: "Single Family"
        string_val: "Single Family"
        string_val: "Single Family"
        string_val: "Single Family"
        string_val: "Single Family"
        string_val: "Condo"
        string_val: "Single Family"
        string_val: "Single Family"
        string_val: "Single Family"
        string_val: "Condo"
        string_val: "Single Family"
        string_val: "Single Family"
        string_val: "Single Family"
        string_val: "Condo"
        string_val: "Single Family"
        string_val: "Single Family"
        string_val: "Single Family"
        string_val: "Single Family"
        string_val: "Single Family"
        string_val: "Multi Family"
        string_val: "Single Family"
        string_val: "Single Family"
        string_val: "Single Family"
        string_val: "Single Family"
        string_val: "Single Family"
        string_val: "Single Family"
        string_val: "Single Family"
        string_val: "Condo"
        string_val: "Single Family"
        string_val: "Single Family"
        string_val: "Single Family"
        string_val: "Condo"
        string_val: "Single Family"
        string_val: "Single Family"
        string_val: "Single Family"
        string_val: "Single Family"
        string_val: "Single Family"
        string_val: "Single Family"
        string_val: "Single Family"
        string_val: "Single Family"
        string_val: "Single Family"
        string_val: "Single Family"
        string_val: "Single Family"
        string_val: "Single Family"
        string_val: "Single Family"
        string_val: "Single Family"
        string_val: "Single Family"
        string_val: "Condo"
        string_val: "Single Family"
        string_val: "Single Family"
        string_val: "Single Family"
        string_val: "Single Family"
        string_val: "Single Family"
        string_val: "Single Family"
        string_val: "Single Family"
        string_val: "Single Family"
        string_val: "Single Family"
        string_val: "Single Family"
        string_val: "Single Family"
        string_val: "Single Family"
        string_val: "Single Family"
        string_val: "Condo"
        string_val: "Single Family"
        string_val: "Single Family"
        string_val: "Single Family"
        string_val: "Single Family"
        string_val: "Single Family"
        string_val: "Single Family"
        string_val: "Single Family"
        string_val: "Single Family"
        string_val: "Townhouse"
        string_val: "Single Family"
        string_val: "Single Family"
        string_val: "Condo"
        string_val: "Single Family"
        string_val: "Single Family"
        string_val: "Single Family"
        string_val: "Condo"
        string_val: "Condo"
        string_val: "Single Family"
        string_val: "Single Family"
        string_val: "Single Family"
        string_val: "Single Family"
        string_val: "Single Family"
        string_val: "Single Family"
        string_val: "Condo"
        string_val: "Single Family"
        string_val: "Single Family"
        string_val: "Single Family"
        string_val: "Single Family"
        string_val: "Single Family"
        string_val: "Townhouse"
        string_val: "Condo"
        string_val: "Single Family"
        string_val: "Single Family"
        string_val: "Single Family"
        string_val: "Single Family"
        string_val: "Single Family"
        string_val: "Single Family"
        string_val: "Single Family"
        string_val: "Condo"
        string_val: "Single Family"
        string_val: "Single Family"
        string_val: "Single Family"
        string_val: "Condo"
        string_val: "Townhouse"
        string_val: "Condo"
        string_val: "Single Family"
…
          unknown_rank: true
        }
      }
    }
  }
  attr {
    key: "dtypes"
    value {
      list {
        type: DT_FLOAT
      }
    }
  }
}
node {
  name: "save/Assign_12"
  op: "Assign"
  input: "linear/regression_head/linear/geohash/weights/part_0/Adam_1"
  input: "save/RestoreV2_12"
  attr {
    key: "T"
    value {
      type: DT_FLOAT
    }
  }
  attr {
    key: "_class"
    value {
      list {
        s: "loc:@linear/geohash/weights/part_0"
      }
    }
  }
  attr {
    key: "_output_shapes"
    value {
      list {
        shape {
          dim {
            size: 10000
          }
          dim {
            size: 1
          }
        }
      }
    }
  }
  attr {
    key: "use_locking"
    value {
      b: true
    }
  }
  attr {
    key: "validate_shape"
    value {
      b: true
    }
  }
}
node {
  name: "save/RestoreV2_13/tensor_names"
  op: "Const"
  attr {
    key: "_output_shapes"
    value {
      list {
        shape {
          dim {
            size: 1
          }
        }
      }
    }
  }
  attr {
    key: "dtype"
    value {
      type: DT_STRING
    }
  }
  attr {
    key: "value"
    value {
      tensor {
        dtype: DT_STRING
        tensor_shape {
          dim {
            size: 1
          }
        }
        string_val: "linear/lotsize_bucketized/weights"
      }
    }
  }
}
node {
  name: "save/RestoreV2_13/shape_and_slices"
  op: "Const"
  attr {
    key: "_output_shapes"
    value {
      list {
        shape {
          dim {
            size: 1
          }
        }
      }
    }
  }
  attr {
    key: "dtype"
    value {
      type: DT_STRING
    }
  }
  attr {
    key: "value"
    value {
      tensor {
        dtype: DT_STRING
        tensor_shape {
          dim {
            size: 1
          }
        }
        string_val: "31 1 0,31:0,1"
      }
    }
  }
}
node {
  name: "save/RestoreV2_13"
  op: "RestoreV2"
  input: "save/Const"
  input: "save/RestoreV2_13/tensor_names"
  input: "save/RestoreV2_13/shape_and_slices"
  attr {
    key: "_output_shapes"
    value {
      list {
        shape {
          unknown_rank: true
        }
      }
    }
  }
  attr {
    key: "dtypes"
    value {
      list {
        type: DT_FLOAT
      }
    }
  }
}
node {
  name: "save/Assign_13"
  op: "Assign"
  input: "linear/lotsize_bucketized/weights/part_0"
  input: "save/RestoreV2_13"
  attr {
    key: "T"
    value {
      type: DT_FLOAT
    }
  }
  attr {
    key: "_class"
    value {
      list {
        s: "loc:@linear/lotsize_bucketized/weights/part_0"
      }
    }
  }
  attr {
    key: "_output_shapes"
    value {
      list {
        shape {
          dim {
            size: 31
          }
          dim {
            size: 1
          }
        }
      }
    }
  }
  attr {
    key: "use_locking"
    value {
      b: true
    }
  }
  attr {
    key: "validate_shape"
    value {
      b: true
    }
  }
}
node {
  name: "save/RestoreV2_14/tensor_names"
  op: "Const"
  attr {
    key: "_output_shapes"
    value {
      list {
        shape {
          dim {
            size: 1
          }
        }
      }
    }
  }
  attr {
    key: "dtype"
    value {
      type: DT_STRING
    }
  }
  attr {
    key: "value"
    value {
      tensor {
        dtype: DT_STRING
        tensor_shape {
          dim {
            size: 1
          }
        }
        string_val: "linear/lotsize_bucketized/weights/ketized/weights/part_0/Adam"
      }
    }
  }
}
node {
  name: "save/RestoreV2_14/shape_and_slices"
  op: "Const"
  attr {
    key: "_output_shapes"
    value {
      list {
        shape {
          dim {
            size: 1
          }
        }
      }
    }
  }
  attr {
    key: "dtype"
    value {
      type: DT_STRING
    }
  }
  attr {
    key: "value"
    value {
      tensor {
        dtype: DT_STRING
        tensor_shape {
          dim {
            size: 1
          }
        }
        string_val: "31 1 0,31:0,1"
      }
    }
  }
}
node {
  name: "save/RestoreV2_14"
  op: "RestoreV2"
  input: "save/Const"
  input: "save/RestoreV2_14/tensor_names"
  input: "save/RestoreV2_14/shape_and_slices"
  attr {
    key: "_output_shapes"
    value {
      list {
        shape {
          unknown_rank: true
        }
      }
    }
  }
  attr {
    key: "dtypes"
    value {
      list {
        type: DT_FLOAT
      }
    }
  }
}
node {
  name: "save/Assign_14"
  op: "Assign"
  input: "linear/regression_head/linear/lotsize_bucketized/weights/part_0/Adam"
  input: "save/RestoreV2_14"
  attr {
    key: "T"
    value {
      type: DT_FLOAT
    }
  }
  attr {
    key: "_class"
    value {
      list {
        s: "loc:@linear/lotsize_bucketized/weights/part_0"
      }
    }
  }
  attr {
    key: "_output_shapes"
    value {
      list {
        shape {
          dim {
            size: 31
          }
          dim {
            size: 1
          }
        }
      }
    }
  }
  attr {
    key: "use_locking"
    value {
      b: true
    }
  }
  attr {
    key: "validate_shape"
    value {
      b: true
    }
  }
}
node {
  name: "save/RestoreV2_15/tensor_names"
  op: "Const"
  attr {
    key: "_output_shapes"
    value {
      list {
        shape {
          dim {
            size: 1
          }
        }
      }
    }
  }
  attr {
    key: "dtype"
    value {
      type: DT_STRING
    }
  }
  attr {
    key: "value"
    value {
      tensor {
        dtype: DT_STRING
        tensor_shape {
          dim {
            size: 1
          }
        }
        string_val: "linear/lotsize_bucketized/weights/ketized/weights/part_0/Adam_1"
      }
    }
  }
}
node {
  name: "save/RestoreV2_15/shape_and_slices"
  op: "Const"
  attr {
    key: "_output_shapes"
    value {
      list {
        shape {
          dim {
            size: 1
          }
        }
      }
    }
  }
  attr {
    key: "dtype"
    value {
      type: DT_STRING
    }
  }
  attr {
    key: "value"
    value {
      tensor {
        dtype: DT_STRING
        tensor_shape {
          dim {
            size: 1
          }
        }
        string_val: "31 1 0,31:0,1"
      }
    }
  }
}
node {
  name: "save/RestoreV2_15"
  op: "RestoreV2"
  input: "save/Const"
  input: "save/RestoreV2_15/tensor_names"
  input: "save/RestoreV2_15/shape_and_slices"
  attr {
    key: "_output_shapes"
    value {
      list {
        shape {
          unknown_rank: true
        }
      }
    }
  }
  attr {
    key: "dtypes"
    value {
      list {
        type: DT_FLOAT
      }
    }
  }
}
node {
  name: "save/Assign_15"
  op: "Assign"
  input: "linear/regression_head/linear/lotsize_bucketized/weights/part_0/Adam_1"
  input: "save/RestoreV2_15"
  attr {
    key: "T"
    value {
      type: DT_FLOAT
    }
  }
  attr {
    key: "_class"
    value {
      list {
        s: "loc:@linear/lotsize_bucketized/weights/part_0"
      }
    }
  }
  attr {
    key: "_output_shapes"
    value {
      list {
        shape {
          dim {
            size: 31
          }
          dim {
            size: 1
          }
        }
      }
    }
  }
  attr {
    key: "use_locking"
    value {
      b: true
    }
  }
  attr {
    key: "validate_shape"
    value {
      b: true
    }
  }
}
node {
  name: "save/RestoreV2_16/tensor_names"
  op: "Const"
  attr {
    key: "_output_shapes"
    value {
      list {
        shape {
          dim {
            size: 1
          }
        }
      }
    }
  }
  attr {
    key: "dtype"
    value {
      type: DT_STRING
    }
  }
  attr {
    key: "value"
    value {
      tensor {
        dtype: DT_STRING
        tensor_shape {
          dim {
            size: 1
          }
        }
        string_val: "linear/property_type/weights"
      }
    }
  }
}
node {
  name: "save/RestoreV2_16/shape_and_slices"
  op: "Const"
  attr {
    key: "_output_shapes"
    value {
      list {
        shape {
          dim {
            size: 1
          }
        }
      }
    }
  }
  attr {
    key: "dtype"
    value {
      type: DT_STRING
    }
  }
  attr {
    key: "value"
    value {
      tensor {
        dtype: DT_STRING
        tensor_shape {
          dim {
            size: 1
          }
        }
        string_val: "10 1 0,10:0,1"
      }
    }
  }
}
node {
  name: "save/RestoreV2_16"
  op: "RestoreV2"
  input: "save/Const"
  input: "save/RestoreV2_16/tensor_names"
  input: "save/RestoreV2_16/shape_and_slices"
  attr {
    key: "_output_shapes"
    value {
      list {
        shape {
          unknown_rank: true
        }
      }
    }
  }
  attr {
    key: "dtypes"
    value {
      list {
        type: DT_FLOAT
      }
    }
  }
}
node {
  name: "save/Assign_16"
  op: "Assign"
  input: "linear/property_type/weights/part_0"
  input: "save/RestoreV2_16"
  attr {
    key: "T"
    value {
      type: DT_FLOAT
    }
  }
  attr {
    key: "_class"
    value {
      list {
        s: "loc:@linear/property_type/weights/part_0"
      }
    }
  }
  attr {
    key: "_output_shapes"
    value {
      list {
        shape {
          dim {
            size: 10
          }
          dim {
            size: 1
          }
        }
      }
    }
  }
  attr {
    key: "use_locking"
    value {
      b: true
    }
  }
  attr {
    key: "validate_shape"
    value {
      b: true
    }
  }
}
node {
  name: "save/RestoreV2_17/tensor_names"
  op: "Const"
  attr {
    key: "_output_shapes"
    value {
      list {
        shape {
          dim {
            size: 1
          }
        }
      }
    }
  }
  attr {
    key: "dtype"
    value {
      type: DT_STRING
    }
  }
  attr {
    key: "value"
    value {
      tensor {
        dtype: DT_STRING
        tensor_shape {
          dim {
            size: 1
          }
        }
        string_val: "linear/property_type/weights/ty_type/weights/part_0/Adam"
      }
    }
  }
}
node {
  name: "save/RestoreV2_17/shape_and_slices"
  op: "Const"
  attr {
    key: "_output_shapes"
    value {
      list {
        shape {
          dim {
            size: 1
          }
        }
      }
    }
  }
  attr {
    key: "dtype"
    value {
      type: DT_STRING
    }
  }
  attr {
    key: "value"
    value {
      tensor {
        dtype: DT_STRING
        tensor_shape {
          dim {
            size: 1
          }
        }
        string_val: "10 1 0,10:0,1"
      }
    }
  }
}
node {
  name: "save/RestoreV2_17"
  op: "RestoreV2"
  input: "save/Const"
  input: "save/RestoreV2_17/tensor_names"
  input: "save/RestoreV2_17/shape_and_slices"
  attr {
    key: "_output_shapes"
    value {
      list {
        shape {
          unknown_rank: true
        }
      }
    }
  }
  attr {
    key: "dtypes"
    value {
      list {
        type: DT_FLOAT
      }
    }
  }
}
node {
  name: "save/Assign_17"
  op: "Assign"
  input: "linear/regression_head/linear/property_type/weights/part_0/Adam"
  input: "save/RestoreV2_17"
  attr {
    key: "T"
    value {
      type: DT_FLOAT
    }
  }
  attr {
    key: "_class"
    value {
      list {
        s: "loc:@linear/property_type/weights/part_0"
      }
    }
  }
  attr {
    key: "_output_shapes"
    value {
      list {
        shape {
          dim {
            size: 10
          }
          dim {
            size: 1
          }
        }
      }
    }
  }
  attr {
    key: "use_locking"
    value {
      b: true
    }
  }
  attr {
    key: "validate_shape"
    value {
      b: true
    }
  }
}
node {
  name: "save/RestoreV2_18/tensor_names"
  op: "Const"
  attr {
    key: "_output_shapes"
    value {
      list {
        shape {
          dim {
            size: 1
          }
        }
      }
    }
  }
  attr {
    key: "dtype"
    value {
      type: DT_STRING
    }
  }
  attr {
    key: "value"
    value {
      tensor {
        dtype: DT_STRING
        tensor_shape {
          dim {
            size: 1
          }
        }
        string_val: "linear/property_type/weights/ty_type/weights/part_0/Adam_1"
      }
    }
  }
}
node {
  name: "save/RestoreV2_18/shape_and_slices"
  op: "Const"
  attr {
    key: "_output_shapes"
    value {
      list {
        shape {
          dim {
            size: 1
          }
        }
      }
    }
  }
  attr {
    key: "dtype"
    value {
      type: DT_STRING
    }
  }
  attr {
    key: "value"
    value {
      tensor {
        dtype: DT_STRING
        tensor_shape {
          dim {
            size: 1
          }
        }
        string_val: "10 1 0,10:0,1"
      }
    }
  }
}
node {
  name: "save/RestoreV2_18"
  op: "RestoreV2"
  input: "save/Const"
  input: "save/RestoreV2_18/tensor_names"
  input: "save/RestoreV2_18/shape_and_slices"
  attr {
    key: "_output_shapes"
    value {
      list {
        shape {
          unknown_rank: true
        }
      }
    }
  }
  attr {
    key: "dtypes"
    value {
      list {
        type: DT_FLOAT
      }
    }
  }
}
node {
  name: "save/Assign_18"
  op: "Assign"
  input: "linear/regression_head/linear/property_type/weights/part_0/Adam_1"
  input: "save/RestoreV2_18"
  attr {
    key: "T"
    value {
      type: DT_FLOAT
    }
  }
  attr {
    key: "_class"
    value {
      list {
        s: "loc:@linear/property_type/weights/part_0"
      }
    }
  }
  attr {
    key: "_output_shapes"
    value {
      list {
        shape {
          dim {
            size: 10
          }
          dim {
            size: 1
          }
        }
      }
    }
  }
  attr {
    key: "use_locking"
    value {
      b: true
    }
  }
  attr {
    key: "validate_shape"
    value {
      b: true
    }
  }
}
node {
  name: "save/RestoreV2_19/tensor_names"
  op: "Const"
  attr {
    key: "_output_shapes"
    value {
      list {
        shape {
          dim {
            size: 1
          }
        }
      }
    }
  }
  attr {
    key: "dtype"
    value {
      type: DT_STRING
    }
  }
  attr {
    key: "value"
    value {
      tensor {
        dtype: DT_STRING
        tensor_shape {
          dim {
            size: 1
          }
        }
        string_val: "linear/regression_head/train_op/beta1_power"
      }
    }
  }
}
node {
  name: "save/RestoreV2_19/shape_and_slices"
  op: "Const"
  attr {
    key: "_output_shapes"
    value {
      list {
        shape {
          dim {
            size: 1
          }
        }
      }
    }
  }
  attr {
    key: "dtype"
    value {
      type: DT_STRING
    }
  }
  attr {
    key: "value"
    value {
      tensor {
        dtype: DT_STRING
        tensor_shape {
          dim {
            size: 1
          }
        }
        string_val: ""
      }
    }
  }
}
node {
  name: "save/RestoreV2_19"
  op: "RestoreV2"
  input: "save/Const"
  input: "save/RestoreV2_19/tensor_names"
  input: "save/RestoreV2_19/shape_and_slices"
  attr {
    key: "_output_shapes"
    value {
      list {
        shape {
          unknown_rank: true
        }
      }
    }
  }
  attr {
    key: "dtypes"
    value {
      list {
        type: DT_FLOAT
      }
    }
  }
}
node {
  name: "save/Assign_19"
  op: "Assign"
  input: "linear/regression_head/train_op/beta1_power"
  input: "save/RestoreV2_19"
  attr {
    key: "T"
    value {
      type: DT_FLOAT
    }
  }
  attr {
    key: "_class"
    value {
      list {
        s: "loc:@linear/lotsize_bucketized/weights/part_0"
      }
    }
  }
  attr {
    key: "_output_shapes"
    value {
      list {
        shape {
        }
      }
    }
  }
  attr {
    key: "use_locking"
    value {
      b: true
    }
  }
  attr {
    key: "validate_shape"
    value {
      b: true
    }
  }
}
node {
  name: "save/RestoreV2_20/tensor_names"
  op: "Const"
  attr {
    key: "_output_shapes"
    value {
      list {
        shape {
          dim {
            size: 1
          }
        }
      }
    }
  }
  attr {
    key: "dtype"
    value {
      type: DT_STRING
    }
  }
  attr {
    key: "value"
    value {
      tensor {
        dtype: DT_STRING
        tensor_shape {
          dim {
            size: 1
          }
        }
        string_val: "linear/regression_head/train_op/beta2_power"
      }
    }
  }
}
node {
  name: "save/RestoreV2_20/shape_and_slices"
  op: "Const"
  attr {
    key: "_output_shapes"
    value {
      list {
        shape {
          dim {
            size: 1
          }
        }
      }
    }
  }
  attr {
    key: "dtype"
    value {
      type: DT_STRING
    }
  }
  attr {
    key: "value"
    value {
      tensor {
        dtype: DT_STRING
        tensor_shape {
          dim {
            size: 1
          }
        }
        string_val: ""
      }
    }
  }
}
node {
  name: "save/RestoreV2_20"
  op: "RestoreV2"
  input: "save/Const"
  input: "save/RestoreV2_20/tensor_names"
  input: "save/RestoreV2_20/shape_and_slices"
  attr {
    key: "_output_shapes"
    value {
      list {
        shape {
          unknown_rank: true
        }
      }
    }
  }
  attr {
    key: "dtypes"
    value {
      list {
        type: DT_FLOAT
      }
    }
  }
}
node {
  name: "save/Assign_20"
  op: "Assign"
  input: "linear/regression_head/train_op/beta2_power"
  input: "save/RestoreV2_20"
  attr {
    key: "T"
    value {
      type: DT_FLOAT
    }
  }
  attr {
    key: "_class"
    value {
      list {
        s: "loc:@linear/lotsize_bucketized/weights/part_0"
      }
    }
  }
  attr {
    key: "_output_shapes"
    value {
      list {
        shape {
        }
      }
    }
  }
  attr {
    key: "use_locking"
    value {
      b: true
    }
  }
  attr {
    key: "validate_shape"
    value {
      b: true
    }
  }
}
node {
  name: "save/RestoreV2_21/tensor_names"
  op: "Const"
  attr {
    key: "_output_shapes"
    value {
      list {
        shape {
          dim {
            size: 1
          }
        }
      }
    }
  }
  attr {
    key: "dtype"
    value {
      type: DT_STRING
    }
  }
  attr {
    key: "value"
    value {
      tensor {
        dtype: DT_STRING
        tensor_shape {
          dim {
            size: 1
          }
        }
        string_val: "linear/school_ratingE/weight"
      }
    }
  }
}
node {
  name: "save/RestoreV2_21/shape_and_slices"
  op: "Const"
  attr {
    key: "_output_shapes"
    value {
      list {
        shape {
          dim {
            size: 1
          }
        }
      }
    }
  }
  attr {
    key: "dtype"
    value {
      type: DT_STRING
    }
  }
  attr {
    key: "value"
    value {
      tensor {
        dtype: DT_STRING
        tensor_shape {
          dim {
            size: 1
          }
        }
        string_val: "1 1 0,1:0,1"
      }
    }
  }
}
node {
  name: "save/RestoreV2_21"
  op: "RestoreV2"
  input: "save/Const"
  input: "save/RestoreV2_21/tensor_names"
  input: "save/RestoreV2_21/shape_and_slices"
  attr {
    key: "_output_shapes"
    value {
      list {
        shape {
          unknown_rank: true
        }
      }
    }
  }
  attr {
    key: "dtypes"
    value {
      list {
        type: DT_FLOAT
      }
    }
  }
}
node {
  name: "save/Assign_21"
  op: "Assign"
  input: "linear/school_ratingE/weight/part_0"
  input: "save/RestoreV2_21"
  attr {
    key: "T"
    value {
      type: DT_FLOAT
    }
  }
  attr {
    key: "_class"
    value {
      list {
        s: "loc:@linear/school_ratingE/weight/part_0"
      }
    }
  }
  attr {
    key: "_output_shapes"
    value {
      list {
        shape {
          dim {
            size: 1
          }
          dim {
            size: 1
          }
        }
      }
    }
  }
  attr {
    key: "use_locking"
    value {
      b: true
    }
  }
  attr {
    key: "validate_shape"
    value {
      b: true
    }
  }
}
node {
  name: "save/RestoreV2_22/tensor_names"
  op: "Const"
  attr {
    key: "_output_shapes"
    value {
      list {
        shape {
          dim {
            size: 1
          }
        }
      }
    }
  }
  attr {
    key: "dtype"
    value {
      type: DT_STRING
    }
  }
  attr {
    key: "value"
    value {
      tensor {
        dtype: DT_STRING
        tensor_shape {
          dim {
            size: 1
          }
        }
        string_val: "linear/school_ratingE/weight/_ratingE/weight/part_0/Adam"
      }
    }
  }
}
node {
  name: "save/RestoreV2_22/shape_and_slices"
  op: "Const"
  attr {
    key: "_output_shapes"
    value {
      list {
        shape {
          dim {
            size: 1
          }
        }
      }
    }
  }
  attr {
    key: "dtype"
    value {
      type: DT_STRING
    }
  }
  attr {
    key: "value"
    value {
      tensor {
        dtype: DT_STRING
        tensor_shape {
          dim {
            size: 1
          }
        }
        string_val: "1 1 0,1:0,1"
      }
    }
  }
}
node {
  name: "save/RestoreV2_22"
  op: "RestoreV2"
  input: "save/Const"
  input: "save/RestoreV2_22/tensor_names"
  input: "save/RestoreV2_22/shape_and_slices"
  attr {
    key: "_output_shapes"
    value {
      list {
        shape {
          unknown_rank: true
        }
      }
    }
  }
  attr {
    key: "dtypes"
    value {
      list {
        type: DT_FLOAT
      }
    }
  }
}
node {
  name: "save/Assign_22"
  op: "Assign"
  input: "linear/regression_head/linear/school_ratingE/weight/part_0/Adam"
  input: "save/RestoreV2_22"
  attr {
    key: "T"
    value {
      type: DT_FLOAT
    }
  }
  attr {
    key: "_class"
    value {
      list {
        s: "loc:@linear/school_ratingE/weight/part_0"
      }
    }
  }
  attr {
    key: "_output_shapes"
    value {
      list {
        shape {
          dim {
            size: 1
          }
          dim {
            size: 1
          }
        }
      }
    }
  }
  attr {
    key: "use_locking"
    value {
      b: true
    }
  }
  attr {
    key: "validate_shape"
    value {
      b: true
    }
  }
}
node {
  name: "save/RestoreV2_23/tensor_names"
  op: "Const"
  attr {
    key: "_output_shapes"
    value {
      list {
        shape {
          dim {
            size: 1
          }
        }
      }
    }
  }
  attr {
    key: "dtype"
    value {
      type: DT_STRING
    }
  }
  attr {
    key: "value"
    value {
      tensor {
        dtype: DT_STRING
        tensor_shape {
          dim {
            size: 1
          }
        }
        string_val: "linear/school_ratingE/weight/_ratingE/weight/part_0/Adam_1"
      }
    }
  }
}
node {
  name: "save/RestoreV2_23/shape_and_slices"
  op: "Const"
  attr {
    key: "_output_shapes"
    value {
      list {
        shape {
          dim {
            size: 1
          }
        }
      }
    }
  }
  attr {
    key: "dtype"
    value {
      type: DT_STRING
    }
  }
  attr {
    key: "value"
    value {
      tensor {
        dtype: DT_STRING
        tensor_shape {
          dim {
            size: 1
          }
        }
        string_val: "1 1 0,1:0,1"
      }
    }
  }
}
node {
  name: "save/RestoreV2_23"
  op: "RestoreV2"
  input: "save/Const"
  input: "save/RestoreV2_23/tensor_names"
  input: "save/RestoreV2_23/shape_and_slices"
  attr {
    key: "_output_shapes"
    value {
      list {
        shape {
          unknown_rank: true
        }
      }
    }
  }
  attr {
    key: "dtypes"
    value {
      list {
        type: DT_FLOAT
      }
    }
  }
}
node {
  name: "save/Assign_23"
  op: "Assign"
  input: "linear/regression_head/linear/school_ratingE/weight/part_0/Adam_1"
  input: "save/RestoreV2_23"
  attr {
    key: "T"
    value {
      type: DT_FLOAT
    }
  }
  attr {
    key: "_class"
    value {
      list {
        s: "loc:@linear/school_ratingE/weight/part_0"
      }
    }
  }
  attr {
    key: "_output_shapes"
    value {
      list {
        shape {
          dim {
            size: 1
          }
          dim {
            size: 1
          }
        }
      }
    }
  }
  attr {
    key: "use_locking"
    value {
      b: true
    }
  }
  attr {
    key: "validate_shape"
    value {
      b: true
    }
  }
}
node {
  name: "save/RestoreV2_24/tensor_names"
  op: "Const"
  attr {
    key: "_output_shapes"
    value {
      list {
        shape {
          dim {
            size: 1
          }
        }
      }
    }
  }
  attr {
    key: "dtype"
    value {
      type: DT_STRING
    }
  }
  attr {
    key: "value"
    value {
      tensor {
        dtype: DT_STRING
        tensor_shape {
          dim {
            size: 1
          }
        }
        string_val: "linear/school_ratingH/weight"
      }
    }
  }
}
node {
  name: "save/RestoreV2_24/shape_and_slices"
  op: "Const"
  attr {
    key: "_output_shapes"
    value {
      list {
        shape {
          dim {
            size: 1
          }
        }
      }
    }
  }
  attr {
    key: "dtype"
    value {
      type: DT_STRING
    }
  }
  attr {
    key: "value"
    value {
      tensor {
        dtype: DT_STRING
        tensor_shape {
          dim {
            size: 1
          }
        }
        string_val: "1 1 0,1:0,1"
      }
    }
  }
}
node {
  name: "save/RestoreV2_24"
  op: "RestoreV2"
  input: "save/Const"
  input: "save/RestoreV2_24/tensor_names"
  input: "save/RestoreV2_24/shape_and_slices"
  attr {
    key: "_output_shapes"
    value {
      list {
        shape {
          unknown_rank: true
        }
      }
    }
  }
  attr {
    key: "dtypes"
    value {
      list {
        type: DT_FLOAT
      }
    }
  }
}
node {
  name: "save/Assign_24"
  op: "Assign"
  input: "linear/school_ratingH/weight/part_0"
  input: "save/RestoreV2_24"
  attr {
    key: "T"
    value {
      type: DT_FLOAT
    }
  }
  attr {
    key: "_class"
    value {
      list {
        s: "loc:@linear/school_ratingH/weight/part_0"
      }
    }
  }
  attr {
    key: "_output_shapes"
    value {
      list {
        shape {
          dim {
            size: 1
          }
          dim {
            size: 1
          }
        }
      }
    }
  }
  attr {
    key: "use_locking"
    value {
      b: true
    }
  }
  attr {
    key: "validate_shape"
    value {
      b: true
    }
  }
}
node {
  name: "save/RestoreV2_25/tensor_names"
  op: "Const"
  attr {
    key: "_output_shapes"
    value {
      list {
        shape {
          dim {
            size: 1
          }
        }
      }
    }
  }
  attr {
    key: "dtype"
    value {
      type: DT_STRING
    }
  }
  attr {
    key: "value"
    value {
      tensor {
        dtype: DT_STRING
        tensor_shape {
          dim {
            size: 1
          }
        }
        string_val: "linear/school_ratingH/weight/_ratingH/weight/part_0/Adam"
      }
    }
  }
}
node {
  name: "save/RestoreV2_25/shape_and_slices"
  op: "Const"
  attr {
    key: "_output_shapes"
    value {
      list {
        shape {
          dim {
            size: 1
          }
        }
      }
    }
  }
  attr {
    key: "dtype"
    value {
      type: DT_STRING
    }
  }
  attr {
    key: "value"
    value {
      tensor {
        dtype: DT_STRING
        tensor_shape {
          dim {
            size: 1
          }
        }
        string_val: "1 1 0,1:0,1"
      }
    }
  }
}
node {
  name: "save/RestoreV2_25"
  op: "RestoreV2"
  input: "save/Const"
  input: "save/RestoreV2_25/tensor_names"
  input: "save/RestoreV2_25/shape_and_slices"
  attr {
    key: "_output_shapes"
    value {
      list {
        shape {
          unknown_rank: true
        }
      }
    }
  }
  attr {
    key: "dtypes"
    value {
      list {
        type: DT_FLOAT
      }
    }
  }
}
node {
  name: "save/Assign_25"
  op: "Assign"
  input: "linear/regression_head/linear/school_ratingH/weight/part_0/Adam"
  input: "save/RestoreV2_25"
  attr {
    key: "T"
    value {
      type: DT_FLOAT
    }
  }
  attr {
    key: "_class"
    value {
      list {
        s: "loc:@linear/school_ratingH/weight/part_0"
      }
    }
  }
  attr {
    key: "_output_shapes"
    value {
      list {
        shape {
          dim {
            size: 1
          }
          dim {
            size: 1
          }
        }
      }
    }
  }
  attr {
    key: "use_locking"
    value {
      b: true
    }
  }
  attr {
    key: "validate_shape"
    value {
      b: true
    }
  }
}
node {
  name: "save/RestoreV2_26/tensor_names"
  op: "Const"
  attr {
    key: "_output_shapes"
    value {
      list {
        shape {
          dim {
            size: 1
          }
        }
      }
    }
  }
  attr {
    key: "dtype"
    value {
      type: DT_STRING
    }
  }
  attr {
    key: "value"
    value {
      tensor {
        dtype: DT_STRING
        tensor_shape {
          dim {
            size: 1
          }
        }
        string_val: "linear/school_ratingH/weight/_ratingH/weight/part_0/Adam_1"
      }
    }
  }
}
node {
  name: "save/RestoreV2_26/shape_and_slices"
  op: "Const"
  attr {
    key: "_output_shapes"
    value {
      list {
        shape {
          dim {
            size: 1
          }
        }
      }
    }
  }
  attr {
    key: "dtype"
    value {
      type: DT_STRING
    }
  }
  attr {
    key: "value"
    value {
      tensor {
        dtype: DT_STRING
        tensor_shape {
          dim {
            size: 1
          }
        }
        string_val: "1 1 0,1:0,1"
      }
    }
  }
}
node {
  name: "save/RestoreV2_26"
  op: "RestoreV2"
  input: "save/Const"
  input: "save/RestoreV2_26/tensor_names"
  input: "save/RestoreV2_26/shape_and_slices"
  attr {
    key: "_output_shapes"
    value {
      list {
        shape {
          unknown_rank: true
        }
      }
    }
  }
  attr {
    key: "dtypes"
    value {
      list {
        type: DT_FLOAT
      }
    }
  }
}
node {
  name: "save/Assign_26"
  op: "Assign"
  input: "linear/regression_head/linear/school_ratingH/weight/part_0/Adam_1"
  input: "save/RestoreV2_26"
  attr {
    key: "T"
    value {
      type: DT_FLOAT
    }
  }
  attr {
    key: "_class"
    value {
      list {
        s: "loc:@linear/school_ratingH/weight/part_0"
      }
    }
  }
  attr {
    key: "_output_shapes"
    value {
      list {
        shape {
          dim {
            size: 1
          }
          dim {
            size: 1
          }
        }
      }
    }
  }
  attr {
    key: "use_locking"
    value {
      b: true
    }
  }
  attr {
    key: "validate_shape"
    value {
      b: true
    }
  }
}
node {
  name: "save/RestoreV2_27/tensor_names"
  op: "Const"
  attr {
    key: "_output_shapes"
    value {
      list {
        shape {
          dim {
            size: 1
          }
        }
      }
    }
  }
  attr {
    key: "dtype"
    value {
      type: DT_STRING
    }
  }
  attr {
    key: "value"
    value {
      tensor {
        dtype: DT_STRING
        tensor_shape {
          dim {
            size: 1
          }
        }
        string_val: "linear/school_ratingM/weight"
      }
    }
  }
}
node {
  name: "save/RestoreV2_27/shape_and_slices"
  op: "Const"
  attr {
    key: "_output_shapes"
    value {
      list {
        shape {
          dim {
            size: 1
          }
        }
      }
    }
  }
  attr {
    key: "dtype"
    value {
      type: DT_STRING
    }
  }
  attr {
    key: "value"
    value {
      tensor {
        dtype: DT_STRING
        tensor_shape {
          dim {
            size: 1
          }
        }
        string_val: "1 1 0,1:0,1"
      }
    }
  }
}
node {
  name: "save/RestoreV2_27"
  op: "RestoreV2"
  input: "save/Const"
  input: "save/RestoreV2_27/tensor_names"
  input: "save/RestoreV2_27/shape_and_slices"
  attr {
    key: "_output_shapes"
    value {
      list {
        shape {
          unknown_rank: true
        }
      }
    }
  }
  attr {
    key: "dtypes"
    value {
      list {
        type: DT_FLOAT
      }
    }
  }
}
node {
  name: "save/Assign_27"
  op: "Assign"
  input: "linear/school_ratingM/weight/part_0"
  input: "save/RestoreV2_27"
  attr {
    key: "T"
    value {
      type: DT_FLOAT
    }
  }
  attr {
    key: "_class"
    value {
      list {
        s: "loc:@linear/school_ratingM/weight/part_0"
      }
    }
  }
  attr {
    key: "_output_shapes"
    value {
      list {
        shape {
          dim {
            size: 1
          }
          dim {
            size: 1
          }
        }
      }
    }
  }
  attr {
    key: "use_locking"
    value {
      b: true
    }
  }
  attr {
    key: "validate_shape"
    value {
      b: true
    }
  }
}
node {
  name: "save/RestoreV2_28/tensor_names"
  op: "Const"
  attr {
    key: "_output_shapes"
    value {
      list {
        shape {
          dim {
            size: 1
          }
        }
      }
    }
  }
  attr {
    key: "dtype"
    value {
      type: DT_STRING
    }
  }
  attr {
    key: "value"
    value {
      tensor {
        dtype: DT_STRING
        tensor_shape {
          dim {
            size: 1
          }
        }
        string_val: "linear/school_ratingM/weight/_ratingM/weight/part_0/Adam"
      }
    }
  }
}
node {
  name: "save/RestoreV2_28/shape_and_slices"
  op: "Const"
  attr {
    key: "_output_shapes"
    value {
      list {
        shape {
          dim {
            size: 1
          }
        }
      }
    }
  }
  attr {
    key: "dtype"
    value {
      type: DT_STRING
    }
  }
  attr {
    key: "value"
    value {
      tensor {
        dtype: DT_STRING
        tensor_shape {
          dim {
            size: 1
          }
        }
        string_val: "1 1 0,1:0,1"
      }
    }
  }
}
node {
  name: "save/RestoreV2_28"
  op: "RestoreV2"
  input: "save/Const"
  input: "save/RestoreV2_28/tensor_names"
  input: "save/RestoreV2_28/shape_and_slices"
  attr {
    key: "_output_shapes"
    value {
      list {
        shape {
          unknown_rank: true
        }
      }
    }
  }
  attr {
    key: "dtypes"
    value {
      list {
        type: DT_FLOAT
      }
    }
  }
}
node {
  name: "save/Assign_28"
  op: "Assign"
  input: "linear/regression_head/linear/school_ratingM/weight/part_0/Adam"
  input: "save/RestoreV2_28"
  attr {
    key: "T"
    value {
      type: DT_FLOAT
    }
  }
  attr {
    key: "_class"
    value {
      list {
        s: "loc:@linear/school_ratingM/weight/part_0"
      }
    }
  }
  attr {
    key: "_output_shapes"
    value {
      list {
        shape {
          dim {
            size: 1
          }
          dim {
            size: 1
          }
        }
      }
    }
  }
  attr {
    key: "use_locking"
    value {
      b: true
    }
  }
  attr {
    key: "validate_shape"
    value {
      b: true
    }
  }
}
node {
  name: "save/RestoreV2_29/tensor_names"
  op: "Const"
  attr {
    key: "_output_shapes"
    value {
      list {
        shape {
          dim {
            size: 1
          }
        }
      }
    }
  }
  attr {
    key: "dtype"
    value {
      type: DT_STRING
    }
  }
  attr {
    key: "value"
    value {
      tensor {
        dtype: DT_STRING
        tensor_shape {
          dim {
            size: 1
          }
        }
        string_val: "linear/school_ratingM/weight/_ratingM/weight/part_0/Adam_1"
      }
    }
  }
}
node {
  name: "save/RestoreV2_29/shape_and_slices"
  op: "Const"
  attr {
    key: "_output_shapes"
    value {
      list {
        shape {
          dim {
            size: 1
          }
        }
      }
    }
  }
  attr {
    key: "dtype"
    value {
      type: DT_STRING
    }
  }
  attr {
    key: "value"
    value {
      tensor {
        dtype: DT_STRING
        tensor_shape {
          dim {
            size: 1
          }
        }
        string_val: "1 1 0,1:0,1"
      }
    }
  }
}
node {
  name: "save/RestoreV2_29"
  op: "RestoreV2"
  input: "save/Const"
  input: "save/RestoreV2_29/tensor_names"
  input: "save/RestoreV2_29/shape_and_slices"
  attr {
    key: "_output_shapes"
    value {
      list {
        shape {
          unknown_rank: true
        }
      }
    }
  }
  attr {
    key: "dtypes"
    value {
      list {
        type: DT_FLOAT
      }
    }
  }
}
node {
  name: "save/Assign_29"
  op: "Assign"
  input: "linear/regression_head/linear/school_ratingM/weight/part_0/Adam_1"
  input: "save/RestoreV2_29"
  attr {
    key: "T"
    value {
      type: DT_FLOAT
    }
  }
  attr {
    key: "_class"
    value {
      list {
        s: "loc:@linear/school_ratingM/weight/part_0"
      }
    }
  }
  attr {
    key: "_output_shapes"
    value {
      list {
        shape {
          dim {
            size: 1
          }
          dim {
            size: 1
          }
        }
      }
    }
  }
  attr {
    key: "use_locking"
    value {
      b: true
    }
  }
  attr {
    key: "validate_shape"
    value {
      b: true
    }
  }
}
node {
  name: "save/RestoreV2_30/tensor_names"
  op: "Const"
  attr {
    key: "_output_shapes"
    value {
      list {
        shape {
          dim {
            size: 1
          }
        }
      }
    }
  }
  attr {
    key: "dtype"
    value {
      type: DT_STRING
    }
  }
  attr {
    key: "value"
    value {
      tensor {
        dtype: DT_STRING
        tensor_shape {
          dim {
            size: 1
          }
        }
        string_val: "linear/size_bucketized/weights"
      }
    }
  }
}
node {
  name: "save/RestoreV2_30/shape_and_slices"
  op: "Const"
  attr {
    key: "_output_shapes"
    value {
      list {
        shape {
          dim {
            size: 1
          }
        }
      }
    }
  }
  attr {
    key: "dtype"
    value {
      type: DT_STRING
    }
  }
  attr {
    key: "value"
    value {
      tensor {
        dtype: DT_STRING
        tensor_shape {
          dim {
            size: 1
          }
        }
        string_val: "31 1 0,31:0,1"
      }
    }
  }
}
node {
  name: "save/RestoreV2_30"
  op: "RestoreV2"
  input: "save/Const"
  input: "save/RestoreV2_30/tensor_names"
  input: "save/RestoreV2_30/shape_and_slices"
  attr {
    key: "_output_shapes"
    value {
      list {
        shape {
          unknown_rank: true
        }
      }
    }
  }
  attr {
    key: "dtypes"
    value {
      list {
        type: DT_FLOAT
      }
    }
  }
}
node {
  name: "save/Assign_30"
  op: "Assign"
  input: "linear/size_bucketized/weights/part_0"
  input: "save/RestoreV2_30"
  attr {
    key: "T"
    value {
      type: DT_FLOAT
    }
  }
  attr {
    key: "_class"
    value {
      list {
        s: "loc:@linear/size_bucketized/weights/part_0"
      }
    }
  }
  attr {
    key: "_output_shapes"
    value {
      list {
        shape {
          dim {
            size: 31
          }
          dim {
            size: 1
          }
        }
      }
    }
  }
  attr {
    key: "use_locking"
    value {
      b: true
    }
  }
  attr {
    key: "validate_shape"
    value {
      b: true
    }
  }
}
node {
  name: "save/RestoreV2_31/tensor_names"
  op: "Const"
  attr {
    key: "_output_shapes"
    value {
      list {
        shape {
          dim {
            size: 1
          }
        }
      }
    }
  }
  attr {
    key: "dtype"
    value {
      type: DT_STRING
    }
  }
  attr {
    key: "value"
    value {
      tensor {
        dtype: DT_STRING
        tensor_shape {
          dim {
            size: 1
          }
        }
        string_val: "linear/size_bucketized/weights/ketized/weights/part_0/Adam"
      }
    }
  }
}
node {
  name: "save/RestoreV2_31/shape_and_slices"
  op: "Const"
  attr {
    key: "_output_shapes"
    value {
      list {
        shape {
          dim {
            size: 1
          }
        }
      }
    }
  }
  attr {
    key: "dtype"
    value {
      type: DT_STRING
    }
  }
  attr {
    key: "value"
    value {
      tensor {
        dtype: DT_STRING
        tensor_shape {
          dim {
            size: 1
          }
        }
        string_val: "31 1 0,31:0,1"
      }
    }
  }
}
node {
  name: "save/RestoreV2_31"
  op: "RestoreV2"
  input: "save/Const"
  input: "save/RestoreV2_31/tensor_names"
  input: "save/RestoreV2_31/shape_and_slices"
  attr {
    key: "_output_shapes"
    value {
      list {
        shape {
          unknown_rank: true
        }
      }
    }
  }
  attr {
    key: "dtypes"
    value {
      list {
        type: DT_FLOAT
      }
    }
  }
}
node {
  name: "save/Assign_31"
  op: "Assign"
  input: "linear/regression_head/linear/size_bucketized/weights/part_0/Adam"
  input: "save/RestoreV2_31"
  attr {
    key: "T"
    value {
      type: DT_FLOAT
    }
  }
  attr {
    key: "_class"
    value {
      list {
        s: "loc:@linear/size_bucketized/weights/part_0"
      }
    }
  }
  attr {
    key: "_output_shapes"
    value {
      list {
        shape {
          dim {
            size: 31
          }
          dim {
            size: 1
          }
        }
      }
    }
  }
  attr {
    key: "use_locking"
    value {
      b: true
    }
  }
  attr {
    key: "validate_shape"
    value {
      b: true
    }
  }
}
node {
  name: "save/RestoreV2_32/tensor_names"
  op: "Const"
  attr {
    key: "_output_shapes"
    value {
      list {
        shape {
          dim {
            size: 1
          }
        }
      }
    }
  }
  attr {
    key: "dtype"
    value {
      type: DT_STRING
    }
  }
  attr {
    key: "value"
    value {
      tensor {
        dtype: DT_STRING
        tensor_shape {
          dim {
            size: 1
          }
        }
        string_val: "linear/size_bucketized/weights/ketized/weights/part_0/Adam_1"
      }
    }
  }
}
node {
  name: "save/RestoreV2_32/shape_and_slices"
  op: "Const"
  attr {
    key: "_output_shapes"
    value {
      list {
        shape {
          dim {
            size: 1
          }
        }
      }
    }
  }
  attr {
    key: "dtype"
    value {
      type: DT_STRING
    }
  }
  attr {
    key: "value"
    value {
      tensor {
        dtype: DT_STRING
        tensor_shape {
          dim {
            size: 1
          }
        }
        string_val: "31 1 0,31:0,1"
      }
    }
  }
}
node {
  name: "save/RestoreV2_32"
  op: "RestoreV2"
  input: "save/Const"
  input: "save/RestoreV2_32/tensor_names"
  input: "save/RestoreV2_32/shape_and_slices"
  attr {
    key: "_output_shapes"
    value {
      list {
        shape {
          unknown_rank: true
        }
      }
    }
  }
  attr {
    key: "dtypes"
    value {
      list {
        type: DT_FLOAT
      }
    }
  }
}
node {
  name: "save/Assign_32"
  op: "Assign"
  input: "linear/regression_head/linear/size_bucketized/weights/part_0/Adam_1"
  input: "save/RestoreV2_32"
  attr {
    key: "T"
    value {
      type: DT_FLOAT
    }
  }
  attr {
    key: "_class"
    value {
      list {
        s: "loc:@linear/size_bucketized/weights/part_0"
      }
    }
  }
  attr {
    key: "_output_shapes"
    value {
      list {
        shape {
          dim {
            size: 31
          }
          dim {
            size: 1
          }
        }
      }
    }
  }
  attr {
    key: "use_locking"
    value {
      b: true
    }
  }
  attr {
    key: "validate_shape"
    value {
      b: true
    }
  }
}
node {
  name: "save/RestoreV2_33/tensor_names"
  op: "Const"
  attr {
    key: "_output_shapes"
    value {
      list {
        shape {
          dim {
            size: 1
          }
        }
      }
    }
  }
  attr {
    key: "dtype"
    value {
      type: DT_STRING
    }
  }
  attr {
    key: "value"
    value {
      tensor {
        dtype: DT_STRING
        tensor_shape {
          dim {
            size: 1
          }
        }
        string_val: "linear/zestimate/weight"
      }
    }
  }
}
node {
  name: "save/RestoreV2_33/shape_and_slices"
  op: "Const"
  attr {
    key: "_output_shapes"
    value {
      list {
        shape {
          dim {
            size: 1
          }
        }
      }
    }
  }
  attr {
    key: "dtype"
    value {
      type: DT_STRING
    }
  }
  attr {
    key: "value"
    value {
      tensor {
        dtype: DT_STRING
        tensor_shape {
          dim {
            size: 1
          }
        }
        string_val: "1 1 0,1:0,1"
      }
    }
  }
}
node {
  name: "save/RestoreV2_33"
  op: "RestoreV2"
  input: "save/Const"
  input: "save/RestoreV2_33/tensor_names"
  input: "save/RestoreV2_33/shape_and_slices"
  attr {
    key: "_output_shapes"
    value {
      list {
        shape {
          unknown_rank: true
        }
      }
    }
  }
  attr {
    key: "dtypes"
    value {
      list {
        type: DT_FLOAT
      }
    }
  }
}
node {
  name: "save/Assign_33"
  op: "Assign"
  input: "linear/zestimate/weight/part_0"
  input: "save/RestoreV2_33"
  attr {
    key: "T"
    value {
      type: DT_FLOAT
    }
  }
  attr {
    key: "_class"
    value {
      list {
        s: "loc:@linear/zestimate/weight/part_0"
      }
    }
  }
  attr {
    key: "_output_shapes"
    value {
      list {
        shape {
          dim {
            size: 1
          }
          dim {
            size: 1
          }
        }
      }
    }
  }
  attr {
    key: "use_locking"
    value {
      b: true
    }
  }
  attr {
    key: "validate_shape"
    value {
      b: true
    }
  }
}
node {
  name: "save/RestoreV2_34/tensor_names"
  op: "Const"
  attr {
    key: "_output_shapes"
    value {
      list {
        shape {
          dim {
            size: 1
          }
        }
      }
    }
  }
  attr {
    key: "dtype"
    value {
      type: DT_STRING
    }
  }
  attr {
    key: "value"
    value {
      tensor {
        dtype: DT_STRING
        tensor_shape {
          dim {
            size: 1
          }
        }
        string_val: "linear/zestimate/weight/estimate/weight/part_0/Adam"
      }
    }
  }
}
node {
  name: "save/RestoreV2_34/shape_and_slices"
  op: "Const"
  attr {
    key: "_output_shapes"
    value {
      list {
        shape {
          dim {
            size: 1
          }
        }
      }
    }
  }
  attr {
    key: "dtype"
    value {
      type: DT_STRING
    }
  }
  attr {
    key: "value"
    value {
      tensor {
        dtype: DT_STRING
        tensor_shape {
          dim {
            size: 1
          }
        }
        string_val: "1 1 0,1:0,1"
      }
    }
  }
}
node {
  name: "save/RestoreV2_34"
  op: "RestoreV2"
  input: "save/Const"
  input: "save/RestoreV2_34/tensor_names"
  input: "save/RestoreV2_34/shape_and_slices"
  attr {
    key: "_output_shapes"
    value {
      list {
        shape {
          unknown_rank: true
        }
      }
    }
  }
  attr {
    key: "dtypes"
    value {
      list {
        type: DT_FLOAT
      }
    }
  }
}
node {
  name: "save/Assign_34"
  op: "Assign"
  input: "linear/regression_head/linear/zestimate/weight/part_0/Adam"
  input: "save/RestoreV2_34"
  attr {
    key: "T"
    value {
      type: DT_FLOAT
    }
  }
  attr {
    key: "_class"
    value {
      list {
        s: "loc:@linear/zestimate/weight/part_0"
      }
    }
  }
  attr {
    key: "_output_shapes"
    value {
      list {
        shape {
          dim {
            size: 1
          }
          dim {
            size: 1
          }
        }
      }
    }
  }
  attr {
    key: "use_locking"
    value {
      b: true
    }
  }
  attr {
    key: "validate_shape"
    value {
      b: true
    }
  }
}
node {
  name: "save/RestoreV2_35/tensor_names"
  op: "Const"
  attr {
    key: "_output_shapes"
    value {
      list {
        shape {
          dim {
            size: 1
          }
        }
      }
    }
  }
  attr {
    key: "dtype"
    value {
      type: DT_STRING
    }
  }
  attr {
    key: "value"
    value {
      tensor {
        dtype: DT_STRING
        tensor_shape {
          dim {
            size: 1
          }
        }
        string_val: "linear/zestimate/weight/estimate/weight/part_0/Adam_1"
      }
    }
  }
}
node {
  name: "save/RestoreV2_35/shape_and_slices"
  op: "Const"
  attr {
    key: "_output_shapes"
    value {
      list {
        shape {
          dim {
            size: 1
          }
        }
      }
    }
  }
  attr {
    key: "dtype"
    value {
      type: DT_STRING
    }
  }
  attr {
    key: "value"
    value {
      tensor {
        dtype: DT_STRING
        tensor_shape {
          dim {
            size: 1
          }
        }
        string_val: "1 1 0,1:0,1"
      }
    }
  }
}
node {
  name: "save/RestoreV2_35"
  op: "RestoreV2"
  input: "save/Const"
  input: "save/RestoreV2_35/tensor_names"
  input: "save/RestoreV2_35/shape_and_slices"
  attr {
    key: "_output_shapes"
    value {
      list {
        shape {
          unknown_rank: true
        }
      }
    }
  }
  attr {
    key: "dtypes"
    value {
      list {
        type: DT_FLOAT
      }
    }
  }
}
node {
  name: "save/Assign_35"
  op: "Assign"
  input: "linear/regression_head/linear/zestimate/weight/part_0/Adam_1"
  input: "save/RestoreV2_35"
  attr {
    key: "T"
    value {
      type: DT_FLOAT
    }
  }
  attr {
    key: "_class"
    value {
      list {
        s: "loc:@linear/zestimate/weight/part_0"
      }
    }
  }
  attr {
    key: "_output_shapes"
    value {
      list {
        shape {
          dim {
            size: 1
          }
          dim {
            size: 1
          }
        }
      }
    }
  }
  attr {
    key: "use_locking"
    value {
      b: true
    }
  }
  attr {
    key: "validate_shape"
    value {
      b: true
    }
  }
}
node {
  name: "save/restore_shard"
  op: "NoOp"
  input: "^save/Assign"
  input: "^save/Assign_1"
  input: "^save/Assign_2"
  input: "^save/Assign_3"
  input: "^save/Assign_4"
  input: "^save/Assign_5"
  input: "^save/Assign_6"
  input: "^save/Assign_7"
  input: "^save/Assign_8"
  input: "^save/Assign_9"
  input: "^save/Assign_10"
  input: "^save/Assign_11"
  input: "^save/Assign_12"
  input: "^save/Assign_13"
  input: "^save/Assign_14"
  input: "^save/Assign_15"
  input: "^save/Assign_16"
  input: "^save/Assign_17"
  input: "^save/Assign_18"
  input: "^save/Assign_19"
  input: "^save/Assign_20"
  input: "^save/Assign_21"
  input: "^save/Assign_22"
  input: "^save/Assign_23"
  input: "^save/Assign_24"
  input: "^save/Assign_25"
  input: "^save/Assign_26"
  input: "^save/Assign_27"
  input: "^save/Assign_28"
  input: "^save/Assign_29"
  input: "^save/Assign_30"
  input: "^save/Assign_31"
  input: "^save/Assign_32"
  input: "^save/Assign_33"
  input: "^save/Assign_34"
  input: "^save/Assign_35"
}
node {
  name: "save/restore_all"
  op: "NoOp"
  input: "^save/restore_shard"
}
versions {
  producer: 21
}
